I0627 10:46:53.349459 33979 caffe.cpp:339] Use GPU with device ID 0
I0627 10:46:54.100878 33979 net.cpp:53] Initializing net from parameters: 
state {
  phase: TRAIN
  level: 0
  stage: ""
}
layer {
  name: "data"
  type: "Input"
  top: "data"
  input_param {
    shape {
      dim: 1
      dim: 3
      dim: 320
      dim: 320
    }
  }
}
layer {
  name: "mobilenet0_conv0"
  type: "Convolution"
  bottom: "data"
  top: "mobilenet0_conv0"
  convolution_param {
    num_output: 8
    bias_term: false
    group: 1
    stride: 2
    pad_h: 1
    pad_w: 1
    kernel_h: 3
    kernel_w: 3
  }
}
layer {
  name: "mobilenet0_batchnorm0"
  type: "BatchNorm"
  bottom: "mobilenet0_conv0"
  top: "mobilenet0_batchnorm0"
  batch_norm_param {
    use_global_stats: true
    eps: 1e-05
  }
}
layer {
  name: "mobilenet0_batchnorm0_scale"
  type: "Scale"
  bottom: "mobilenet0_batchnorm0"
  top: "mobilenet0_batchnorm0"
  scale_param {
    bias_term: true
  }
}
layer {
  name: "mobilenet0_relu0"
  type: "ReLU"
  bottom: "mobilenet0_batchnorm0"
  top: "mobilenet0_batchnorm0"
}
layer {
  name: "mobilenet0_conv1"
  type: "Convolution"
  bottom: "mobilenet0_batchnorm0"
  top: "mobilenet0_conv1"
  convolution_param {
    num_output: 8
    bias_term: false
    group: 8
    stride: 1
    pad_h: 1
    pad_w: 1
    kernel_h: 3
    kernel_w: 3
  }
}
layer {
  name: "mobilenet0_batchnorm1"
  type: "BatchNorm"
  bottom: "mobilenet0_conv1"
  top: "mobilenet0_batchnorm1"
  batch_norm_param {
    use_global_stats: true
    eps: 1e-05
  }
}
layer {
  name: "mobilenet0_batchnorm1_scale"
  type: "Scale"
  bottom: "mobilenet0_batchnorm1"
  top: "mobilenet0_batchnorm1"
  scale_param {
    bias_term: true
  }
}
layer {
  name: "mobilenet0_relu1"
  type: "ReLU"
  bottom: "mobilenet0_batchnorm1"
  top: "mobilenet0_batchnorm1"
}
layer {
  name: "mobilenet0_conv2"
  type: "Convolution"
  bottom: "mobilenet0_batchnorm1"
  top: "mobilenet0_conv2"
  convolution_param {
    num_output: 16
    bias_term: false
    group: 1
    stride: 1
    pad_h: 0
    pad_w: 0
    kernel_h: 1
    kernel_w: 1
  }
}
layer {
  name: "mobilenet0_batchnorm2"
  type: "BatchNorm"
  bottom: "mobilenet0_conv2"
  top: "mobilenet0_batchnorm2"
  batch_norm_param {
    use_global_stats: true
    eps: 1e-05
  }
}
layer {
  name: "mobilenet0_batchnorm2_scale"
  type: "Scale"
  bottom: "mobilenet0_batchnorm2"
  top: "mobilenet0_batchnorm2"
  scale_param {
    bias_term: true
  }
}
layer {
  name: "mobilenet0_relu2"
  type: "ReLU"
  bottom: "mobilenet0_batchnorm2"
  top: "mobilenet0_batchnorm2"
}
layer {
  name: "mobilenet0_conv3"
  type: "Convolution"
  bottom: "mobilenet0_batchnorm2"
  top: "mobilenet0_conv3"
  convolution_param {
    num_output: 16
    bias_term: false
    group: 16
    stride: 2
    pad_h: 1
    pad_w: 1
    kernel_h: 3
    kernel_w: 3
  }
}
layer {
  name: "mobilenet0_batchnorm3"
  type: "BatchNorm"
  bottom: "mobilenet0_conv3"
  top: "mobilenet0_batchnorm3"
  batch_norm_param {
    use_global_stats: true
    eps: 1e-05
  }
}
layer {
  name: "mobilenet0_batchnorm3_scale"
  type: "Scale"
  bottom: "mobilenet0_batchnorm3"
  top: "mobilenet0_batchnorm3"
  scale_param {
    bias_term: true
  }
}
layer {
  name: "mobilenet0_relu3"
  type: "ReLU"
  bottom: "mobilenet0_batchnorm3"
  top: "mobilenet0_batchnorm3"
}
layer {
  name: "mobilenet0_conv4"
  type: "Convolution"
  bottom: "mobilenet0_batchnorm3"
  top: "mobilenet0_conv4"
  convolution_param {
    num_output: 32
    bias_term: false
    group: 1
    stride: 1
    pad_h: 0
    pad_w: 0
    kernel_h: 1
    kernel_w: 1
  }
}
layer {
  name: "mobilenet0_batchnorm4"
  type: "BatchNorm"
  bottom: "mobilenet0_conv4"
  top: "mobilenet0_batchnorm4"
  batch_norm_param {
    use_global_stats: true
    eps: 1e-05
  }
}
layer {
  name: "mobilenet0_batchnorm4_scale"
  type: "Scale"
  bottom: "mobilenet0_batchnorm4"
  top: "mobilenet0_batchnorm4"
  scale_param {
    bias_term: true
  }
}
layer {
  name: "mobilenet0_relu4"
  type: "ReLU"
  bottom: "mobilenet0_batchnorm4"
  top: "mobilenet0_batchnorm4"
}
layer {
  name: "mobilenet0_conv5"
  type: "Convolution"
  bottom: "mobilenet0_batchnorm4"
  top: "mobilenet0_conv5"
  convolution_param {
    num_output: 32
    bias_term: false
    group: 32
    stride: 1
    pad_h: 1
    pad_w: 1
    kernel_h: 3
    kernel_w: 3
  }
}
layer {
  name: "mobilenet0_batchnorm5"
  type: "BatchNorm"
  bottom: "mobilenet0_conv5"
  top: "mobilenet0_batchnorm5"
  batch_norm_param {
    use_global_stats: true
    eps: 1e-05
  }
}
layer {
  name: "mobilenet0_batchnorm5_scale"
  type: "Scale"
  bottom: "mobilenet0_batchnorm5"
  top: "mobilenet0_batchnorm5"
  scale_param {
    bias_term: true
  }
}
layer {
  name: "mobilenet0_relu5"
  type: "ReLU"
  bottom: "mobilenet0_batchnorm5"
  top: "mobilenet0_batchnorm5"
}
layer {
  name: "mobilenet0_conv6"
  type: "Convolution"
  bottom: "mobilenet0_batchnorm5"
  top: "mobilenet0_conv6"
  convolution_param {
    num_output: 32
    bias_term: false
    group: 1
    stride: 1
    pad_h: 0
    pad_w: 0
    kernel_h: 1
    kernel_w: 1
  }
}
layer {
  name: "mobilenet0_batchnorm6"
  type: "BatchNorm"
  bottom: "mobilenet0_conv6"
  top: "mobilenet0_batchnorm6"
  batch_norm_param {
    use_global_stats: true
    eps: 1e-05
  }
}
layer {
  name: "mobilenet0_batchnorm6_scale"
  type: "Scale"
  bottom: "mobilenet0_batchnorm6"
  top: "mobilenet0_batchnorm6"
  scale_param {
    bias_term: true
  }
}
layer {
  name: "mobilenet0_relu6"
  type: "ReLU"
  bottom: "mobilenet0_batchnorm6"
  top: "mobilenet0_batchnorm6"
}
layer {
  name: "mobilenet0_conv7"
  type: "Convolution"
  bottom: "mobilenet0_batchnorm6"
  top: "mobilenet0_conv7"
  convolution_param {
    num_output: 32
    bias_term: false
    group: 32
    stride: 2
    pad_h: 1
    pad_w: 1
    kernel_h: 3
    kernel_w: 3
  }
}
layer {
  name: "mobilenet0_batchnorm7"
  type: "BatchNorm"
  bottom: "mobilenet0_conv7"
  top: "mobilenet0_batchnorm7"
  batch_norm_param {
    use_global_stats: true
    eps: 1e-05
  }
}
layer {
  name: "mobilenet0_batchnorm7_scale"
  type: "Scale"
  bottom: "mobilenet0_batchnorm7"
  top: "mobilenet0_batchnorm7"
  scale_param {
    bias_term: true
  }
}
layer {
  name: "mobilenet0_relu7"
  type: "ReLU"
  bottom: "mobilenet0_batchnorm7"
  top: "mobilenet0_batchnorm7"
}
layer {
  name: "mobilenet0_conv8"
  type: "Convolution"
  bottom: "mobilenet0_batchnorm7"
  top: "mobilenet0_conv8"
  convolution_param {
    num_output: 64
    bias_term: false
    group: 1
    stride: 1
    pad_h: 0
    pad_w: 0
    kernel_h: 1
    kernel_w: 1
  }
}
layer {
  name: "mobilenet0_batchnorm8"
  type: "BatchNorm"
  bottom: "mobilenet0_conv8"
  top: "mobilenet0_batchnorm8"
  batch_norm_param {
    use_global_stats: true
    eps: 1e-05
  }
}
layer {
  name: "mobilenet0_batchnorm8_scale"
  type: "Scale"
  bottom: "mobilenet0_batchnorm8"
  top: "mobilenet0_batchnorm8"
  scale_param {
    bias_term: true
  }
}
layer {
  name: "mobilenet0_relu8"
  type: "ReLU"
  bottom: "mobilenet0_batchnorm8"
  top: "mobilenet0_batchnorm8"
}
layer {
  name: "mobilenet0_conv9"
  type: "Convolution"
  bottom: "mobilenet0_batchnorm8"
  top: "mobilenet0_conv9"
  convolution_param {
    num_output: 64
    bias_term: false
    group: 64
    stride: 1
    pad_h: 1
    pad_w: 1
    kernel_h: 3
    kernel_w: 3
  }
}
layer {
  name: "mobilenet0_batchnorm9"
  type: "BatchNorm"
  bottom: "mobilenet0_conv9"
  top: "mobilenet0_batchnorm9"
  batch_norm_param {
    use_global_stats: true
    eps: 1e-05
  }
}
layer {
  name: "mobilenet0_batchnorm9_scale"
  type: "Scale"
  bottom: "mobilenet0_batchnorm9"
  top: "mobilenet0_batchnorm9"
  scale_param {
    bias_term: true
  }
}
layer {
  name: "mobilenet0_relu9"
  type: "ReLU"
  bottom: "mobilenet0_batchnorm9"
  top: "mobilenet0_batchnorm9"
}
layer {
  name: "mobilenet0_conv10"
  type: "Convolution"
  bottom: "mobilenet0_batchnorm9"
  top: "mobilenet0_conv10"
  convolution_param {
    num_output: 64
    bias_term: false
    group: 1
    stride: 1
    pad_h: 0
    pad_w: 0
    kernel_h: 1
    kernel_w: 1
  }
}
layer {
  name: "mobilenet0_batchnorm10"
  type: "BatchNorm"
  bottom: "mobilenet0_conv10"
  top: "mobilenet0_batchnorm10"
  batch_norm_param {
    use_global_stats: true
    eps: 1e-05
  }
}
layer {
  name: "mobilenet0_batchnorm10_scale"
  type: "Scale"
  bottom: "mobilenet0_batchnorm10"
  top: "mobilenet0_batchnorm10"
  scale_param {
    bias_term: true
  }
}
layer {
  name: "mobilenet0_relu10"
  type: "ReLU"
  bottom: "mobilenet0_batchnorm10"
  top: "mobilenet0_batchnorm10"
}
layer {
  name: "mobilenet0_conv11"
  type: "Convolution"
  bottom: "mobilenet0_batchnorm10"
  top: "mobilenet0_conv11"
  convolution_param {
    num_output: 64
    bias_term: false
    group: 64
    stride: 2
    pad_h: 1
    pad_w: 1
    kernel_h: 3
    kernel_w: 3
  }
}
layer {
  name: "rf_c1_red_conv"
  type: "Convolution"
  bottom: "mobilenet0_batchnorm10"
  top: "rf_c1_red_conv"
  convolution_param {
    num_output: 64
    bias_term: true
    group: 1
    stride: 1
    pad_h: 0
    pad_w: 0
    kernel_h: 1
    kernel_w: 1
  }
}
layer {
  name: "mobilenet0_batchnorm11"
  type: "BatchNorm"
  bottom: "mobilenet0_conv11"
  top: "mobilenet0_batchnorm11"
  batch_norm_param {
    use_global_stats: true
    eps: 1e-05
  }
}
layer {
  name: "mobilenet0_batchnorm11_scale"
  type: "Scale"
  bottom: "mobilenet0_batchnorm11"
  top: "mobilenet0_batchnorm11"
  scale_param {
    bias_term: true
  }
}
layer {
  name: "rf_c1_red_conv_bn"
  type: "BatchNorm"
  bottom: "rf_c1_red_conv"
  top: "rf_c1_red_conv_bn"
  batch_norm_param {
    use_global_stats: true
    eps: 2e-05
  }
}
layer {
  name: "rf_c1_red_conv_bn_scale"
  type: "Scale"
  bottom: "rf_c1_red_conv_bn"
  top: "rf_c1_red_conv_bn"
  scale_param {
    bias_term: true
  }
}
layer {
  name: "mobilenet0_relu11"
  type: "ReLU"
  bottom: "mobilenet0_batchnorm11"
  top: "mobilenet0_batchnorm11"
}
layer {
  name: "rf_c1_red_conv_relu"
  type: "ReLU"
  bottom: "rf_c1_red_conv_bn"
  top: "rf_c1_red_conv_bn"
}
layer {
  name: "mobilenet0_conv12"
  type: "Convolution"
  bottom: "mobilenet0_batchnorm11"
  top: "mobilenet0_conv12"
  convolution_param {
    num_output: 128
    bias_term: false
    group: 1
    stride: 1
    pad_h: 0
    pad_w: 0
    kernel_h: 1
    kernel_w: 1
  }
}
layer {
  name: "mobilenet0_batchnorm12"
  type: "BatchNorm"
  bottom: "mobilenet0_conv12"
  top: "mobilenet0_batchnorm12"
  batch_norm_param {
    use_global_stats: true
    eps: 1e-05
  }
}
layer {
  name: "mobilenet0_batchnorm12_scale"
  type: "Scale"
  bottom: "mobilenet0_batchnorm12"
  top: "mobilenet0_batchnorm12"
  scale_param {
    bias_term: true
  }
}
layer {
  name: "mobilenet0_relu12"
  type: "ReLU"
  bottom: "mobilenet0_batchnorm12"
  top: "mobilenet0_batchnorm12"
}
layer {
  name: "mobilenet0_conv13"
  type: "Convolution"
  bottom: "mobilenet0_batchnorm12"
  top: "mobilenet0_conv13"
  convolution_param {
    num_output: 128
    bias_term: false
    group: 128
    stride: 1
    pad_h: 1
    pad_w: 1
    kernel_h: 3
    kernel_w: 3
  }
}
layer {
  name: "mobilenet0_batchnorm13"
  type: "BatchNorm"
  bottom: "mobilenet0_conv13"
  top: "mobilenet0_batchnorm13"
  batch_norm_param {
    use_global_stats: true
    eps: 1e-05
  }
}
layer {
  name: "mobilenet0_batchnorm13_scale"
  type: "Scale"
  bottom: "mobilenet0_batchnorm13"
  top: "mobilenet0_batchnorm13"
  scale_param {
    bias_term: true
  }
}
layer {
  name: "mobilenet0_relu13"
  type: "ReLU"
  bottom: "mobilenet0_batchnorm13"
  top: "mobilenet0_batchnorm13"
}
layer {
  name: "mobilenet0_conv14"
  type: "Convolution"
  bottom: "mobilenet0_batchnorm13"
  top: "mobilenet0_conv14"
  convolution_param {
    num_output: 128
    bias_term: false
    group: 1
    stride: 1
    pad_h: 0
    pad_w: 0
    kernel_h: 1
    kernel_w: 1
  }
}
layer {
  name: "mobilenet0_batchnorm14"
  type: "BatchNorm"
  bottom: "mobilenet0_conv14"
  top: "mobilenet0_batchnorm14"
  batch_norm_param {
    use_global_stats: true
    eps: 1e-05
  }
}
layer {
  name: "mobilenet0_batchnorm14_scale"
  type: "Scale"
  bottom: "mobilenet0_batchnorm14"
  top: "mobilenet0_batchnorm14"
  scale_param {
    bias_term: true
  }
}
layer {
  name: "mobilenet0_relu14"
  type: "ReLU"
  bottom: "mobilenet0_batchnorm14"
  top: "mobilenet0_batchnorm14"
}
layer {
  name: "mobilenet0_conv15"
  type: "Convolution"
  bottom: "mobilenet0_batchnorm14"
  top: "mobilenet0_conv15"
  convolution_param {
    num_output: 128
    bias_term: false
    group: 128
    stride: 1
    pad_h: 1
    pad_w: 1
    kernel_h: 3
    kernel_w: 3
  }
}
layer {
  name: "mobilenet0_batchnorm15"
  type: "BatchNorm"
  bottom: "mobilenet0_conv15"
  top: "mobilenet0_batchnorm15"
  batch_norm_param {
    use_global_stats: true
    eps: 1e-05
  }
}
layer {
  name: "mobilenet0_batchnorm15_scale"
  type: "Scale"
  bottom: "mobilenet0_batchnorm15"
  top: "mobilenet0_batchnorm15"
  scale_param {
    bias_term: true
  }
}
layer {
  name: "mobilenet0_relu15"
  type: "ReLU"
  bottom: "mobilenet0_batchnorm15"
  top: "mobilenet0_batchnorm15"
}
layer {
  name: "mobilenet0_conv16"
  type: "Convolution"
  bottom: "mobilenet0_batchnorm15"
  top: "mobilenet0_conv16"
  convolution_param {
    num_output: 128
    bias_term: false
    group: 1
    stride: 1
    pad_h: 0
    pad_w: 0
    kernel_h: 1
    kernel_w: 1
  }
}
layer {
  name: "mobilenet0_batchnorm16"
  type: "BatchNorm"
  bottom: "mobilenet0_conv16"
  top: "mobilenet0_batchnorm16"
  batch_norm_param {
    use_global_stats: true
    eps: 1e-05
  }
}
layer {
  name: "mobilenet0_batchnorm16_scale"
  type: "Scale"
  bottom: "mobilenet0_batchnorm16"
  top: "mobilenet0_batchnorm16"
  scale_param {
    bias_term: true
  }
}
layer {
  name: "mobilenet0_relu16"
  type: "ReLU"
  bottom: "mobilenet0_batchnorm16"
  top: "mobilenet0_batchnorm16"
}
layer {
  name: "mobilenet0_conv17"
  type: "Convolution"
  bottom: "mobilenet0_batchnorm16"
  top: "mobilenet0_conv17"
  convolution_param {
    num_output: 128
    bias_term: false
    group: 128
    stride: 1
    pad_h: 1
    pad_w: 1
    kernel_h: 3
    kernel_w: 3
  }
}
layer {
  name: "mobilenet0_batchnorm17"
  type: "BatchNorm"
  bottom: "mobilenet0_conv17"
  top: "mobilenet0_batchnorm17"
  batch_norm_param {
    use_global_stats: true
    eps: 1e-05
  }
}
layer {
  name: "mobilenet0_batchnorm17_scale"
  type: "Scale"
  bottom: "mobilenet0_batchnorm17"
  top: "mobilenet0_batchnorm17"
  scale_param {
    bias_term: true
  }
}
layer {
  name: "mobilenet0_relu17"
  type: "ReLU"
  bottom: "mobilenet0_batchnorm17"
  top: "mobilenet0_batchnorm17"
}
layer {
  name: "mobilenet0_conv18"
  type: "Convolution"
  bottom: "mobilenet0_batchnorm17"
  top: "mobilenet0_conv18"
  convolution_param {
    num_output: 128
    bias_term: false
    group: 1
    stride: 1
    pad_h: 0
    pad_w: 0
    kernel_h: 1
    kernel_w: 1
  }
}
layer {
  name: "mobilenet0_batchnorm18"
  type: "BatchNorm"
  bottom: "mobilenet0_conv18"
  top: "mobilenet0_batchnorm18"
  batch_norm_param {
    use_global_stats: true
    eps: 1e-05
  }
}
layer {
  name: "mobilenet0_batchnorm18_scale"
  type: "Scale"
  bottom: "mobilenet0_batchnorm18"
  top: "mobilenet0_batchnorm18"
  scale_param {
    bias_term: true
  }
}
layer {
  name: "mobilenet0_relu18"
  type: "ReLU"
  bottom: "mobilenet0_batchnorm18"
  top: "mobilenet0_batchnorm18"
}
layer {
  name: "mobilenet0_conv19"
  type: "Convolution"
  bottom: "mobilenet0_batchnorm18"
  top: "mobilenet0_conv19"
  convolution_param {
    num_output: 128
    bias_term: false
    group: 128
    stride: 1
    pad_h: 1
    pad_w: 1
    kernel_h: 3
    kernel_w: 3
  }
}
layer {
  name: "mobilenet0_batchnorm19"
  type: "BatchNorm"
  bottom: "mobilenet0_conv19"
  top: "mobilenet0_batchnorm19"
  batch_norm_param {
    use_global_stats: true
    eps: 1e-05
  }
}
layer {
  name: "mobilenet0_batchnorm19_scale"
  type: "Scale"
  bottom: "mobilenet0_batchnorm19"
  top: "mobilenet0_batchnorm19"
  scale_param {
    bias_term: true
  }
}
layer {
  name: "mobilenet0_relu19"
  type: "ReLU"
  bottom: "mobilenet0_batchnorm19"
  top: "mobilenet0_batchnorm19"
}
layer {
  name: "mobilenet0_conv20"
  type: "Convolution"
  bottom: "mobilenet0_batchnorm19"
  top: "mobilenet0_conv20"
  convolution_param {
    num_output: 128
    bias_term: false
    group: 1
    stride: 1
    pad_h: 0
    pad_w: 0
    kernel_h: 1
    kernel_w: 1
  }
}
layer {
  name: "mobilenet0_batchnorm20"
  type: "BatchNorm"
  bottom: "mobilenet0_conv20"
  top: "mobilenet0_batchnorm20"
  batch_norm_param {
    use_global_stats: true
    eps: 1e-05
  }
}
layer {
  name: "mobilenet0_batchnorm20_scale"
  type: "Scale"
  bottom: "mobilenet0_batchnorm20"
  top: "mobilenet0_batchnorm20"
  scale_param {
    bias_term: true
  }
}
layer {
  name: "mobilenet0_relu20"
  type: "ReLU"
  bottom: "mobilenet0_batchnorm20"
  top: "mobilenet0_batchnorm20"
}
layer {
  name: "mobilenet0_conv21"
  type: "Convolution"
  bottom: "mobilenet0_batchnorm20"
  top: "mobilenet0_conv21"
  convolution_param {
    num_output: 128
    bias_term: false
    group: 128
    stride: 1
    pad_h: 1
    pad_w: 1
    kernel_h: 3
    kernel_w: 3
  }
}
layer {
  name: "mobilenet0_batchnorm21"
  type: "BatchNorm"
  bottom: "mobilenet0_conv21"
  top: "mobilenet0_batchnorm21"
  batch_norm_param {
    use_global_stats: true
    eps: 1e-05
  }
}
layer {
  name: "mobilenet0_batchnorm21_scale"
  type: "Scale"
  bottom: "mobilenet0_batchnorm21"
  top: "mobilenet0_batchnorm21"
  scale_param {
    bias_term: true
  }
}
layer {
  name: "mobilenet0_relu21"
  type: "ReLU"
  bottom: "mobilenet0_batchnorm21"
  top: "mobilenet0_batchnorm21"
}
layer {
  name: "mobilenet0_conv22"
  type: "Convolution"
  bottom: "mobilenet0_batchnorm21"
  top: "mobilenet0_conv22"
  convolution_param {
    num_output: 128
    bias_term: false
    group: 1
    stride: 1
    pad_h: 0
    pad_w: 0
    kernel_h: 1
    kernel_w: 1
  }
}
layer {
  name: "mobilenet0_batchnorm22"
  type: "BatchNorm"
  bottom: "mobilenet0_conv22"
  top: "mobilenet0_batchnorm22"
  batch_norm_param {
    use_global_stats: true
    eps: 1e-05
  }
}
layer {
  name: "mobilenet0_batchnorm22_scale"
  type: "Scale"
  bottom: "mobilenet0_batchnorm22"
  top: "mobilenet0_batchnorm22"
  scale_param {
    bias_term: true
  }
}
layer {
  name: "mobilenet0_relu22"
  type: "ReLU"
  bottom: "mobilenet0_batchnorm22"
  top: "mobilenet0_batchnorm22"
}
layer {
  name: "mobilenet0_conv23"
  type: "Convolution"
  bottom: "mobilenet0_batchnorm22"
  top: "mobilenet0_conv23"
  convolution_param {
    num_output: 128
    bias_term: false
    group: 128
    stride: 2
    pad_h: 1
    pad_w: 1
    kernel_h: 3
    kernel_w: 3
  }
}
layer {
  name: "rf_c2_lateral"
  type: "Convolution"
  bottom: "mobilenet0_batchnorm22"
  top: "rf_c2_lateral"
  convolution_param {
    num_output: 64
    bias_term: true
    group: 1
    stride: 1
    pad_h: 0
    pad_w: 0
    kernel_h: 1
    kernel_w: 1
  }
}
layer {
  name: "mobilenet0_batchnorm23"
  type: "BatchNorm"
  bottom: "mobilenet0_conv23"
  top: "mobilenet0_batchnorm23"
  batch_norm_param {
    use_global_stats: true
    eps: 1e-05
  }
}
layer {
  name: "mobilenet0_batchnorm23_scale"
  type: "Scale"
  bottom: "mobilenet0_batchnorm23"
  top: "mobilenet0_batchnorm23"
  scale_param {
    bias_term: true
  }
}
layer {
  name: "rf_c2_lateral_bn"
  type: "BatchNorm"
  bottom: "rf_c2_lateral"
  top: "rf_c2_lateral_bn"
  batch_norm_param {
    use_global_stats: true
    eps: 2e-05
  }
}
layer {
  name: "rf_c2_lateral_bn_scale"
  type: "Scale"
  bottom: "rf_c2_lateral_bn"
  top: "rf_c2_lateral_bn"
  scale_param {
    bias_term: true
  }
}
layer {
  name: "mobilenet0_relu23"
  type: "ReLU"
  bottom: "mobilenet0_batchnorm23"
  top: "mobilenet0_batchnorm23"
}
layer {
  name: "rf_c2_lateral_relu"
  type: "ReLU"
  bottom: "rf_c2_lateral_bn"
  top: "rf_c2_lateral_bn"
}
layer {
  name: "mobilenet0_conv24"
  type: "Convolution"
  bottom: "mobilenet0_batchnorm23"
  top: "mobilenet0_conv24"
  convolution_param {
    num_output: 256
    bias_term: false
    group: 1
    stride: 1
    pad_h: 0
    pad_w: 0
    kernel_h: 1
    kernel_w: 1
  }
}
layer {
  name: "mobilenet0_batchnorm24"
  type: "BatchNorm"
  bottom: "mobilenet0_conv24"
  top: "mobilenet0_batchnorm24"
  batch_norm_param {
    use_global_stats: true
    eps: 1e-05
  }
}
layer {
  name: "mobilenet0_batchnorm24_scale"
  type: "Scale"
  bottom: "mobilenet0_batchnorm24"
  top: "mobilenet0_batchnorm24"
  scale_param {
    bias_term: true
  }
}
layer {
  name: "mobilenet0_relu24"
  type: "ReLU"
  bottom: "mobilenet0_batchnorm24"
  top: "mobilenet0_batchnorm24"
}
layer {
  name: "mobilenet0_conv25"
  type: "Convolution"
  bottom: "mobilenet0_batchnorm24"
  top: "mobilenet0_conv25"
  convolution_param {
    num_output: 256
    bias_term: false
    group: 256
    stride: 1
    pad_h: 1
    pad_w: 1
    kernel_h: 3
    kernel_w: 3
  }
}
layer {
  name: "mobilenet0_batchnorm25"
  type: "BatchNorm"
  bottom: "mobilenet0_conv25"
  top: "mobilenet0_batchnorm25"
  batch_norm_param {
    use_global_stats: true
    eps: 1e-05
  }
}
layer {
  name: "mobilenet0_batchnorm25_scale"
  type: "Scale"
  bottom: "mobilenet0_batchnorm25"
  top: "mobilenet0_batchnorm25"
  scale_param {
    bias_term: true
  }
}
layer {
  name: "mobilenet0_relu25"
  type: "ReLU"
  bottom: "mobilenet0_batchnorm25"
  top: "mobilenet0_batchnorm25"
}
layer {
  name: "mobilenet0_conv26"
  type: "Convolution"
  bottom: "mobilenet0_batchnorm25"
  top: "mobilenet0_conv26"
  convolution_param {
    num_output: 256
    bias_term: false
    group: 1
    stride: 1
    pad_h: 0
    pad_w: 0
    kernel_h: 1
    kernel_w: 1
  }
}
layer {
  name: "mobilenet0_batchnorm26"
  type: "BatchNorm"
  bottom: "mobilenet0_conv26"
  top: "mobilenet0_batchnorm26"
  batch_norm_param {
    use_global_stats: true
    eps: 1e-05
  }
}
layer {
  name: "mobilenet0_batchnorm26_scale"
  type: "Scale"
  bottom: "mobilenet0_batchnorm26"
  top: "mobilenet0_batchnorm26"
  scale_param {
    bias_term: true
  }
}
layer {
  name: "mobilenet0_relu26"
  type: "ReLU"
  bottom: "mobilenet0_batchnorm26"
  top: "mobilenet0_batchnorm26"
}
layer {
  name: "rf_c3_lateral"
  type: "Convolution"
  bottom: "mobilenet0_batchnorm26"
  top: "rf_c3_lateral"
  convolution_param {
    num_output: 64
    bias_term: true
    group: 1
    stride: 1
    pad_h: 0
    pad_w: 0
    kernel_h: 1
    kernel_w: 1
  }
}
layer {
  name: "rf_c3_lateral_bn"
  type: "BatchNorm"
  bottom: "rf_c3_lateral"
  top: "rf_c3_lateral_bn"
  batch_norm_param {
    use_global_stats: true
    eps: 2e-05
  }
}
layer {
  name: "rf_c3_lateral_bn_scale"
  type: "Scale"
  bottom: "rf_c3_lateral_bn"
  top: "rf_c3_lateral_bn"
  scale_param {
    bias_term: true
  }
}
layer {
  name: "rf_c3_lateral_relu"
  type: "ReLU"
  bottom: "rf_c3_lateral_bn"
  top: "rf_c3_lateral_bn"
}
layer {
  name: "rf_c3_det_conv1"
  type: "Convolution"
  bottom: "rf_c3_lateral_bn"
  top: "rf_c3_det_conv1"
  convolution_param {
    num_output: 32
    bias_term: true
    group: 1
    stride: 1
    pad_h: 1
    pad_w: 1
    kernel_h: 3
    kernel_w: 3
  }
}
layer {
  name: "rf_c3_det_context_conv1"
  type: "Convolution"
  bottom: "rf_c3_lateral_bn"
  top: "rf_c3_det_context_conv1"
  convolution_param {
    num_output: 16
    bias_term: true
    group: 1
    stride: 1
    pad_h: 1
    pad_w: 1
    kernel_h: 3
    kernel_w: 3
  }
}
layer {
  name: "rf_c3_upsampling_"
  type: "Deconvolution"
  bottom: "rf_c3_lateral_bn"
  top: "rf_c3_upsampling"
  param {
    lr_mult: 0
  }
  convolution_param {
    num_output: 64
    bias_term: false
    pad: 0
    kernel_size: 2
    group: 64
    stride: 2
    weight_filler {
      type: "constant"
      value: 1
    }
    dilation: 1
  }
}
layer {
  name: "rf_c3_det_conv1_bn"
  type: "BatchNorm"
  bottom: "rf_c3_det_conv1"
  top: "rf_c3_det_conv1_bn"
  batch_norm_param {
    use_global_stats: true
    eps: 2e-05
  }
}
layer {
  name: "rf_c3_det_conv1_bn_scale"
  type: "Scale"
  bottom: "rf_c3_det_conv1_bn"
  top: "rf_c3_det_conv1_bn"
  scale_param {
    bias_term: true
  }
}
layer {
  name: "rf_c3_det_context_conv1_bn"
  type: "BatchNorm"
  bottom: "rf_c3_det_context_conv1"
  top: "rf_c3_det_context_conv1_bn"
  batch_norm_param {
    use_global_stats: true
    eps: 2e-05
  }
}
layer {
  name: "rf_c3_det_context_conv1_bn_scale"
  type: "Scale"
  bottom: "rf_c3_det_context_conv1_bn"
  top: "rf_c3_det_context_conv1_bn"
  scale_param {
    bias_term: true
  }
}
layer {
  name: "crop0"
  type: "Crop"
  bottom: "rf_c3_upsampling"
  bottom: "rf_c2_lateral_bn"
  top: "crop0"
}
layer {
  name: "rf_c3_det_context_conv1_relu"
  type: "ReLU"
  bottom: "rf_c3_det_context_conv1_bn"
  top: "rf_c3_det_context_conv1_bn"
}
layer {
  name: "plus0"
  type: "Eltwise"
  bottom: "rf_c2_lateral_bn"
  bottom: "crop0"
  top: "plus0"
  eltwise_param {
    operation: SUM
  }
}
layer {
  name: "rf_c3_det_context_conv2"
  type: "Convolution"
  bottom: "rf_c3_det_context_conv1_bn"
  top: "rf_c3_det_context_conv2"
  convolution_param {
    num_output: 16
    bias_term: true
    group: 1
    stride: 1
    pad_h: 1
    pad_w: 1
    kernel_h: 3
    kernel_w: 3
  }
}
layer {
  name: "rf_c3_det_context_conv3_1"
  type: "Convolution"
  bottom: "rf_c3_det_context_conv1_bn"
  top: "rf_c3_det_context_conv3_1"
  convolution_param {
    num_output: 16
    bias_term: true
    group: 1
    stride: 1
    pad_h: 1
    pad_w: 1
    kernel_h: 3
    kernel_w: 3
  }
}
layer {
  name: "rf_c2_aggr"
  type: "Convolution"
  bottom: "plus0"
  top: "rf_c2_aggr"
  convolution_param {
    num_output: 64
    bias_term: true
    group: 1
    stride: 1
    pad_h: 1
    pad_w: 1
    kernel_h: 3
    kernel_w: 3
  }
}
layer {
  name: "rf_c3_det_context_conv2_bn"
  type: "BatchNorm"
  bottom: "rf_c3_det_context_conv2"
  top: "rf_c3_det_context_conv2_bn"
  batch_norm_param {
    use_global_stats: true
    eps: 2e-05
  }
}
layer {
  name: "rf_c3_det_context_conv2_bn_scale"
  type: "Scale"
  bottom: "rf_c3_det_context_conv2_bn"
  top: "rf_c3_det_context_conv2_bn"
  scale_param {
    bias_term: true
  }
}
layer {
  name: "rf_c3_det_context_conv3_1_bn"
  type: "BatchNorm"
  bottom: "rf_c3_det_context_conv3_1"
  top: "rf_c3_det_context_conv3_1_bn"
  batch_norm_param {
    use_global_stats: true
    eps: 2e-05
  }
}
layer {
  name: "rf_c3_det_context_conv3_1_bn_scale"
  type: "Scale"
  bottom: "rf_c3_det_context_conv3_1_bn"
  top: "rf_c3_det_context_conv3_1_bn"
  scale_param {
    bias_term: true
  }
}
layer {
  name: "rf_c2_aggr_bn"
  type: "BatchNorm"
  bottom: "rf_c2_aggr"
  top: "rf_c2_aggr_bn"
  batch_norm_param {
    use_global_stats: true
    eps: 2e-05
  }
}
layer {
  name: "rf_c2_aggr_bn_scale"
  type: "Scale"
  bottom: "rf_c2_aggr_bn"
  top: "rf_c2_aggr_bn"
  scale_param {
    bias_term: true
  }
}
layer {
  name: "rf_c3_det_context_conv3_1_relu"
  type: "ReLU"
  bottom: "rf_c3_det_context_conv3_1_bn"
  top: "rf_c3_det_context_conv3_1_bn"
}
layer {
  name: "rf_c2_aggr_relu"
  type: "ReLU"
  bottom: "rf_c2_aggr_bn"
  top: "rf_c2_aggr_bn"
}
layer {
  name: "rf_c3_det_context_conv3_2"
  type: "Convolution"
  bottom: "rf_c3_det_context_conv3_1_bn"
  top: "rf_c3_det_context_conv3_2"
  convolution_param {
    num_output: 16
    bias_term: true
    group: 1
    stride: 1
    pad_h: 1
    pad_w: 1
    kernel_h: 3
    kernel_w: 3
  }
}
layer {
  name: "rf_c2_det_conv1"
  type: "Convolution"
  bottom: "rf_c2_aggr_bn"
  top: "rf_c2_det_conv1"
  convolution_param {
    num_output: 32
    bias_term: true
    group: 1
    stride: 1
    pad_h: 1
    pad_w: 1
    kernel_h: 3
    kernel_w: 3
  }
}
layer {
  name: "rf_c2_det_context_conv1"
  type: "Convolution"
  bottom: "rf_c2_aggr_bn"
  top: "rf_c2_det_context_conv1"
  convolution_param {
    num_output: 16
    bias_term: true
    group: 1
    stride: 1
    pad_h: 1
    pad_w: 1
    kernel_h: 3
    kernel_w: 3
  }
}
layer {
  name: "rf_c2_upsampling_"
  type: "Deconvolution"
  bottom: "rf_c2_aggr_bn"
  top: "rf_c2_upsampling"
  param {
    lr_mult: 0
  }
  convolution_param {
    num_output: 64
    bias_term: false
    pad: 0
    kernel_size: 2
    group: 64
    stride: 2
    weight_filler {
      type: "constant"
      value: 1
    }
    dilation: 1
  }
}
layer {
  name: "rf_c3_det_context_conv3_2_bn"
  type: "BatchNorm"
  bottom: "rf_c3_det_context_conv3_2"
  top: "rf_c3_det_context_conv3_2_bn"
  batch_norm_param {
    use_global_stats: true
    eps: 2e-05
  }
}
layer {
  name: "rf_c3_det_context_conv3_2_bn_scale"
  type: "Scale"
  bottom: "rf_c3_det_context_conv3_2_bn"
  top: "rf_c3_det_context_conv3_2_bn"
  scale_param {
    bias_term: true
  }
}
layer {
  name: "rf_c2_det_conv1_bn"
  type: "BatchNorm"
  bottom: "rf_c2_det_conv1"
  top: "rf_c2_det_conv1_bn"
  batch_norm_param {
    use_global_stats: true
    eps: 2e-05
  }
}
layer {
  name: "rf_c2_det_conv1_bn_scale"
  type: "Scale"
  bottom: "rf_c2_det_conv1_bn"
  top: "rf_c2_det_conv1_bn"
  scale_param {
    bias_term: true
  }
}
layer {
  name: "rf_c2_det_context_conv1_bn"
  type: "BatchNorm"
  bottom: "rf_c2_det_context_conv1"
  top: "rf_c2_det_context_conv1_bn"
  batch_norm_param {
    use_global_stats: true
    eps: 2e-05
  }
}
layer {
  name: "rf_c2_det_context_conv1_bn_scale"
  type: "Scale"
  bottom: "rf_c2_det_context_conv1_bn"
  top: "rf_c2_det_context_conv1_bn"
  scale_param {
    bias_term: true
  }
}
layer {
  name: "crop1"
  type: "Crop"
  bottom: "rf_c2_upsampling"
  bottom: "rf_c1_red_conv_bn"
  top: "crop1"
}
layer {
  name: "rf_c3_det_concat"
  type: "Concat"
  bottom: "rf_c3_det_conv1_bn"
  bottom: "rf_c3_det_context_conv2_bn"
  bottom: "rf_c3_det_context_conv3_2_bn"
  top: "rf_c3_det_concat"
  concat_param {
    axis: 1
  }
}
layer {
  name: "rf_c2_det_context_conv1_relu"
  type: "ReLU"
  bottom: "rf_c2_det_context_conv1_bn"
  top: "rf_c2_det_context_conv1_bn"
}
layer {
  name: "plus1"
  type: "Eltwise"
  bottom: "rf_c1_red_conv_bn"
  bottom: "crop1"
  top: "plus1"
  eltwise_param {
    operation: SUM
  }
}
layer {
  name: "rf_c3_det_concat_relu"
  type: "ReLU"
  bottom: "rf_c3_det_concat"
  top: "rf_c3_det_concat"
}
layer {
  name: "rf_c2_det_context
I0627 10:46:54.102512 33979 layer_factory.hpp:77] Creating layer data
I0627 10:46:54.102536 33979 net.cpp:86] Creating Layer data
I0627 10:46:54.102545 33979 net.cpp:382] data -> data
I0627 10:46:54.118162 33979 net.cpp:124] Setting up data
I0627 10:46:54.118191 33979 net.cpp:131] Top shape: 1 3 320 320 (307200)
I0627 10:46:54.118209 33979 net.cpp:139] Memory required for data: 1228800
I0627 10:46:54.118237 33979 layer_factory.hpp:77] Creating layer mobilenet0_conv0
I0627 10:46:54.118283 33979 net.cpp:86] Creating Layer mobilenet0_conv0
I0627 10:46:54.118294 33979 net.cpp:408] mobilenet0_conv0 <- data
I0627 10:46:54.118306 33979 net.cpp:382] mobilenet0_conv0 -> mobilenet0_conv0
I0627 10:46:54.118544 33979 net.cpp:124] Setting up mobilenet0_conv0
I0627 10:46:54.118553 33979 net.cpp:131] Top shape: 1 8 160 160 (204800)
I0627 10:46:54.118559 33979 net.cpp:139] Memory required for data: 2048000
I0627 10:46:54.118585 33979 layer_factory.hpp:77] Creating layer mobilenet0_batchnorm0
I0627 10:46:54.118597 33979 net.cpp:86] Creating Layer mobilenet0_batchnorm0
I0627 10:46:54.118602 33979 net.cpp:408] mobilenet0_batchnorm0 <- mobilenet0_conv0
I0627 10:46:54.118608 33979 net.cpp:382] mobilenet0_batchnorm0 -> mobilenet0_batchnorm0
I0627 10:46:54.120908 33979 net.cpp:124] Setting up mobilenet0_batchnorm0
I0627 10:46:54.120921 33979 net.cpp:131] Top shape: 1 8 160 160 (204800)
I0627 10:46:54.120927 33979 net.cpp:139] Memory required for data: 2867200
I0627 10:46:54.120939 33979 layer_factory.hpp:77] Creating layer mobilenet0_batchnorm0_scale
I0627 10:46:54.120950 33979 net.cpp:86] Creating Layer mobilenet0_batchnorm0_scale
I0627 10:46:54.120955 33979 net.cpp:408] mobilenet0_batchnorm0_scale <- mobilenet0_batchnorm0
I0627 10:46:54.120977 33979 net.cpp:369] mobilenet0_batchnorm0_scale -> mobilenet0_batchnorm0 (in-place)
I0627 10:46:54.121023 33979 layer_factory.hpp:77] Creating layer mobilenet0_batchnorm0_scale
I0627 10:46:54.121170 33979 net.cpp:124] Setting up mobilenet0_batchnorm0_scale
I0627 10:46:54.121177 33979 net.cpp:131] Top shape: 1 8 160 160 (204800)
I0627 10:46:54.121182 33979 net.cpp:139] Memory required for data: 3686400
I0627 10:46:54.121191 33979 layer_factory.hpp:77] Creating layer mobilenet0_relu0
I0627 10:46:54.121201 33979 net.cpp:86] Creating Layer mobilenet0_relu0
I0627 10:46:54.121206 33979 net.cpp:408] mobilenet0_relu0 <- mobilenet0_batchnorm0
I0627 10:46:54.121210 33979 net.cpp:369] mobilenet0_relu0 -> mobilenet0_batchnorm0 (in-place)
I0627 10:46:54.121233 33979 net.cpp:124] Setting up mobilenet0_relu0
I0627 10:46:54.121237 33979 net.cpp:131] Top shape: 1 8 160 160 (204800)
I0627 10:46:54.121243 33979 net.cpp:139] Memory required for data: 4505600
I0627 10:46:54.121255 33979 layer_factory.hpp:77] Creating layer mobilenet0_conv1
I0627 10:46:54.121292 33979 net.cpp:86] Creating Layer mobilenet0_conv1
I0627 10:46:54.121300 33979 net.cpp:408] mobilenet0_conv1 <- mobilenet0_batchnorm0
I0627 10:46:54.121306 33979 net.cpp:382] mobilenet0_conv1 -> mobilenet0_conv1
I0627 10:46:54.121480 33979 net.cpp:124] Setting up mobilenet0_conv1
I0627 10:46:54.121495 33979 net.cpp:131] Top shape: 1 8 160 160 (204800)
I0627 10:46:54.121505 33979 net.cpp:139] Memory required for data: 5324800
I0627 10:46:54.121513 33979 layer_factory.hpp:77] Creating layer mobilenet0_batchnorm1
I0627 10:46:54.121543 33979 net.cpp:86] Creating Layer mobilenet0_batchnorm1
I0627 10:46:54.121551 33979 net.cpp:408] mobilenet0_batchnorm1 <- mobilenet0_conv1
I0627 10:46:54.121558 33979 net.cpp:382] mobilenet0_batchnorm1 -> mobilenet0_batchnorm1
I0627 10:46:54.121767 33979 net.cpp:124] Setting up mobilenet0_batchnorm1
I0627 10:46:54.121774 33979 net.cpp:131] Top shape: 1 8 160 160 (204800)
I0627 10:46:54.121780 33979 net.cpp:139] Memory required for data: 6144000
I0627 10:46:54.121789 33979 layer_factory.hpp:77] Creating layer mobilenet0_batchnorm1_scale
I0627 10:46:54.121798 33979 net.cpp:86] Creating Layer mobilenet0_batchnorm1_scale
I0627 10:46:54.121801 33979 net.cpp:408] mobilenet0_batchnorm1_scale <- mobilenet0_batchnorm1
I0627 10:46:54.121810 33979 net.cpp:369] mobilenet0_batchnorm1_scale -> mobilenet0_batchnorm1 (in-place)
I0627 10:46:54.121847 33979 layer_factory.hpp:77] Creating layer mobilenet0_batchnorm1_scale
I0627 10:46:54.121989 33979 net.cpp:124] Setting up mobilenet0_batchnorm1_scale
I0627 10:46:54.121996 33979 net.cpp:131] Top shape: 1 8 160 160 (204800)
I0627 10:46:54.122002 33979 net.cpp:139] Memory required for data: 6963200
I0627 10:46:54.122011 33979 layer_factory.hpp:77] Creating layer mobilenet0_relu1
I0627 10:46:54.122022 33979 net.cpp:86] Creating Layer mobilenet0_relu1
I0627 10:46:54.122026 33979 net.cpp:408] mobilenet0_relu1 <- mobilenet0_batchnorm1
I0627 10:46:54.122032 33979 net.cpp:369] mobilenet0_relu1 -> mobilenet0_batchnorm1 (in-place)
I0627 10:46:54.122038 33979 net.cpp:124] Setting up mobilenet0_relu1
I0627 10:46:54.122042 33979 net.cpp:131] Top shape: 1 8 160 160 (204800)
I0627 10:46:54.122047 33979 net.cpp:139] Memory required for data: 7782400
I0627 10:46:54.122051 33979 layer_factory.hpp:77] Creating layer mobilenet0_conv2
I0627 10:46:54.122076 33979 net.cpp:86] Creating Layer mobilenet0_conv2
I0627 10:46:54.122081 33979 net.cpp:408] mobilenet0_conv2 <- mobilenet0_batchnorm1
I0627 10:46:54.122088 33979 net.cpp:382] mobilenet0_conv2 -> mobilenet0_conv2
I0627 10:46:54.122247 33979 net.cpp:124] Setting up mobilenet0_conv2
I0627 10:46:54.122254 33979 net.cpp:131] Top shape: 1 16 160 160 (409600)
I0627 10:46:54.122259 33979 net.cpp:139] Memory required for data: 9420800
I0627 10:46:54.122264 33979 layer_factory.hpp:77] Creating layer mobilenet0_batchnorm2
I0627 10:46:54.122272 33979 net.cpp:86] Creating Layer mobilenet0_batchnorm2
I0627 10:46:54.122277 33979 net.cpp:408] mobilenet0_batchnorm2 <- mobilenet0_conv2
I0627 10:46:54.122284 33979 net.cpp:382] mobilenet0_batchnorm2 -> mobilenet0_batchnorm2
I0627 10:46:54.122503 33979 net.cpp:124] Setting up mobilenet0_batchnorm2
I0627 10:46:54.122509 33979 net.cpp:131] Top shape: 1 16 160 160 (409600)
I0627 10:46:54.122514 33979 net.cpp:139] Memory required for data: 11059200
I0627 10:46:54.122520 33979 layer_factory.hpp:77] Creating layer mobilenet0_batchnorm2_scale
I0627 10:46:54.122527 33979 net.cpp:86] Creating Layer mobilenet0_batchnorm2_scale
I0627 10:46:54.122531 33979 net.cpp:408] mobilenet0_batchnorm2_scale <- mobilenet0_batchnorm2
I0627 10:46:54.122536 33979 net.cpp:369] mobilenet0_batchnorm2_scale -> mobilenet0_batchnorm2 (in-place)
I0627 10:46:54.122571 33979 layer_factory.hpp:77] Creating layer mobilenet0_batchnorm2_scale
I0627 10:46:54.122705 33979 net.cpp:124] Setting up mobilenet0_batchnorm2_scale
I0627 10:46:54.122712 33979 net.cpp:131] Top shape: 1 16 160 160 (409600)
I0627 10:46:54.122718 33979 net.cpp:139] Memory required for data: 12697600
I0627 10:46:54.122725 33979 layer_factory.hpp:77] Creating layer mobilenet0_relu2
I0627 10:46:54.122750 33979 net.cpp:86] Creating Layer mobilenet0_relu2
I0627 10:46:54.122756 33979 net.cpp:408] mobilenet0_relu2 <- mobilenet0_batchnorm2
I0627 10:46:54.122761 33979 net.cpp:369] mobilenet0_relu2 -> mobilenet0_batchnorm2 (in-place)
I0627 10:46:54.122766 33979 net.cpp:124] Setting up mobilenet0_relu2
I0627 10:46:54.122769 33979 net.cpp:131] Top shape: 1 16 160 160 (409600)
I0627 10:46:54.122774 33979 net.cpp:139] Memory required for data: 14336000
I0627 10:46:54.122778 33979 layer_factory.hpp:77] Creating layer mobilenet0_conv3
I0627 10:46:54.122787 33979 net.cpp:86] Creating Layer mobilenet0_conv3
I0627 10:46:54.122792 33979 net.cpp:408] mobilenet0_conv3 <- mobilenet0_batchnorm2
I0627 10:46:54.122797 33979 net.cpp:382] mobilenet0_conv3 -> mobilenet0_conv3
I0627 10:46:54.122956 33979 net.cpp:124] Setting up mobilenet0_conv3
I0627 10:46:54.122962 33979 net.cpp:131] Top shape: 1 16 80 80 (102400)
I0627 10:46:54.122967 33979 net.cpp:139] Memory required for data: 14745600
I0627 10:46:54.122972 33979 layer_factory.hpp:77] Creating layer mobilenet0_batchnorm3
I0627 10:46:54.122978 33979 net.cpp:86] Creating Layer mobilenet0_batchnorm3
I0627 10:46:54.122982 33979 net.cpp:408] mobilenet0_batchnorm3 <- mobilenet0_conv3
I0627 10:46:54.122987 33979 net.cpp:382] mobilenet0_batchnorm3 -> mobilenet0_batchnorm3
I0627 10:46:54.124680 33979 net.cpp:124] Setting up mobilenet0_batchnorm3
I0627 10:46:54.124692 33979 net.cpp:131] Top shape: 1 16 80 80 (102400)
I0627 10:46:54.124716 33979 net.cpp:139] Memory required for data: 15155200
I0627 10:46:54.124725 33979 layer_factory.hpp:77] Creating layer mobilenet0_batchnorm3_scale
I0627 10:46:54.124733 33979 net.cpp:86] Creating Layer mobilenet0_batchnorm3_scale
I0627 10:46:54.124737 33979 net.cpp:408] mobilenet0_batchnorm3_scale <- mobilenet0_batchnorm3
I0627 10:46:54.124743 33979 net.cpp:369] mobilenet0_batchnorm3_scale -> mobilenet0_batchnorm3 (in-place)
I0627 10:46:54.124831 33979 layer_factory.hpp:77] Creating layer mobilenet0_batchnorm3_scale
I0627 10:46:54.124949 33979 net.cpp:124] Setting up mobilenet0_batchnorm3_scale
I0627 10:46:54.124958 33979 net.cpp:131] Top shape: 1 16 80 80 (102400)
I0627 10:46:54.124963 33979 net.cpp:139] Memory required for data: 15564800
I0627 10:46:54.124969 33979 layer_factory.hpp:77] Creating layer mobilenet0_relu3
I0627 10:46:54.124976 33979 net.cpp:86] Creating Layer mobilenet0_relu3
I0627 10:46:54.124981 33979 net.cpp:408] mobilenet0_relu3 <- mobilenet0_batchnorm3
I0627 10:46:54.124986 33979 net.cpp:369] mobilenet0_relu3 -> mobilenet0_batchnorm3 (in-place)
I0627 10:46:54.124992 33979 net.cpp:124] Setting up mobilenet0_relu3
I0627 10:46:54.124996 33979 net.cpp:131] Top shape: 1 16 80 80 (102400)
I0627 10:46:54.125001 33979 net.cpp:139] Memory required for data: 15974400
I0627 10:46:54.125005 33979 layer_factory.hpp:77] Creating layer mobilenet0_conv4
I0627 10:46:54.125015 33979 net.cpp:86] Creating Layer mobilenet0_conv4
I0627 10:46:54.125020 33979 net.cpp:408] mobilenet0_conv4 <- mobilenet0_batchnorm3
I0627 10:46:54.125046 33979 net.cpp:382] mobilenet0_conv4 -> mobilenet0_conv4
I0627 10:46:54.126657 33979 net.cpp:124] Setting up mobilenet0_conv4
I0627 10:46:54.126670 33979 net.cpp:131] Top shape: 1 32 80 80 (204800)
I0627 10:46:54.126693 33979 net.cpp:139] Memory required for data: 16793600
I0627 10:46:54.126698 33979 layer_factory.hpp:77] Creating layer mobilenet0_batchnorm4
I0627 10:46:54.126721 33979 net.cpp:86] Creating Layer mobilenet0_batchnorm4
I0627 10:46:54.126726 33979 net.cpp:408] mobilenet0_batchnorm4 <- mobilenet0_conv4
I0627 10:46:54.126734 33979 net.cpp:382] mobilenet0_batchnorm4 -> mobilenet0_batchnorm4
I0627 10:46:54.126972 33979 net.cpp:124] Setting up mobilenet0_batchnorm4
I0627 10:46:54.126979 33979 net.cpp:131] Top shape: 1 32 80 80 (204800)
I0627 10:46:54.126984 33979 net.cpp:139] Memory required for data: 17612800
I0627 10:46:54.126992 33979 layer_factory.hpp:77] Creating layer mobilenet0_batchnorm4_scale
I0627 10:46:54.126998 33979 net.cpp:86] Creating Layer mobilenet0_batchnorm4_scale
I0627 10:46:54.127035 33979 net.cpp:408] mobilenet0_batchnorm4_scale <- mobilenet0_batchnorm4
I0627 10:46:54.127043 33979 net.cpp:369] mobilenet0_batchnorm4_scale -> mobilenet0_batchnorm4 (in-place)
I0627 10:46:54.127104 33979 layer_factory.hpp:77] Creating layer mobilenet0_batchnorm4_scale
I0627 10:46:54.127219 33979 net.cpp:124] Setting up mobilenet0_batchnorm4_scale
I0627 10:46:54.127226 33979 net.cpp:131] Top shape: 1 32 80 80 (204800)
I0627 10:46:54.127233 33979 net.cpp:139] Memory required for data: 18432000
I0627 10:46:54.127238 33979 layer_factory.hpp:77] Creating layer mobilenet0_relu4
I0627 10:46:54.127244 33979 net.cpp:86] Creating Layer mobilenet0_relu4
I0627 10:46:54.127249 33979 net.cpp:408] mobilenet0_relu4 <- mobilenet0_batchnorm4
I0627 10:46:54.127257 33979 net.cpp:369] mobilenet0_relu4 -> mobilenet0_batchnorm4 (in-place)
I0627 10:46:54.127264 33979 net.cpp:124] Setting up mobilenet0_relu4
I0627 10:46:54.127266 33979 net.cpp:131] Top shape: 1 32 80 80 (204800)
I0627 10:46:54.127271 33979 net.cpp:139] Memory required for data: 19251200
I0627 10:46:54.127275 33979 layer_factory.hpp:77] Creating layer mobilenet0_conv5
I0627 10:46:54.127282 33979 net.cpp:86] Creating Layer mobilenet0_conv5
I0627 10:46:54.127286 33979 net.cpp:408] mobilenet0_conv5 <- mobilenet0_batchnorm4
I0627 10:46:54.127295 33979 net.cpp:382] mobilenet0_conv5 -> mobilenet0_conv5
I0627 10:46:54.127457 33979 net.cpp:124] Setting up mobilenet0_conv5
I0627 10:46:54.127465 33979 net.cpp:131] Top shape: 1 32 80 80 (204800)
I0627 10:46:54.127470 33979 net.cpp:139] Memory required for data: 20070400
I0627 10:46:54.127475 33979 layer_factory.hpp:77] Creating layer mobilenet0_batchnorm5
I0627 10:46:54.127483 33979 net.cpp:86] Creating Layer mobilenet0_batchnorm5
I0627 10:46:54.127488 33979 net.cpp:408] mobilenet0_batchnorm5 <- mobilenet0_conv5
I0627 10:46:54.127493 33979 net.cpp:382] mobilenet0_batchnorm5 -> mobilenet0_batchnorm5
I0627 10:46:54.127699 33979 net.cpp:124] Setting up mobilenet0_batchnorm5
I0627 10:46:54.127705 33979 net.cpp:131] Top shape: 1 32 80 80 (204800)
I0627 10:46:54.127712 33979 net.cpp:139] Memory required for data: 20889600
I0627 10:46:54.127722 33979 layer_factory.hpp:77] Creating layer mobilenet0_batchnorm5_scale
I0627 10:46:54.127730 33979 net.cpp:86] Creating Layer mobilenet0_batchnorm5_scale
I0627 10:46:54.127735 33979 net.cpp:408] mobilenet0_batchnorm5_scale <- mobilenet0_batchnorm5
I0627 10:46:54.127740 33979 net.cpp:369] mobilenet0_batchnorm5_scale -> mobilenet0_batchnorm5 (in-place)
I0627 10:46:54.127779 33979 layer_factory.hpp:77] Creating layer mobilenet0_batchnorm5_scale
I0627 10:46:54.127916 33979 net.cpp:124] Setting up mobilenet0_batchnorm5_scale
I0627 10:46:54.127924 33979 net.cpp:131] Top shape: 1 32 80 80 (204800)
I0627 10:46:54.127929 33979 net.cpp:139] Memory required for data: 21708800
I0627 10:46:54.127939 33979 layer_factory.hpp:77] Creating layer mobilenet0_relu5
I0627 10:46:54.127948 33979 net.cpp:86] Creating Layer mobilenet0_relu5
I0627 10:46:54.127954 33979 net.cpp:408] mobilenet0_relu5 <- mobilenet0_batchnorm5
I0627 10:46:54.127959 33979 net.cpp:369] mobilenet0_relu5 -> mobilenet0_batchnorm5 (in-place)
I0627 10:46:54.127964 33979 net.cpp:124] Setting up mobilenet0_relu5
I0627 10:46:54.127969 33979 net.cpp:131] Top shape: 1 32 80 80 (204800)
I0627 10:46:54.127974 33979 net.cpp:139] Memory required for data: 22528000
I0627 10:46:54.127979 33979 layer_factory.hpp:77] Creating layer mobilenet0_conv6
I0627 10:46:54.127985 33979 net.cpp:86] Creating Layer mobilenet0_conv6
I0627 10:46:54.127988 33979 net.cpp:408] mobilenet0_conv6 <- mobilenet0_batchnorm5
I0627 10:46:54.127993 33979 net.cpp:382] mobilenet0_conv6 -> mobilenet0_conv6
I0627 10:46:54.128173 33979 net.cpp:124] Setting up mobilenet0_conv6
I0627 10:46:54.128181 33979 net.cpp:131] Top shape: 1 32 80 80 (204800)
I0627 10:46:54.128186 33979 net.cpp:139] Memory required for data: 23347200
I0627 10:46:54.128191 33979 layer_factory.hpp:77] Creating layer mobilenet0_batchnorm6
I0627 10:46:54.128199 33979 net.cpp:86] Creating Layer mobilenet0_batchnorm6
I0627 10:46:54.128253 33979 net.cpp:408] mobilenet0_batchnorm6 <- mobilenet0_conv6
I0627 10:46:54.128263 33979 net.cpp:382] mobilenet0_batchnorm6 -> mobilenet0_batchnorm6
I0627 10:46:54.128480 33979 net.cpp:124] Setting up mobilenet0_batchnorm6
I0627 10:46:54.128487 33979 net.cpp:131] Top shape: 1 32 80 80 (204800)
I0627 10:46:54.128492 33979 net.cpp:139] Memory required for data: 24166400
I0627 10:46:54.128499 33979 layer_factory.hpp:77] Creating layer mobilenet0_batchnorm6_scale
I0627 10:46:54.128509 33979 net.cpp:86] Creating Layer mobilenet0_batchnorm6_scale
I0627 10:46:54.128515 33979 net.cpp:408] mobilenet0_batchnorm6_scale <- mobilenet0_batchnorm6
I0627 10:46:54.128520 33979 net.cpp:369] mobilenet0_batchnorm6_scale -> mobilenet0_batchnorm6 (in-place)
I0627 10:46:54.128556 33979 layer_factory.hpp:77] Creating layer mobilenet0_batchnorm6_scale
I0627 10:46:54.128671 33979 net.cpp:124] Setting up mobilenet0_batchnorm6_scale
I0627 10:46:54.128679 33979 net.cpp:131] Top shape: 1 32 80 80 (204800)
I0627 10:46:54.128684 33979 net.cpp:139] Memory required for data: 24985600
I0627 10:46:54.128690 33979 layer_factory.hpp:77] Creating layer mobilenet0_relu6
I0627 10:46:54.128695 33979 net.cpp:86] Creating Layer mobilenet0_relu6
I0627 10:46:54.128700 33979 net.cpp:408] mobilenet0_relu6 <- mobilenet0_batchnorm6
I0627 10:46:54.128708 33979 net.cpp:369] mobilenet0_relu6 -> mobilenet0_batchnorm6 (in-place)
I0627 10:46:54.128715 33979 net.cpp:124] Setting up mobilenet0_relu6
I0627 10:46:54.128718 33979 net.cpp:131] Top shape: 1 32 80 80 (204800)
I0627 10:46:54.128722 33979 net.cpp:139] Memory required for data: 25804800
I0627 10:46:54.128726 33979 layer_factory.hpp:77] Creating layer mobilenet0_conv7
I0627 10:46:54.128733 33979 net.cpp:86] Creating Layer mobilenet0_conv7
I0627 10:46:54.128737 33979 net.cpp:408] mobilenet0_conv7 <- mobilenet0_batchnorm6
I0627 10:46:54.128746 33979 net.cpp:382] mobilenet0_conv7 -> mobilenet0_conv7
I0627 10:46:54.128908 33979 net.cpp:124] Setting up mobilenet0_conv7
I0627 10:46:54.128916 33979 net.cpp:131] Top shape: 1 32 40 40 (51200)
I0627 10:46:54.128921 33979 net.cpp:139] Memory required for data: 26009600
I0627 10:46:54.128926 33979 layer_factory.hpp:77] Creating layer mobilenet0_batchnorm7
I0627 10:46:54.128934 33979 net.cpp:86] Creating Layer mobilenet0_batchnorm7
I0627 10:46:54.128938 33979 net.cpp:408] mobilenet0_batchnorm7 <- mobilenet0_conv7
I0627 10:46:54.128944 33979 net.cpp:382] mobilenet0_batchnorm7 -> mobilenet0_batchnorm7
I0627 10:46:54.130558 33979 net.cpp:124] Setting up mobilenet0_batchnorm7
I0627 10:46:54.130570 33979 net.cpp:131] Top shape: 1 32 40 40 (51200)
I0627 10:46:54.130591 33979 net.cpp:139] Memory required for data: 26214400
I0627 10:46:54.130599 33979 layer_factory.hpp:77] Creating layer mobilenet0_batchnorm7_scale
I0627 10:46:54.130622 33979 net.cpp:86] Creating Layer mobilenet0_batchnorm7_scale
I0627 10:46:54.130628 33979 net.cpp:408] mobilenet0_batchnorm7_scale <- mobilenet0_batchnorm7
I0627 10:46:54.130635 33979 net.cpp:369] mobilenet0_batchnorm7_scale -> mobilenet0_batchnorm7 (in-place)
I0627 10:46:54.130676 33979 layer_factory.hpp:77] Creating layer mobilenet0_batchnorm7_scale
I0627 10:46:54.130792 33979 net.cpp:124] Setting up mobilenet0_batchnorm7_scale
I0627 10:46:54.130800 33979 net.cpp:131] Top shape: 1 32 40 40 (51200)
I0627 10:46:54.130805 33979 net.cpp:139] Memory required for data: 26419200
I0627 10:46:54.130810 33979 layer_factory.hpp:77] Creating layer mobilenet0_relu7
I0627 10:46:54.130820 33979 net.cpp:86] Creating Layer mobilenet0_relu7
I0627 10:46:54.130827 33979 net.cpp:408] mobilenet0_relu7 <- mobilenet0_batchnorm7
I0627 10:46:54.130832 33979 net.cpp:369] mobilenet0_relu7 -> mobilenet0_batchnorm7 (in-place)
I0627 10:46:54.130838 33979 net.cpp:124] Setting up mobilenet0_relu7
I0627 10:46:54.130841 33979 net.cpp:131] Top shape: 1 32 40 40 (51200)
I0627 10:46:54.130846 33979 net.cpp:139] Memory required for data: 26624000
I0627 10:46:54.130851 33979 layer_factory.hpp:77] Creating layer mobilenet0_conv8
I0627 10:46:54.130856 33979 net.cpp:86] Creating Layer mobilenet0_conv8
I0627 10:46:54.130890 33979 net.cpp:408] mobilenet0_conv8 <- mobilenet0_batchnorm7
I0627 10:46:54.130915 33979 net.cpp:382] mobilenet0_conv8 -> mobilenet0_conv8
I0627 10:46:54.131124 33979 net.cpp:124] Setting up mobilenet0_conv8
I0627 10:46:54.131134 33979 net.cpp:131] Top shape: 1 64 40 40 (102400)
I0627 10:46:54.131139 33979 net.cpp:139] Memory required for data: 27033600
I0627 10:46:54.131145 33979 layer_factory.hpp:77] Creating layer mobilenet0_batchnorm8
I0627 10:46:54.131152 33979 net.cpp:86] Creating Layer mobilenet0_batchnorm8
I0627 10:46:54.131157 33979 net.cpp:408] mobilenet0_batchnorm8 <- mobilenet0_conv8
I0627 10:46:54.131163 33979 net.cpp:382] mobilenet0_batchnorm8 -> mobilenet0_batchnorm8
I0627 10:46:54.131379 33979 net.cpp:124] Setting up mobilenet0_batchnorm8
I0627 10:46:54.131386 33979 net.cpp:131] Top shape: 1 64 40 40 (102400)
I0627 10:46:54.131392 33979 net.cpp:139] Memory required for data: 27443200
I0627 10:46:54.131398 33979 layer_factory.hpp:77] Creating layer mobilenet0_batchnorm8_scale
I0627 10:46:54.131407 33979 net.cpp:86] Creating Layer mobilenet0_batchnorm8_scale
I0627 10:46:54.131412 33979 net.cpp:408] mobilenet0_batchnorm8_scale <- mobilenet0_batchnorm8
I0627 10:46:54.131417 33979 net.cpp:369] mobilenet0_batchnorm8_scale -> mobilenet0_batchnorm8 (in-place)
I0627 10:46:54.131470 33979 layer_factory.hpp:77] Creating layer mobilenet0_batchnorm8_scale
I0627 10:46:54.131595 33979 net.cpp:124] Setting up mobilenet0_batchnorm8_scale
I0627 10:46:54.131601 33979 net.cpp:131] Top shape: 1 64 40 40 (102400)
I0627 10:46:54.131606 33979 net.cpp:139] Memory required for data: 27852800
I0627 10:46:54.131613 33979 layer_factory.hpp:77] Creating layer mobilenet0_relu8
I0627 10:46:54.131618 33979 net.cpp:86] Creating Layer mobilenet0_relu8
I0627 10:46:54.131623 33979 net.cpp:408] mobilenet0_relu8 <- mobilenet0_batchnorm8
I0627 10:46:54.131633 33979 net.cpp:369] mobilenet0_relu8 -> mobilenet0_batchnorm8 (in-place)
I0627 10:46:54.131639 33979 net.cpp:124] Setting up mobilenet0_relu8
I0627 10:46:54.131642 33979 net.cpp:131] Top shape: 1 64 40 40 (102400)
I0627 10:46:54.131646 33979 net.cpp:139] Memory required for data: 28262400
I0627 10:46:54.131650 33979 layer_factory.hpp:77] Creating layer mobilenet0_conv9
I0627 10:46:54.131656 33979 net.cpp:86] Creating Layer mobilenet0_conv9
I0627 10:46:54.131660 33979 net.cpp:408] mobilenet0_conv9 <- mobilenet0_batchnorm8
I0627 10:46:54.131669 33979 net.cpp:382] mobilenet0_conv9 -> mobilenet0_conv9
I0627 10:46:54.131844 33979 net.cpp:124] Setting up mobilenet0_conv9
I0627 10:46:54.131850 33979 net.cpp:131] Top shape: 1 64 40 40 (102400)
I0627 10:46:54.131855 33979 net.cpp:139] Memory required for data: 28672000
I0627 10:46:54.131860 33979 layer_factory.hpp:77] Creating layer mobilenet0_batchnorm9
I0627 10:46:54.131866 33979 net.cpp:86] Creating Layer mobilenet0_batchnorm9
I0627 10:46:54.131870 33979 net.cpp:408] mobilenet0_batchnorm9 <- mobilenet0_conv9
I0627 10:46:54.131898 33979 net.cpp:382] mobilenet0_batchnorm9 -> mobilenet0_batchnorm9
I0627 10:46:54.132104 33979 net.cpp:124] Setting up mobilenet0_batchnorm9
I0627 10:46:54.132112 33979 net.cpp:131] Top shape: 1 64 40 40 (102400)
I0627 10:46:54.132117 33979 net.cpp:139] Memory required for data: 29081600
I0627 10:46:54.132124 33979 layer_factory.hpp:77] Creating layer mobilenet0_batchnorm9_scale
I0627 10:46:54.132133 33979 net.cpp:86] Creating Layer mobilenet0_batchnorm9_scale
I0627 10:46:54.132138 33979 net.cpp:408] mobilenet0_batchnorm9_scale <- mobilenet0_batchnorm9
I0627 10:46:54.132143 33979 net.cpp:369] mobilenet0_batchnorm9_scale -> mobilenet0_batchnorm9 (in-place)
I0627 10:46:54.132184 33979 layer_factory.hpp:77] Creating layer mobilenet0_batchnorm9_scale
I0627 10:46:54.132333 33979 net.cpp:124] Setting up mobilenet0_batchnorm9_scale
I0627 10:46:54.132340 33979 net.cpp:131] Top shape: 1 64 40 40 (102400)
I0627 10:46:54.132345 33979 net.cpp:139] Memory required for data: 29491200
I0627 10:46:54.132351 33979 layer_factory.hpp:77] Creating layer mobilenet0_relu9
I0627 10:46:54.132360 33979 net.cpp:86] Creating Layer mobilenet0_relu9
I0627 10:46:54.132378 33979 net.cpp:408] mobilenet0_relu9 <- mobilenet0_batchnorm9
I0627 10:46:54.132385 33979 net.cpp:369] mobilenet0_relu9 -> mobilenet0_batchnorm9 (in-place)
I0627 10:46:54.132390 33979 net.cpp:124] Setting up mobilenet0_relu9
I0627 10:46:54.132393 33979 net.cpp:131] Top shape: 1 64 40 40 (102400)
I0627 10:46:54.132398 33979 net.cpp:139] Memory required for data: 29900800
I0627 10:46:54.132402 33979 layer_factory.hpp:77] Creating layer mobilenet0_conv10
I0627 10:46:54.132411 33979 net.cpp:86] Creating Layer mobilenet0_conv10
I0627 10:46:54.132416 33979 net.cpp:408] mobilenet0_conv10 <- mobilenet0_batchnorm9
I0627 10:46:54.132421 33979 net.cpp:382] mobilenet0_conv10 -> mobilenet0_conv10
I0627 10:46:54.132591 33979 net.cpp:124] Setting up mobilenet0_conv10
I0627 10:46:54.132596 33979 net.cpp:131] Top shape: 1 64 40 40 (102400)
I0627 10:46:54.132602 33979 net.cpp:139] Memory required for data: 30310400
I0627 10:46:54.132607 33979 layer_factory.hpp:77] Creating layer mobilenet0_batchnorm10
I0627 10:46:54.132629 33979 net.cpp:86] Creating Layer mobilenet0_batchnorm10
I0627 10:46:54.132635 33979 net.cpp:408] mobilenet0_batchnorm10 <- mobilenet0_conv10
I0627 10:46:54.132640 33979 net.cpp:382] mobilenet0_batchnorm10 -> mobilenet0_batchnorm10
I0627 10:46:54.132854 33979 net.cpp:124] Setting up mobilenet0_batchnorm10
I0627 10:46:54.132861 33979 net.cpp:131] Top shape: 1 64 40 40 (102400)
I0627 10:46:54.132866 33979 net.cpp:139] Memory required for data: 30720000
I0627 10:46:54.132874 33979 layer_factory.hpp:77] Creating layer mobilenet0_batchnorm10_scale
I0627 10:46:54.132884 33979 net.cpp:86] Creating Layer mobilenet0_batchnorm10_scale
I0627 10:46:54.132887 33979 net.cpp:408] mobilenet0_batchnorm10_scale <- mobilenet0_batchnorm10
I0627 10:46:54.132894 33979 net.cpp:369] mobilenet0_batchnorm10_scale -> mobilenet0_batchnorm10 (in-place)
I0627 10:46:54.132933 33979 layer_factory.hpp:77] Creating layer mobilenet0_batchnorm10_scale
I0627 10:46:54.133062 33979 net.cpp:124] Setting up mobilenet0_batchnorm10_scale
I0627 10:46:54.133069 33979 net.cpp:131] Top shape: 1 64 40 40 (102400)
I0627 10:46:54.133074 33979 net.cpp:139] Memory required for data: 31129600
I0627 10:46:54.133088 33979 layer_factory.hpp:77] Creating layer mobilenet0_relu10
I0627 10:46:54.133098 33979 net.cpp:86] Creating Layer mobilenet0_relu10
I0627 10:46:54.133102 33979 net.cpp:408] mobilenet0_relu10 <- mobilenet0_batchnorm10
I0627 10:46:54.133107 33979 net.cpp:369] mobilenet0_relu10 -> mobilenet0_batchnorm10 (in-place)
I0627 10:46:54.133113 33979 net.cpp:124] Setting up mobilenet0_relu10
I0627 10:46:54.133117 33979 net.cpp:131] Top shape: 1 64 40 40 (102400)
I0627 10:46:54.133122 33979 net.cpp:139] Memory required for data: 31539200
I0627 10:46:54.133126 33979 layer_factory.hpp:77] Creating layer mobilenet0_batchnorm10_mobilenet0_relu10_0_split
I0627 10:46:54.133137 33979 net.cpp:86] Creating Layer mobilenet0_batchnorm10_mobilenet0_relu10_0_split
I0627 10:46:54.133142 33979 net.cpp:408] mobilenet0_batchnorm10_mobilenet0_relu10_0_split <- mobilenet0_batchnorm10
I0627 10:46:54.133148 33979 net.cpp:382] mobilenet0_batchnorm10_mobilenet0_relu10_0_split -> mobilenet0_batchnorm10_mobilenet0_relu10_0_split_0
I0627 10:46:54.133155 33979 net.cpp:382] mobilenet0_batchnorm10_mobilenet0_relu10_0_split -> mobilenet0_batchnorm10_mobilenet0_relu10_0_split_1
I0627 10:46:54.133188 33979 net.cpp:124] Setting up mobilenet0_batchnorm10_mobilenet0_relu10_0_split
I0627 10:46:54.133195 33979 net.cpp:131] Top shape: 1 64 40 40 (102400)
I0627 10:46:54.133200 33979 net.cpp:131] Top shape: 1 64 40 40 (102400)
I0627 10:46:54.133205 33979 net.cpp:139] Memory required for data: 32358400
I0627 10:46:54.133210 33979 layer_factory.hpp:77] Creating layer mobilenet0_conv11
I0627 10:46:54.133217 33979 net.cpp:86] Creating Layer mobilenet0_conv11
I0627 10:46:54.133221 33979 net.cpp:408] mobilenet0_conv11 <- mobilenet0_batchnorm10_mobilenet0_relu10_0_split_0
I0627 10:46:54.133234 33979 net.cpp:382] mobilenet0_conv11 -> mobilenet0_conv11
I0627 10:46:54.133432 33979 net.cpp:124] Setting up mobilenet0_conv11
I0627 10:46:54.133440 33979 net.cpp:131] Top shape: 1 64 20 20 (25600)
I0627 10:46:54.133446 33979 net.cpp:139] Memory required for data: 32460800
I0627 10:46:54.133452 33979 layer_factory.hpp:77] Creating layer rf_c1_red_conv
I0627 10:46:54.133461 33979 net.cpp:86] Creating Layer rf_c1_red_conv
I0627 10:46:54.133466 33979 net.cpp:408] rf_c1_red_conv <- mobilenet0_batchnorm10_mobilenet0_relu10_0_split_1
I0627 10:46:54.133472 33979 net.cpp:382] rf_c1_red_conv -> rf_c1_red_conv
I0627 10:46:54.133703 33979 net.cpp:124] Setting up rf_c1_red_conv
I0627 10:46:54.133710 33979 net.cpp:131] Top shape: 1 64 40 40 (102400)
I0627 10:46:54.133716 33979 net.cpp:139] Memory required for data: 32870400
I0627 10:46:54.133723 33979 layer_factory.hpp:77] Creating layer mobilenet0_batchnorm11
I0627 10:46:54.133733 33979 net.cpp:86] Creating Layer mobilenet0_batchnorm11
I0627 10:46:54.133736 33979 net.cpp:408] mobilenet0_batchnorm11 <- mobilenet0_conv11
I0627 10:46:54.133746 33979 net.cpp:382] mobilenet0_batchnorm11 -> mobilenet0_batchnorm11
I0627 10:46:54.133960 33979 net.cpp:124] Setting up mobilenet0_batchnorm11
I0627 10:46:54.133966 33979 net.cpp:131] Top shape: 1 64 20 20 (25600)
I0627 10:46:54.133971 33979 net.cpp:139] Memory required for data: 32972800
I0627 10:46:54.133978 33979 layer_factory.hpp:77] Creating layer mobilenet0_batchnorm11_scale
I0627 10:46:54.133985 33979 net.cpp:86] Creating Layer mobilenet0_batchnorm11_scale
I0627 10:46:54.133991 33979 net.cpp:408] mobilenet0_batchnorm11_scale <- mobilenet0_batchnorm11
I0627 10:46:54.133998 33979 net.cpp:369] mobilenet0_batchnorm11_scale -> mobilenet0_batchnorm11 (in-place)
I0627 10:46:54.134039 33979 layer_factory.hpp:77] Creating layer mobilenet0_batchnorm11_scale
I0627 10:46:54.134160 33979 net.cpp:124] Setting up mobilenet0_batchnorm11_scale
I0627 10:46:54.134167 33979 net.cpp:131] Top shape: 1 64 20 20 (25600)
I0627 10:46:54.134173 33979 net.cpp:139] Memory required for data: 33075200
I0627 10:46:54.134179 33979 layer_factory.hpp:77] Creating layer rf_c1_red_conv_bn
I0627 10:46:54.134188 33979 net.cpp:86] Creating Layer rf_c1_red_conv_bn
I0627 10:46:54.134193 33979 net.cpp:408] rf_c1_red_conv_bn <- rf_c1_red_conv
I0627 10:46:54.134199 33979 net.cpp:382] rf_c1_red_conv_bn -> rf_c1_red_conv_bn
I0627 10:46:54.134405 33979 net.cpp:124] Setting up rf_c1_red_conv_bn
I0627 10:46:54.134413 33979 net.cpp:131] Top shape: 1 64 40 40 (102400)
I0627 10:46:54.134418 33979 net.cpp:139] Memory required for data: 33484800
I0627 10:46:54.134425 33979 layer_factory.hpp:77] Creating layer rf_c1_red_conv_bn_scale
I0627 10:46:54.134433 33979 net.cpp:86] Creating Layer rf_c1_red_conv_bn_scale
I0627 10:46:54.134436 33979 net.cpp:408] rf_c1_red_conv_bn_scale <- rf_c1_red_conv_bn
I0627 10:46:54.134444 33979 net.cpp:369] rf_c1_red_conv_bn_scale -> rf_c1_red_conv_bn (in-place)
I0627 10:46:54.134485 33979 layer_factory.hpp:77] Creating layer rf_c1_red_conv_bn_scale
I0627 10:46:54.134624 33979 net.cpp:124] Setting up rf_c1_red_conv_bn_scale
I0627 10:46:54.134630 33979 net.cpp:131] Top shape: 1 64 40 40 (102400)
I0627 10:46:54.134635 33979 net.cpp:139] Memory required for data: 33894400
I0627 10:46:54.134641 33979 layer_factory.hpp:77] Creating layer mobilenet0_relu11
I0627 10:46:54.134651 33979 net.cpp:86] Creating Layer mobilenet0_relu11
I0627 10:46:54.134655 33979 net.cpp:408] mobilenet0_relu11 <- mobilenet0_batchnorm11
I0627 10:46:54.134661 33979 net.cpp:369] mobilenet0_relu11 -> mobilenet0_batchnorm11 (in-place)
I0627 10:46:54.134667 33979 net.cpp:124] Setting up mobilenet0_relu11
I0627 10:46:54.134670 33979 net.cpp:131] Top shape: 1 64 20 20 (25600)
I0627 10:46:54.134675 33979 net.cpp:139] Memory required for data: 33996800
I0627 10:46:54.134680 33979 layer_factory.hpp:77] Creating layer rf_c1_red_conv_relu
I0627 10:46:54.134703 33979 net.cpp:86] Creating Layer rf_c1_red_conv_relu
I0627 10:46:54.134709 33979 net.cpp:408] rf_c1_red_conv_relu <- rf_c1_red_conv_bn
I0627 10:46:54.134716 33979 net.cpp:369] rf_c1_red_conv_relu -> rf_c1_red_conv_bn (in-place)
I0627 10:46:54.134732 33979 net.cpp:124] Setting up rf_c1_red_conv_relu
I0627 10:46:54.134737 33979 net.cpp:131] Top shape: 1 64 40 40 (102400)
I0627 10:46:54.134742 33979 net.cpp:139] Memory required for data: 34406400
I0627 10:46:54.134747 33979 layer_factory.hpp:77] Creating layer rf_c1_red_conv_bn_rf_c1_red_conv_relu_0_split
I0627 10:46:54.134753 33979 net.cpp:86] Creating Layer rf_c1_red_conv_bn_rf_c1_red_conv_relu_0_split
I0627 10:46:54.134757 33979 net.cpp:408] rf_c1_red_conv_bn_rf_c1_red_conv_relu_0_split <- rf_c1_red_conv_bn
I0627 10:46:54.134766 33979 net.cpp:382] rf_c1_red_conv_bn_rf_c1_red_conv_relu_0_split -> rf_c1_red_conv_bn_rf_c1_red_conv_relu_0_split_0
I0627 10:46:54.134773 33979 net.cpp:382] rf_c1_red_conv_bn_rf_c1_red_conv_relu_0_split -> rf_c1_red_conv_bn_rf_c1_red_conv_relu_0_split_1
I0627 10:46:54.134810 33979 net.cpp:124] Setting up rf_c1_red_conv_bn_rf_c1_red_conv_relu_0_split
I0627 10:46:54.134816 33979 net.cpp:131] Top shape: 1 64 40 40 (102400)
I0627 10:46:54.134822 33979 net.cpp:131] Top shape: 1 64 40 40 (102400)
I0627 10:46:54.134827 33979 net.cpp:139] Memory required for data: 35225600
I0627 10:46:54.134832 33979 layer_factory.hpp:77] Creating layer mobilenet0_conv12
I0627 10:46:54.134842 33979 net.cpp:86] Creating Layer mobilenet0_conv12
I0627 10:46:54.134847 33979 net.cpp:408] mobilenet0_conv12 <- mobilenet0_batchnorm11
I0627 10:46:54.134853 33979 net.cpp:382] mobilenet0_conv12 -> mobilenet0_conv12
I0627 10:46:54.135032 33979 net.cpp:124] Setting up mobilenet0_conv12
I0627 10:46:54.135040 33979 net.cpp:131] Top shape: 1 128 20 20 (51200)
I0627 10:46:54.135044 33979 net.cpp:139] Memory required for data: 35430400
I0627 10:46:54.135051 33979 layer_factory.hpp:77] Creating layer mobilenet0_batchnorm12
I0627 10:46:54.135057 33979 net.cpp:86] Creating Layer mobilenet0_batchnorm12
I0627 10:46:54.135062 33979 net.cpp:408] mobilenet0_batchnorm12 <- mobilenet0_conv12
I0627 10:46:54.135068 33979 net.cpp:382] mobilenet0_batchnorm12 -> mobilenet0_batchnorm12
I0627 10:46:54.135279 33979 net.cpp:124] Setting up mobilenet0_batchnorm12
I0627 10:46:54.135287 33979 net.cpp:131] Top shape: 1 128 20 20 (51200)
I0627 10:46:54.135293 33979 net.cpp:139] Memory required for data: 35635200
I0627 10:46:54.135299 33979 layer_factory.hpp:77] Creating layer mobilenet0_batchnorm12_scale
I0627 10:46:54.135308 33979 net.cpp:86] Creating Layer mobilenet0_batchnorm12_scale
I0627 10:46:54.135313 33979 net.cpp:408] mobilenet0_batchnorm12_scale <- mobilenet0_batchnorm12
I0627 10:46:54.135321 33979 net.cpp:369] mobilenet0_batchnorm12_scale -> mobilenet0_batchnorm12 (in-place)
I0627 10:46:54.135358 33979 layer_factory.hpp:77] Creating layer mobilenet0_batchnorm12_scale
I0627 10:46:54.135473 33979 net.cpp:124] Setting up mobilenet0_batchnorm12_scale
I0627 10:46:54.135479 33979 net.cpp:131] Top shape: 1 128 20 20 (51200)
I0627 10:46:54.135484 33979 net.cpp:139] Memory required for data: 35840000
I0627 10:46:54.135491 33979 layer_factory.hpp:77] Creating layer mobilenet0_relu12
I0627 10:46:54.135500 33979 net.cpp:86] Creating Layer mobilenet0_relu12
I0627 10:46:54.135504 33979 net.cpp:408] mobilenet0_relu12 <- mobilenet0_batchnorm12
I0627 10:46:54.135509 33979 net.cpp:369] mobilenet0_relu12 -> mobilenet0_batchnorm12 (in-place)
I0627 10:46:54.135515 33979 net.cpp:124] Setting up mobilenet0_relu12
I0627 10:46:54.135519 33979 net.cpp:131] Top shape: 1 128 20 20 (51200)
I0627 10:46:54.135524 33979 net.cpp:139] Memory required for data: 36044800
I0627 10:46:54.135529 33979 layer_factory.hpp:77] Creating layer mobilenet0_conv13
I0627 10:46:54.135537 33979 net.cpp:86] Creating Layer mobilenet0_conv13
I0627 10:46:54.135542 33979 net.cpp:408] mobilenet0_conv13 <- mobilenet0_batchnorm12
I0627 10:46:54.135547 33979 net.cpp:382] mobilenet0_conv13 -> mobilenet0_conv13
I0627 10:46:54.135731 33979 net.cpp:124] Setting up mobilenet0_conv13
I0627 10:46:54.135738 33979 net.cpp:131] Top shape: 1 128 20 20 (51200)
I0627 10:46:54.135743 33979 net.cpp:139] Memory required for data: 36249600
I0627 10:46:54.135749 33979 layer_factory.hpp:77] Creating layer mobilenet0_batchnorm13
I0627 10:46:54.135772 33979 net.cpp:86] Creating Layer mobilenet0_batchnorm13
I0627 10:46:54.135777 33979 net.cpp:408] mobilenet0_batchnorm13 <- mobilenet0_conv13
I0627 10:46:54.135784 33979 net.cpp:382] mobilenet0_batchnorm13 -> mobilenet0_batchnorm13
I0627 10:46:54.135993 33979 net.cpp:124] Setting up mobilenet0_batchnorm13
I0627 10:46:54.136001 33979 net.cpp:131] Top shape: 1 128 20 20 (51200)
I0627 10:46:54.136008 33979 net.cpp:139] Memory required for data: 36454400
I0627 10:46:54.136014 33979 layer_factory.hpp:77] Creating layer mobilenet0_batchnorm13_scale
I0627 10:46:54.136021 33979 net.cpp:86] Creating Layer mobilenet0_batchnorm13_scale
I0627 10:46:54.136026 33979 net.cpp:408] mobilenet0_batchnorm13_scale <- mobilenet0_batchnorm13
I0627 10:46:54.136031 33979 net.cpp:369] mobilenet0_batchnorm13_scale -> mobilenet0_batchnorm13 (in-place)
I0627 10:46:54.136072 33979 layer_factory.hpp:77] Creating layer mobilenet0_batchnorm13_scale
I0627 10:46:54.136209 33979 net.cpp:124] Setting up mobilenet0_batchnorm13_scale
I0627 10:46:54.136216 33979 net.cpp:131] Top shape: 1 128 20 20 (51200)
I0627 10:46:54.136222 33979 net.cpp:139] Memory required for data: 36659200
I0627 10:46:54.136229 33979 layer_factory.hpp:77] Creating layer mobilenet0_relu13
I0627 10:46:54.136235 33979 net.cpp:86] Creating Layer mobilenet0_relu13
I0627 10:46:54.136240 33979 net.cpp:408] mobilenet0_relu13 <- mobilenet0_batchnorm13
I0627 10:46:54.136245 33979 net.cpp:369] mobilenet0_relu13 -> mobilenet0_batchnorm13 (in-place)
I0627 10:46:54.136250 33979 net.cpp:124] Setting up mobilenet0_relu13
I0627 10:46:54.136255 33979 net.cpp:131] Top shape: 1 128 20 20 (51200)
I0627 10:46:54.136258 33979 net.cpp:139] Memory required for data: 36864000
I0627 10:46:54.136262 33979 layer_factory.hpp:77] Creating layer mobilenet0_conv14
I0627 10:46:54.136271 33979 net.cpp:86] Creating Layer mobilenet0_conv14
I0627 10:46:54.136276 33979 net.cpp:408] mobilenet0_conv14 <- mobilenet0_batchnorm13
I0627 10:46:54.136284 33979 net.cpp:382] mobilenet0_conv14 -> mobilenet0_conv14
I0627 10:46:54.136471 33979 net.cpp:124] Setting up mobilenet0_conv14
I0627 10:46:54.136478 33979 net.cpp:131] Top shape: 1 128 20 20 (51200)
I0627 10:46:54.136483 33979 net.cpp:139] Memory required for data: 37068800
I0627 10:46:54.136488 33979 layer_factory.hpp:77] Creating layer mobilenet0_batchnorm14
I0627 10:46:54.136500 33979 net.cpp:86] Creating Layer mobilenet0_batchnorm14
I0627 10:46:54.136519 33979 net.cpp:408] mobilenet0_batchnorm14 <- mobilenet0_conv14
I0627 10:46:54.136525 33979 net.cpp:382] mobilenet0_batchnorm14 -> mobilenet0_batchnorm14
I0627 10:46:54.136730 33979 net.cpp:124] Setting up mobilenet0_batchnorm14
I0627 10:46:54.136737 33979 net.cpp:131] Top shape: 1 128 20 20 (51200)
I0627 10:46:54.136744 33979 net.cpp:139] Memory required for data: 37273600
I0627 10:46:54.136750 33979 layer_factory.hpp:77] Creating layer mobilenet0_batchnorm14_scale
I0627 10:46:54.136759 33979 net.cpp:86] Creating Layer mobilenet0_batchnorm14_scale
I0627 10:46:54.136765 33979 net.cpp:408] mobilenet0_batchnorm14_scale <- mobilenet0_batchnorm14
I0627 10:46:54.136770 33979 net.cpp:369] mobilenet0_batchnorm14_scale -> mobilenet0_batchnorm14 (in-place)
I0627 10:46:54.136807 33979 layer_factory.hpp:77] Creating layer mobilenet0_batchnorm14_scale
I0627 10:46:54.136924 33979 net.cpp:124] Setting up mobilenet0_batchnorm14_scale
I0627 10:46:54.136930 33979 net.cpp:131] Top shape: 1 128 20 20 (51200)
I0627 10:46:54.136936 33979 net.cpp:139] Memory required for data: 37478400
I0627 10:46:54.136943 33979 layer_factory.hpp:77] Creating layer mobilenet0_relu14
I0627 10:46:54.136951 33979 net.cpp:86] Creating Layer mobilenet0_relu14
I0627 10:46:54.136956 33979 net.cpp:408] mobilenet0_relu14 <- mobilenet0_batchnorm14
I0627 10:46:54.136961 33979 net.cpp:369] mobilenet0_relu14 -> mobilenet0_batchnorm14 (in-place)
I0627 10:46:54.136967 33979 net.cpp:124] Setting up mobilenet0_relu14
I0627 10:46:54.136971 33979 net.cpp:131] Top shape: 1 128 20 20 (51200)
I0627 10:46:54.136976 33979 net.cpp:139] Memory required for data: 37683200
I0627 10:46:54.136993 33979 layer_factory.hpp:77] Creating layer mobilenet0_conv15
I0627 10:46:54.137003 33979 net.cpp:86] Creating Layer mobilenet0_conv15
I0627 10:46:54.137008 33979 net.cpp:408] mobilenet0_conv15 <- mobilenet0_batchnorm14
I0627 10:46:54.137014 33979 net.cpp:382] mobilenet0_conv15 -> mobilenet0_conv15
I0627 10:46:54.137197 33979 net.cpp:124] Setting up mobilenet0_conv15
I0627 10:46:54.137203 33979 net.cpp:131] Top shape: 1 128 20 20 (51200)
I0627 10:46:54.137208 33979 net.cpp:139] Memory required for data: 37888000
I0627 10:46:54.137214 33979 layer_factory.hpp:77] Creating layer mobilenet0_batchnorm15
I0627 10:46:54.137228 33979 net.cpp:86] Creating Layer mobilenet0_batchnorm15
I0627 10:46:54.137233 33979 net.cpp:408] mobilenet0_batchnorm15 <- mobilenet0_conv15
I0627 10:46:54.137239 33979 net.cpp:382] mobilenet0_batchnorm15 -> mobilenet0_batchnorm15
I0627 10:46:54.137440 33979 net.cpp:124] Setting up mobilenet0_batchnorm15
I0627 10:46:54.137447 33979 net.cpp:131] Top shape: 1 128 20 20 (51200)
I0627 10:46:54.137452 33979 net.cpp:139] Memory required for data: 38092800
I0627 10:46:54.137459 33979 layer_factory.hpp:77] Creating layer mobilenet0_batchnorm15_scale
I0627 10:46:54.137466 33979 net.cpp:86] Creating Layer mobilenet0_batchnorm15_scale
I0627 10:46:54.137470 33979 net.cpp:408] mobilenet0_batchnorm15_scale <- mobilenet0_batchnorm15
I0627 10:46:54.137476 33979 net.cpp:369] mobilenet0_batchnorm15_scale -> mobilenet0_batchnorm15 (in-place)
I0627 10:46:54.137516 33979 layer_factory.hpp:77] Creating layer mobilenet0_batchnorm15_scale
I0627 10:46:54.137629 33979 net.cpp:124] Setting up mobilenet0_batchnorm15_scale
I0627 10:46:54.137636 33979 net.cpp:131] Top shape: 1 128 20 20 (51200)
I0627 10:46:54.137641 33979 net.cpp:139] Memory required for data: 38297600
I0627 10:46:54.137648 33979 layer_factory.hpp:77] Creating layer mobilenet0_relu15
I0627 10:46:54.137656 33979 net.cpp:86] Creating Layer mobilenet0_relu15
I0627 10:46:54.137661 33979 net.cpp:408] mobilenet0_relu15 <- mobilenet0_batchnorm15
I0627 10:46:54.137667 33979 net.cpp:369] mobilenet0_relu15 -> mobilenet0_batchnorm15 (in-place)
I0627 10:46:54.137672 33979 net.cpp:124] Setting up mobilenet0_relu15
I0627 10:46:54.137676 33979 net.cpp:131] Top shape: 1 128 20 20 (51200)
I0627 10:46:54.137681 33979 net.cpp:139] Memory required for data: 38502400
I0627 10:46:54.137686 33979 layer_factory.hpp:77] Creating layer mobilenet0_conv16
I0627 10:46:54.137696 33979 net.cpp:86] Creating Layer mobilenet0_conv16
I0627 10:46:54.137701 33979 net.cpp:408] mobilenet0_conv16 <- mobilenet0_batchnorm15
I0627 10:46:54.137706 33979 net.cpp:382] mobilenet0_conv16 -> mobilenet0_conv16
I0627 10:46:54.137912 33979 net.cpp:124] Setting up mobilenet0_conv16
I0627 10:46:54.137917 33979 net.cpp:131] Top shape: 1 128 20 20 (51200)
I0627 10:46:54.137923 33979 net.cpp:139] Memory required for data: 38707200
I0627 10:46:54.137928 33979 layer_factory.hpp:77] Creating layer mobilenet0_batchnorm16
I0627 10:46:54.137935 33979 net.cpp:86] Creating Layer mobilenet0_batchnorm16
I0627 10:46:54.137939 33979 net.cpp:408] mobilenet0_batchnorm16 <- mobilenet0_conv16
I0627 10:46:54.137945 33979 net.cpp:382] mobilenet0_batchnorm16 -> mobilenet0_batchnorm16
I0627 10:46:54.138131 33979 net.cpp:124] Setting up mobilenet0_batchnorm16
I0627 10:46:54.138139 33979 net.cpp:131] Top shape: 1 128 20 20 (51200)
I0627 10:46:54.138144 33979 net.cpp:139] Memory required for data: 38912000
I0627 10:46:54.138150 33979 layer_factory.hpp:77] Creating layer mobilenet0_batchnorm16_scale
I0627 10:46:54.138156 33979 net.cpp:86] Creating Layer mobilenet0_batchnorm16_scale
I0627 10:46:54.138161 33979 net.cpp:408] mobilenet0_batchnorm16_scale <- mobilenet0_batchnorm16
I0627 10:46:54.138170 33979 net.cpp:369] mobilenet0_batchnorm16_scale -> mobilenet0_batchnorm16 (in-place)
I0627 10:46:54.138208 33979 layer_factory.hpp:77] Creating layer mobilenet0_batchnorm16_scale
I0627 10:46:54.138324 33979 net.cpp:124] Setting up mobilenet0_batchnorm16_scale
I0627 10:46:54.138330 33979 net.cpp:131] Top shape: 1 128 20 20 (51200)
I0627 10:46:54.138347 33979 net.cpp:139] Memory required for data: 39116800
I0627 10:46:54.138355 33979 layer_factory.hpp:77] Creating layer mobilenet0_relu16
I0627 10:46:54.138360 33979 net.cpp:86] Creating Layer mobilenet0_relu16
I0627 10:46:54.138365 33979 net.cpp:408] mobilenet0_relu16 <- mobilenet0_batchnorm16
I0627 10:46:54.138372 33979 net.cpp:369] mobilenet0_relu16 -> mobilenet0_batchnorm16 (in-place)
I0627 10:46:54.138379 33979 net.cpp:124] Setting up mobilenet0_relu16
I0627 10:46:54.138382 33979 net.cpp:131] Top shape: 1 128 20 20 (51200)
I0627 10:46:54.138387 33979 net.cpp:139] Memory required for data: 39321600
I0627 10:46:54.138392 33979 layer_factory.hpp:77] Creating layer mobilenet0_conv17
I0627 10:46:54.138401 33979 net.cpp:86] Creating Layer mobilenet0_conv17
I0627 10:46:54.138406 33979 net.cpp:408] mobilenet0_conv17 <- mobilenet0_batchnorm16
I0627 10:46:54.138411 33979 net.cpp:382] mobilenet0_conv17 -> mobilenet0_conv17
I0627 10:46:54.138583 33979 net.cpp:124] Setting up mobilenet0_conv17
I0627 10:46:54.138590 33979 net.cpp:131] Top shape: 1 128 20 20 (51200)
I0627 10:46:54.138597 33979 net.cpp:139] Memory required for data: 39526400
I0627 10:46:54.138602 33979 layer_factory.hpp:77] Creating layer mobilenet0_batchnorm17
I0627 10:46:54.138610 33979 net.cpp:86] Creating Layer mobilenet0_batchnorm17
I0627 10:46:54.138615 33979 net.cpp:408] mobilenet0_batchnorm17 <- mobilenet0_conv17
I0627 10:46:54.138620 33979 net.cpp:382] mobilenet0_batchnorm17 -> mobilenet0_batchnorm17
I0627 10:46:54.138811 33979 net.cpp:124] Setting up mobilenet0_batchnorm17
I0627 10:46:54.138818 33979 net.cpp:131] Top shape: 1 128 20 20 (51200)
I0627 10:46:54.138823 33979 net.cpp:139] Memory required for data: 39731200
I0627 10:46:54.138830 33979 layer_factory.hpp:77] Creating layer mobilenet0_batchnorm17_scale
I0627 10:46:54.138839 33979 net.cpp:86] Creating Layer mobilenet0_batchnorm17_scale
I0627 10:46:54.138844 33979 net.cpp:408] mobilenet0_batchnorm17_scale <- mobilenet0_batchnorm17
I0627 10:46:54.138849 33979 net.cpp:369] mobilenet0_batchnorm17_scale -> mobilenet0_batchnorm17 (in-place)
I0627 10:46:54.138888 33979 layer_factory.hpp:77] Creating layer mobilenet0_batchnorm17_scale
I0627 10:46:54.139000 33979 net.cpp:124] Setting up mobilenet0_batchnorm17_scale
I0627 10:46:54.139008 33979 net.cpp:131] Top shape: 1 128 20 20 (51200)
I0627 10:46:54.139012 33979 net.cpp:139] Memory required for data: 39936000
I0627 10:46:54.139019 33979 layer_factory.hpp:77] Creating layer mobilenet0_relu17
I0627 10:46:54.139024 33979 net.cpp:86] Creating Layer mobilenet0_relu17
I0627 10:46:54.139029 33979 net.cpp:408] mobilenet0_relu17 <- mobilenet0_batchnorm17
I0627 10:46:54.139036 33979 net.cpp:369] mobilenet0_relu17 -> mobilenet0_batchnorm17 (in-place)
I0627 10:46:54.139042 33979 net.cpp:124] Setting up mobilenet0_relu17
I0627 10:46:54.139045 33979 net.cpp:131] Top shape: 1 128 20 20 (51200)
I0627 10:46:54.139050 33979 net.cpp:139] Memory required for data: 40140800
I0627 10:46:54.139055 33979 layer_factory.hpp:77] Creating layer mobilenet0_conv18
I0627 10:46:54.139060 33979 net.cpp:86] Creating Layer mobilenet0_conv18
I0627 10:46:54.139065 33979 net.cpp:408] mobilenet0_conv18 <- mobilenet0_batchnorm17
I0627 10:46:54.139073 33979 net.cpp:382] mobilenet0_conv18 -> mobilenet0_conv18
I0627 10:46:54.139259 33979 net.cpp:124] Setting up mobilenet0_conv18
I0627 10:46:54.139266 33979 net.cpp:131] Top shape: 1 128 20 20 (51200)
I0627 10:46:54.139271 33979 net.cpp:139] Memory required for data: 40345600
I0627 10:46:54.139276 33979 layer_factory.hpp:77] Creating layer mobilenet0_batchnorm18
I0627 10:46:54.139286 33979 net.cpp:86] Creating Layer mobilenet0_batchnorm18
I0627 10:46:54.139291 33979 net.cpp:408] mobilenet0_batchnorm18 <- mobilenet0_conv18
I0627 10:46:54.139295 33979 net.cpp:382] mobilenet0_batchnorm18 -> mobilenet0_batchnorm18
I0627 10:46:54.139488 33979 net.cpp:124] Setting up mobilenet0_batchnorm18
I0627 10:46:54.139494 33979 net.cpp:131] Top shape: 1 128 20 20 (51200)
I0627 10:46:54.139500 33979 net.cpp:139] Memory required for data: 40550400
I0627 10:46:54.139518 33979 layer_factory.hpp:77] Creating layer mobilenet0_batchnorm18_scale
I0627 10:46:54.139525 33979 net.cpp:86] Creating Layer mobilenet0_batchnorm18_scale
I0627 10:46:54.139530 33979 net.cpp:408] mobilenet0_batchnorm18_scale <- mobilenet0_batchnorm18
I0627 10:46:54.139535 33979 net.cpp:369] mobilenet0_batchnorm18_scale -> mobilenet0_batchnorm18 (in-place)
I0627 10:46:54.139575 33979 layer_factory.hpp:77] Creating layer mobilenet0_batchnorm18_scale
I0627 10:46:54.139685 33979 net.cpp:124] Setting up mobilenet0_batchnorm18_scale
I0627 10:46:54.139693 33979 net.cpp:131] Top shape: 1 128 20 20 (51200)
I0627 10:46:54.139698 33979 net.cpp:139] Memory required for data: 40755200
I0627 10:46:54.139704 33979 layer_factory.hpp:77] Creating layer mobilenet0_relu18
I0627 10:46:54.139714 33979 net.cpp:86] Creating Layer mobilenet0_relu18
I0627 10:46:54.139717 33979 net.cpp:408] mobilenet0_relu18 <- mobilenet0_batchnorm18
I0627 10:46:54.139724 33979 net.cpp:369] mobilenet0_relu18 -> mobilenet0_batchnorm18 (in-place)
I0627 10:46:54.139729 33979 net.cpp:124] Setting up mobilenet0_relu18
I0627 10:46:54.139732 33979 net.cpp:131] Top shape: 1 128 20 20 (51200)
I0627 10:46:54.139737 33979 net.cpp:139] Memory required for data: 40960000
I0627 10:46:54.139741 33979 layer_factory.hpp:77] Creating layer mobilenet0_conv19
I0627 10:46:54.139750 33979 net.cpp:86] Creating Layer mobilenet0_conv19
I0627 10:46:54.139755 33979 net.cpp:408] mobilenet0_conv19 <- mobilenet0_batchnorm18
I0627 10:46:54.139760 33979 net.cpp:382] mobilenet0_conv19 -> mobilenet0_conv19
I0627 10:46:54.139963 33979 net.cpp:124] Setting up mobilenet0_conv19
I0627 10:46:54.139971 33979 net.cpp:131] Top shape: 1 128 20 20 (51200)
I0627 10:46:54.139976 33979 net.cpp:139] Memory required for data: 41164800
I0627 10:46:54.139982 33979 layer_factory.hpp:77] Creating layer mobilenet0_batchnorm19
I0627 10:46:54.139988 33979 net.cpp:86] Creating Layer mobilenet0_batchnorm19
I0627 10:46:54.139993 33979 net.cpp:408] mobilenet0_batchnorm19 <- mobilenet0_conv19
I0627 10:46:54.139999 33979 net.cpp:382] mobilenet0_batchnorm19 -> mobilenet0_batchnorm19
I0627 10:46:54.140199 33979 net.cpp:124] Setting up mobilenet0_batchnorm19
I0627 10:46:54.140206 33979 net.cpp:131] Top shape: 1 128 20 20 (51200)
I0627 10:46:54.140211 33979 net.cpp:139] Memory required for data: 41369600
I0627 10:46:54.140218 33979 layer_factory.hpp:77] Creating layer mobilenet0_batchnorm19_scale
I0627 10:46:54.140228 33979 net.cpp:86] Creating Layer mobilenet0_batchnorm19_scale
I0627 10:46:54.140233 33979 net.cpp:408] mobilenet0_batchnorm19_scale <- mobilenet0_batchnorm19
I0627 10:46:54.140239 33979 net.cpp:369] mobilenet0_batchnorm19_scale -> mobilenet0_batchnorm19 (in-place)
I0627 10:46:54.140277 33979 layer_factory.hpp:77] Creating layer mobilenet0_batchnorm19_scale
I0627 10:46:54.140409 33979 net.cpp:124] Setting up mobilenet0_batchnorm19_scale
I0627 10:46:54.140416 33979 net.cpp:131] Top shape: 1 128 20 20 (51200)
I0627 10:46:54.140421 33979 net.cpp:139] Memory required for data: 41574400
I0627 10:46:54.140427 33979 layer_factory.hpp:77] Creating layer mobilenet0_relu19
I0627 10:46:54.140436 33979 net.cpp:86] Creating Layer mobilenet0_relu19
I0627 10:46:54.140440 33979 net.cpp:408] mobilenet0_relu19 <- mobilenet0_batchnorm19
I0627 10:46:54.140445 33979 net.cpp:369] mobilenet0_relu19 -> mobilenet0_batchnorm19 (in-place)
I0627 10:46:54.140451 33979 net.cpp:124] Setting up mobilenet0_relu19
I0627 10:46:54.140455 33979 net.cpp:131] Top shape: 1 128 20 20 (51200)
I0627 10:46:54.140460 33979 net.cpp:139] Memory required for data: 41779200
I0627 10:46:54.140465 33979 layer_factory.hpp:77] Creating layer mobilenet0_conv20
I0627 10:46:54.140473 33979 net.cpp:86] Creating Layer mobilenet0_conv20
I0627 10:46:54.140477 33979 net.cpp:408] mobilenet0_conv20 <- mobilenet0_batchnorm19
I0627 10:46:54.140482 33979 net.cpp:382] mobilenet0_conv20 -> mobilenet0_conv20
I0627 10:46:54.140669 33979 net.cpp:124] Setting up mobilenet0_conv20
I0627 10:46:54.140676 33979 net.cpp:131] Top shape: 1 128 20 20 (51200)
I0627 10:46:54.140695 33979 net.cpp:139] Memory required for data: 41984000
I0627 10:46:54.140702 33979 layer_factory.hpp:77] Creating layer mobilenet0_batchnorm20
I0627 10:46:54.140712 33979 net.cpp:86] Creating Layer mobilenet0_batchnorm20
I0627 10:46:54.140717 33979 net.cpp:408] mobilenet0_batchnorm20 <- mobilenet0_conv20
I0627 10:46:54.140722 33979 net.cpp:382] mobilenet0_batchnorm20 -> mobilenet0_batchnorm20
I0627 10:46:54.140928 33979 net.cpp:124] Setting up mobilenet0_batchnorm20
I0627 10:46:54.140935 33979 net.cpp:131] Top shape: 1 128 20 20 (51200)
I0627 10:46:54.140940 33979 net.cpp:139] Memory required for data: 42188800
I0627 10:46:54.140961 33979 layer_factory.hpp:77] Creating layer mobilenet0_batchnorm20_scale
I0627 10:46:54.140969 33979 net.cpp:86] Creating Layer mobilenet0_batchnorm20_scale
I0627 10:46:54.140974 33979 net.cpp:408] mobilenet0_batchnorm20_scale <- mobilenet0_batchnorm20
I0627 10:46:54.140980 33979 net.cpp:369] mobilenet0_batchnorm20_scale -> mobilenet0_batchnorm20 (in-place)
I0627 10:46:54.141021 33979 layer_factory.hpp:77] Creating layer mobilenet0_batchnorm20_scale
I0627 10:46:54.141126 33979 net.cpp:124] Setting up mobilenet0_batchnorm20_scale
I0627 10:46:54.141134 33979 net.cpp:131] Top shape: 1 128 20 20 (51200)
I0627 10:46:54.141139 33979 net.cpp:139] Memory required for data: 42393600
I0627 10:46:54.141144 33979 layer_factory.hpp:77] Creating layer mobilenet0_relu20
I0627 10:46:54.141153 33979 net.cpp:86] Creating Layer mobilenet0_relu20
I0627 10:46:54.141158 33979 net.cpp:408] mobilenet0_relu20 <- mobilenet0_batchnorm20
I0627 10:46:54.141163 33979 net.cpp:369] mobilenet0_relu20 -> mobilenet0_batchnorm20 (in-place)
I0627 10:46:54.141168 33979 net.cpp:124] Setting up mobilenet0_relu20
I0627 10:46:54.141172 33979 net.cpp:131] Top shape: 1 128 20 20 (51200)
I0627 10:46:54.141177 33979 net.cpp:139] Memory required for data: 42598400
I0627 10:46:54.141181 33979 layer_factory.hpp:77] Creating layer mobilenet0_conv21
I0627 10:46:54.141191 33979 net.cpp:86] Creating Layer mobilenet0_conv21
I0627 10:46:54.141194 33979 net.cpp:408] mobilenet0_conv21 <- mobilenet0_batchnorm20
I0627 10:46:54.141199 33979 net.cpp:382] mobilenet0_conv21 -> mobilenet0_conv21
I0627 10:46:54.141399 33979 net.cpp:124] Setting up mobilenet0_conv21
I0627 10:46:54.141407 33979 net.cpp:131] Top shape: 1 128 20 20 (51200)
I0627 10:46:54.141412 33979 net.cpp:139] Memory required for data: 42803200
I0627 10:46:54.141417 33979 layer_factory.hpp:77] Creating layer mobilenet0_batchnorm21
I0627 10:46:54.141427 33979 net.cpp:86] Creating Layer mobilenet0_batchnorm21
I0627 10:46:54.141430 33979 net.cpp:408] mobilenet0_batchnorm21 <- mobilenet0_conv21
I0627 10:46:54.141436 33979 net.cpp:382] mobilenet0_batchnorm21 -> mobilenet0_batchnorm21
I0627 10:46:54.141638 33979 net.cpp:124] Setting up mobilenet0_batchnorm21
I0627 10:46:54.141645 33979 net.cpp:131] Top shape: 1 128 20 20 (51200)
I0627 10:46:54.141650 33979 net.cpp:139] Memory required for data: 43008000
I0627 10:46:54.141657 33979 layer_factory.hpp:77] Creating layer mobilenet0_batchnorm21_scale
I0627 10:46:54.141664 33979 net.cpp:86] Creating Layer mobilenet0_batchnorm21_scale
I0627 10:46:54.141667 33979 net.cpp:408] mobilenet0_batchnorm21_scale <- mobilenet0_batchnorm21
I0627 10:46:54.141674 33979 net.cpp:369] mobilenet0_batchnorm21_scale -> mobilenet0_batchnorm21 (in-place)
I0627 10:46:54.141710 33979 layer_factory.hpp:77] Creating layer mobilenet0_batchnorm21_scale
I0627 10:46:54.141821 33979 net.cpp:124] Setting up mobilenet0_batchnorm21_scale
I0627 10:46:54.141827 33979 net.cpp:131] Top shape: 1 128 20 20 (51200)
I0627 10:46:54.141832 33979 net.cpp:139] Memory required for data: 43212800
I0627 10:46:54.141839 33979 layer_factory.hpp:77] Creating layer mobilenet0_relu21
I0627 10:46:54.141845 33979 net.cpp:86] Creating Layer mobilenet0_relu21
I0627 10:46:54.141849 33979 net.cpp:408] mobilenet0_relu21 <- mobilenet0_batchnorm21
I0627 10:46:54.141857 33979 net.cpp:369] mobilenet0_relu21 -> mobilenet0_batchnorm21 (in-place)
I0627 10:46:54.141863 33979 net.cpp:124] Setting up mobilenet0_relu21
I0627 10:46:54.141878 33979 net.cpp:131] Top shape: 1 128 20 20 (51200)
I0627 10:46:54.141883 33979 net.cpp:139] Memory required for data: 43417600
I0627 10:46:54.141888 33979 layer_factory.hpp:77] Creating layer mobilenet0_conv22
I0627 10:46:54.141894 33979 net.cpp:86] Creating Layer mobilenet0_conv22
I0627 10:46:54.141899 33979 net.cpp:408] mobilenet0_conv22 <- mobilenet0_batchnorm21
I0627 10:46:54.141907 33979 net.cpp:382] mobilenet0_conv22 -> mobilenet0_conv22
I0627 10:46:54.142129 33979 net.cpp:124] Setting up mobilenet0_conv22
I0627 10:46:54.142138 33979 net.cpp:131] Top shape: 1 128 20 20 (51200)
I0627 10:46:54.142143 33979 net.cpp:139] Memory required for data: 43622400
I0627 10:46:54.142149 33979 layer_factory.hpp:77] Creating layer mobilenet0_batchnorm22
I0627 10:46:54.142158 33979 net.cpp:86] Creating Layer mobilenet0_batchnorm22
I0627 10:46:54.142163 33979 net.cpp:408] mobilenet0_batchnorm22 <- mobilenet0_conv22
I0627 10:46:54.142169 33979 net.cpp:382] mobilenet0_batchnorm22 -> mobilenet0_batchnorm22
I0627 10:46:54.142371 33979 net.cpp:124] Setting up mobilenet0_batchnorm22
I0627 10:46:54.142379 33979 net.cpp:131] Top shape: 1 128 20 20 (51200)
I0627 10:46:54.142383 33979 net.cpp:139] Memory required for data: 43827200
I0627 10:46:54.142390 33979 layer_factory.hpp:77] Creating layer mobilenet0_batchnorm22_scale
I0627 10:46:54.142397 33979 net.cpp:86] Creating Layer mobilenet0_batchnorm22_scale
I0627 10:46:54.142402 33979 net.cpp:408] mobilenet0_batchnorm22_scale <- mobilenet0_batchnorm22
I0627 10:46:54.142407 33979 net.cpp:369] mobilenet0_batchnorm22_scale -> mobilenet0_batchnorm22 (in-place)
I0627 10:46:54.142447 33979 layer_factory.hpp:77] Creating layer mobilenet0_batchnorm22_scale
I0627 10:46:54.142570 33979 net.cpp:124] Setting up mobilenet0_batchnorm22_scale
I0627 10:46:54.142576 33979 net.cpp:131] Top shape: 1 128 20 20 (51200)
I0627 10:46:54.142582 33979 net.cpp:139] Memory required for data: 44032000
I0627 10:46:54.142588 33979 layer_factory.hpp:77] Creating layer mobilenet0_relu22
I0627 10:46:54.142596 33979 net.cpp:86] Creating Layer mobilenet0_relu22
I0627 10:46:54.142599 33979 net.cpp:408] mobilenet0_relu22 <- mobilenet0_batchnorm22
I0627 10:46:54.142606 33979 net.cpp:369] mobilenet0_relu22 -> mobilenet0_batchnorm22 (in-place)
I0627 10:46:54.142611 33979 net.cpp:124] Setting up mobilenet0_relu22
I0627 10:46:54.142614 33979 net.cpp:131] Top shape: 1 128 20 20 (51200)
I0627 10:46:54.142619 33979 net.cpp:139] Memory required for data: 44236800
I0627 10:46:54.142623 33979 layer_factory.hpp:77] Creating layer mobilenet0_batchnorm22_mobilenet0_relu22_0_split
I0627 10:46:54.142633 33979 net.cpp:86] Creating Layer mobilenet0_batchnorm22_mobilenet0_relu22_0_split
I0627 10:46:54.142637 33979 net.cpp:408] mobilenet0_batchnorm22_mobilenet0_relu22_0_split <- mobilenet0_batchnorm22
I0627 10:46:54.142643 33979 net.cpp:382] mobilenet0_batchnorm22_mobilenet0_relu22_0_split -> mobilenet0_batchnorm22_mobilenet0_relu22_0_split_0
I0627 10:46:54.142649 33979 net.cpp:382] mobilenet0_batchnorm22_mobilenet0_relu22_0_split -> mobilenet0_batchnorm22_mobilenet0_relu22_0_split_1
I0627 10:46:54.142688 33979 net.cpp:124] Setting up mobilenet0_batchnorm22_mobilenet0_relu22_0_split
I0627 10:46:54.142694 33979 net.cpp:131] Top shape: 1 128 20 20 (51200)
I0627 10:46:54.142699 33979 net.cpp:131] Top shape: 1 128 20 20 (51200)
I0627 10:46:54.142704 33979 net.cpp:139] Memory required for data: 44646400
I0627 10:46:54.142709 33979 layer_factory.hpp:77] Creating layer mobilenet0_conv23
I0627 10:46:54.142719 33979 net.cpp:86] Creating Layer mobilenet0_conv23
I0627 10:46:54.142724 33979 net.cpp:408] mobilenet0_conv23 <- mobilenet0_batchnorm22_mobilenet0_relu22_0_split_0
I0627 10:46:54.142731 33979 net.cpp:382] mobilenet0_conv23 -> mobilenet0_conv23
I0627 10:46:54.142915 33979 net.cpp:124] Setting up mobilenet0_conv23
I0627 10:46:54.142923 33979 net.cpp:131] Top shape: 1 128 10 10 (12800)
I0627 10:46:54.142928 33979 net.cpp:139] Memory required for data: 44697600
I0627 10:46:54.142935 33979 layer_factory.hpp:77] Creating layer rf_c2_lateral
I0627 10:46:54.142953 33979 net.cpp:86] Creating Layer rf_c2_lateral
I0627 10:46:54.142959 33979 net.cpp:408] rf_c2_lateral <- mobilenet0_batchnorm22_mobilenet0_relu22_0_split_1
I0627 10:46:54.142966 33979 net.cpp:382] rf_c2_lateral -> rf_c2_lateral
I0627 10:46:54.143225 33979 net.cpp:124] Setting up rf_c2_lateral
I0627 10:46:54.143250 33979 net.cpp:131] Top shape: 1 64 20 20 (25600)
I0627 10:46:54.143256 33979 net.cpp:139] Memory required for data: 44800000
I0627 10:46:54.143262 33979 layer_factory.hpp:77] Creating layer mobilenet0_batchnorm23
I0627 10:46:54.143272 33979 net.cpp:86] Creating Layer mobilenet0_batchnorm23
I0627 10:46:54.143277 33979 net.cpp:408] mobilenet0_batchnorm23 <- mobilenet0_conv23
I0627 10:46:54.143283 33979 net.cpp:382] mobilenet0_batchnorm23 -> mobilenet0_batchnorm23
I0627 10:46:54.143483 33979 net.cpp:124] Setting up mobilenet0_batchnorm23
I0627 10:46:54.143491 33979 net.cpp:131] Top shape: 1 128 10 10 (12800)
I0627 10:46:54.143496 33979 net.cpp:139] Memory required for data: 44851200
I0627 10:46:54.143503 33979 layer_factory.hpp:77] Creating layer mobilenet0_batchnorm23_scale
I0627 10:46:54.143512 33979 net.cpp:86] Creating Layer mobilenet0_batchnorm23_scale
I0627 10:46:54.143517 33979 net.cpp:408] mobilenet0_batchnorm23_scale <- mobilenet0_batchnorm23
I0627 10:46:54.143522 33979 net.cpp:369] mobilenet0_batchnorm23_scale -> mobilenet0_batchnorm23 (in-place)
I0627 10:46:54.143561 33979 layer_factory.hpp:77] Creating layer mobilenet0_batchnorm23_scale
I0627 10:46:54.143676 33979 net.cpp:124] Setting up mobilenet0_batchnorm23_scale
I0627 10:46:54.143682 33979 net.cpp:131] Top shape: 1 128 10 10 (12800)
I0627 10:46:54.143687 33979 net.cpp:139] Memory required for data: 44902400
I0627 10:46:54.143693 33979 layer_factory.hpp:77] Creating layer rf_c2_lateral_bn
I0627 10:46:54.143702 33979 net.cpp:86] Creating Layer rf_c2_lateral_bn
I0627 10:46:54.143707 33979 net.cpp:408] rf_c2_lateral_bn <- rf_c2_lateral
I0627 10:46:54.143712 33979 net.cpp:382] rf_c2_lateral_bn -> rf_c2_lateral_bn
I0627 10:46:54.143950 33979 net.cpp:124] Setting up rf_c2_lateral_bn
I0627 10:46:54.143959 33979 net.cpp:131] Top shape: 1 64 20 20 (25600)
I0627 10:46:54.143963 33979 net.cpp:139] Memory required for data: 45004800
I0627 10:46:54.143971 33979 layer_factory.hpp:77] Creating layer rf_c2_lateral_bn_scale
I0627 10:46:54.143977 33979 net.cpp:86] Creating Layer rf_c2_lateral_bn_scale
I0627 10:46:54.143982 33979 net.cpp:408] rf_c2_lateral_bn_scale <- rf_c2_lateral_bn
I0627 10:46:54.143988 33979 net.cpp:369] rf_c2_lateral_bn_scale -> rf_c2_lateral_bn (in-place)
I0627 10:46:54.144029 33979 layer_factory.hpp:77] Creating layer rf_c2_lateral_bn_scale
I0627 10:46:54.144157 33979 net.cpp:124] Setting up rf_c2_lateral_bn_scale
I0627 10:46:54.144165 33979 net.cpp:131] Top shape: 1 64 20 20 (25600)
I0627 10:46:54.144170 33979 net.cpp:139] Memory required for data: 45107200
I0627 10:46:54.144176 33979 layer_factory.hpp:77] Creating layer mobilenet0_relu23
I0627 10:46:54.144183 33979 net.cpp:86] Creating Layer mobilenet0_relu23
I0627 10:46:54.144188 33979 net.cpp:408] mobilenet0_relu23 <- mobilenet0_batchnorm23
I0627 10:46:54.144196 33979 net.cpp:369] mobilenet0_relu23 -> mobilenet0_batchnorm23 (in-place)
I0627 10:46:54.144202 33979 net.cpp:124] Setting up mobilenet0_relu23
I0627 10:46:54.144207 33979 net.cpp:131] Top shape: 1 128 10 10 (12800)
I0627 10:46:54.144212 33979 net.cpp:139] Memory required for data: 45158400
I0627 10:46:54.144217 33979 layer_factory.hpp:77] Creating layer rf_c2_lateral_relu
I0627 10:46:54.144222 33979 net.cpp:86] Creating Layer rf_c2_lateral_relu
I0627 10:46:54.144227 33979 net.cpp:408] rf_c2_lateral_relu <- rf_c2_lateral_bn
I0627 10:46:54.144232 33979 net.cpp:369] rf_c2_lateral_relu -> rf_c2_lateral_bn (in-place)
I0627 10:46:54.144239 33979 net.cpp:124] Setting up rf_c2_lateral_relu
I0627 10:46:54.144243 33979 net.cpp:131] Top shape: 1 64 20 20 (25600)
I0627 10:46:54.144248 33979 net.cpp:139] Memory required for data: 45260800
I0627 10:46:54.144253 33979 layer_factory.hpp:77] Creating layer rf_c2_lateral_bn_rf_c2_lateral_relu_0_split
I0627 10:46:54.144273 33979 net.cpp:86] Creating Layer rf_c2_lateral_bn_rf_c2_lateral_relu_0_split
I0627 10:46:54.144277 33979 net.cpp:408] rf_c2_lateral_bn_rf_c2_lateral_relu_0_split <- rf_c2_lateral_bn
I0627 10:46:54.144300 33979 net.cpp:382] rf_c2_lateral_bn_rf_c2_lateral_relu_0_split -> rf_c2_lateral_bn_rf_c2_lateral_relu_0_split_0
I0627 10:46:54.144309 33979 net.cpp:382] rf_c2_lateral_bn_rf_c2_lateral_relu_0_split -> rf_c2_lateral_bn_rf_c2_lateral_relu_0_split_1
I0627 10:46:54.144366 33979 net.cpp:124] Setting up rf_c2_lateral_bn_rf_c2_lateral_relu_0_split
I0627 10:46:54.144372 33979 net.cpp:131] Top shape: 1 64 20 20 (25600)
I0627 10:46:54.144378 33979 net.cpp:131] Top shape: 1 64 20 20 (25600)
I0627 10:46:54.144383 33979 net.cpp:139] Memory required for data: 45465600
I0627 10:46:54.144387 33979 layer_factory.hpp:77] Creating layer mobilenet0_conv24
I0627 10:46:54.144398 33979 net.cpp:86] Creating Layer mobilenet0_conv24
I0627 10:46:54.144402 33979 net.cpp:408] mobilenet0_conv24 <- mobilenet0_batchnorm23
I0627 10:46:54.144409 33979 net.cpp:382] mobilenet0_conv24 -> mobilenet0_conv24
I0627 10:46:54.144654 33979 net.cpp:124] Setting up mobilenet0_conv24
I0627 10:46:54.144661 33979 net.cpp:131] Top shape: 1 256 10 10 (25600)
I0627 10:46:54.144667 33979 net.cpp:139] Memory required for data: 45568000
I0627 10:46:54.144672 33979 layer_factory.hpp:77] Creating layer mobilenet0_batchnorm24
I0627 10:46:54.144680 33979 net.cpp:86] Creating Layer mobilenet0_batchnorm24
I0627 10:46:54.144685 33979 net.cpp:408] mobilenet0_batchnorm24 <- mobilenet0_conv24
I0627 10:46:54.144690 33979 net.cpp:382] mobilenet0_batchnorm24 -> mobilenet0_batchnorm24
I0627 10:46:54.144904 33979 net.cpp:124] Setting up mobilenet0_batchnorm24
I0627 10:46:54.144912 33979 net.cpp:131] Top shape: 1 256 10 10 (25600)
I0627 10:46:54.144917 33979 net.cpp:139] Memory required for data: 45670400
I0627 10:46:54.144924 33979 layer_factory.hpp:77] Creating layer mobilenet0_batchnorm24_scale
I0627 10:46:54.144934 33979 net.cpp:86] Creating Layer mobilenet0_batchnorm24_scale
I0627 10:46:54.144939 33979 net.cpp:408] mobilenet0_batchnorm24_scale <- mobilenet0_batchnorm24
I0627 10:46:54.144944 33979 net.cpp:369] mobilenet0_batchnorm24_scale -> mobilenet0_batchnorm24 (in-place)
I0627 10:46:54.144981 33979 layer_factory.hpp:77] Creating layer mobilenet0_batchnorm24_scale
I0627 10:46:54.145094 33979 net.cpp:124] Setting up mobilenet0_batchnorm24_scale
I0627 10:46:54.145102 33979 net.cpp:131] Top shape: 1 256 10 10 (25600)
I0627 10:46:54.145107 33979 net.cpp:139] Memory required for data: 45772800
I0627 10:46:54.145112 33979 layer_factory.hpp:77] Creating layer mobilenet0_relu24
I0627 10:46:54.145121 33979 net.cpp:86] Creating Layer mobilenet0_relu24
I0627 10:46:54.145126 33979 net.cpp:408] mobilenet0_relu24 <- mobilenet0_batchnorm24
I0627 10:46:54.145131 33979 net.cpp:369] mobilenet0_relu24 -> mobilenet0_batchnorm24 (in-place)
I0627 10:46:54.145138 33979 net.cpp:124] Setting up mobilenet0_relu24
I0627 10:46:54.145141 33979 net.cpp:131] Top shape: 1 256 10 10 (25600)
I0627 10:46:54.145145 33979 net.cpp:139] Memory required for data: 45875200
I0627 10:46:54.145165 33979 layer_factory.hpp:77] Creating layer mobilenet0_conv25
I0627 10:46:54.145177 33979 net.cpp:86] Creating Layer mobilenet0_conv25
I0627 10:46:54.145181 33979 net.cpp:408] mobilenet0_conv25 <- mobilenet0_batchnorm24
I0627 10:46:54.145189 33979 net.cpp:382] mobilenet0_conv25 -> mobilenet0_conv25
I0627 10:46:54.145380 33979 net.cpp:124] Setting up mobilenet0_conv25
I0627 10:46:54.145387 33979 net.cpp:131] Top shape: 1 256 10 10 (25600)
I0627 10:46:54.145392 33979 net.cpp:139] Memory required for data: 45977600
I0627 10:46:54.145398 33979 layer_factory.hpp:77] Creating layer mobilenet0_batchnorm25
I0627 10:46:54.145408 33979 net.cpp:86] Creating Layer mobilenet0_batchnorm25
I0627 10:46:54.145412 33979 net.cpp:408] mobilenet0_batchnorm25 <- mobilenet0_conv25
I0627 10:46:54.145418 33979 net.cpp:382] mobilenet0_batchnorm25 -> mobilenet0_batchnorm25
I0627 10:46:54.145654 33979 net.cpp:124] Setting up mobilenet0_batchnorm25
I0627 10:46:54.145663 33979 net.cpp:131] Top shape: 1 256 10 10 (25600)
I0627 10:46:54.145668 33979 net.cpp:139] Memory required for data: 46080000
I0627 10:46:54.145675 33979 layer_factory.hpp:77] Creating layer mobilenet0_batchnorm25_scale
I0627 10:46:54.145694 33979 net.cpp:86] Creating Layer mobilenet0_batchnorm25_scale
I0627 10:46:54.145699 33979 net.cpp:408] mobilenet0_batchnorm25_scale <- mobilenet0_batchnorm25
I0627 10:46:54.145704 33979 net.cpp:369] mobilenet0_batchnorm25_scale -> mobilenet0_batchnorm25 (in-place)
I0627 10:46:54.145743 33979 layer_factory.hpp:77] Creating layer mobilenet0_batchnorm25_scale
I0627 10:46:54.145855 33979 net.cpp:124] Setting up mobilenet0_batchnorm25_scale
I0627 10:46:54.145861 33979 net.cpp:131] Top shape: 1 256 10 10 (25600)
I0627 10:46:54.145866 33979 net.cpp:139] Memory required for data: 46182400
I0627 10:46:54.145874 33979 layer_factory.hpp:77] Creating layer mobilenet0_relu25
I0627 10:46:54.145881 33979 net.cpp:86] Creating Layer mobilenet0_relu25
I0627 10:46:54.145886 33979 net.cpp:408] mobilenet0_relu25 <- mobilenet0_batchnorm25
I0627 10:46:54.145891 33979 net.cpp:369] mobilenet0_relu25 -> mobilenet0_batchnorm25 (in-place)
I0627 10:46:54.145897 33979 net.cpp:124] Setting up mobilenet0_relu25
I0627 10:46:54.145900 33979 net.cpp:131] Top shape: 1 256 10 10 (25600)
I0627 10:46:54.145905 33979 net.cpp:139] Memory required for data: 46284800
I0627 10:46:54.145910 33979 layer_factory.hpp:77] Creating layer mobilenet0_conv26
I0627 10:46:54.145918 33979 net.cpp:86] Creating Layer mobilenet0_conv26
I0627 10:46:54.145922 33979 net.cpp:408] mobilenet0_conv26 <- mobilenet0_batchnorm25
I0627 10:46:54.145928 33979 net.cpp:382] mobilenet0_conv26 -> mobilenet0_conv26
I0627 10:46:54.146236 33979 net.cpp:124] Setting up mobilenet0_conv26
I0627 10:46:54.146247 33979 net.cpp:131] Top shape: 1 256 10 10 (25600)
I0627 10:46:54.146252 33979 net.cpp:139] Memory required for data: 46387200
I0627 10:46:54.146258 33979 layer_factory.hpp:77] Creating layer mobilenet0_batchnorm26
I0627 10:46:54.146270 33979 net.cpp:86] Creating Layer mobilenet0_batchnorm26
I0627 10:46:54.146275 33979 net.cpp:408] mobilenet0_batchnorm26 <- mobilenet0_conv26
I0627 10:46:54.146281 33979 net.cpp:382] mobilenet0_batchnorm26 -> mobilenet0_batchnorm26
I0627 10:46:54.146538 33979 net.cpp:124] Setting up mobilenet0_batchnorm26
I0627 10:46:54.146553 33979 net.cpp:131] Top shape: 1 256 10 10 (25600)
I0627 10:46:54.146559 33979 net.cpp:139] Memory required for data: 46489600
I0627 10:46:54.146567 33979 layer_factory.hpp:77] Creating layer mobilenet0_batchnorm26_scale
I0627 10:46:54.146575 33979 net.cpp:86] Creating Layer mobilenet0_batchnorm26_scale
I0627 10:46:54.146580 33979 net.cpp:408] mobilenet0_batchnorm26_scale <- mobilenet0_batchnorm26
I0627 10:46:54.146589 33979 net.cpp:369] mobilenet0_batchnorm26_scale -> mobilenet0_batchnorm26 (in-place)
I0627 10:46:54.146636 33979 layer_factory.hpp:77] Creating layer mobilenet0_batchnorm26_scale
I0627 10:46:54.146757 33979 net.cpp:124] Setting up mobilenet0_batchnorm26_scale
I0627 10:46:54.146764 33979 net.cpp:131] Top shape: 1 256 10 10 (25600)
I0627 10:46:54.146770 33979 net.cpp:139] Memory required for data: 46592000
I0627 10:46:54.146775 33979 layer_factory.hpp:77] Creating layer mobilenet0_relu26
I0627 10:46:54.146783 33979 net.cpp:86] Creating Layer mobilenet0_relu26
I0627 10:46:54.146787 33979 net.cpp:408] mobilenet0_relu26 <- mobilenet0_batchnorm26
I0627 10:46:54.146795 33979 net.cpp:369] mobilenet0_relu26 -> mobilenet0_batchnorm26 (in-place)
I0627 10:46:54.146802 33979 net.cpp:124] Setting up mobilenet0_relu26
I0627 10:46:54.146806 33979 net.cpp:131] Top shape: 1 256 10 10 (25600)
I0627 10:46:54.146811 33979 net.cpp:139] Memory required for data: 46694400
I0627 10:46:54.146816 33979 layer_factory.hpp:77] Creating layer rf_c3_lateral
I0627 10:46:54.146824 33979 net.cpp:86] Creating Layer rf_c3_lateral
I0627 10:46:54.146829 33979 net.cpp:408] rf_c3_lateral <- mobilenet0_batchnorm26
I0627 10:46:54.146836 33979 net.cpp:382] rf_c3_lateral -> rf_c3_lateral
I0627 10:46:54.147126 33979 net.cpp:124] Setting up rf_c3_lateral
I0627 10:46:54.147135 33979 net.cpp:131] Top shape: 1 64 10 10 (6400)
I0627 10:46:54.147140 33979 net.cpp:139] Memory required for data: 46720000
I0627 10:46:54.147147 33979 layer_factory.hpp:77] Creating layer rf_c3_lateral_bn
I0627 10:46:54.147157 33979 net.cpp:86] Creating Layer rf_c3_lateral_bn
I0627 10:46:54.147162 33979 net.cpp:408] rf_c3_lateral_bn <- rf_c3_lateral
I0627 10:46:54.147168 33979 net.cpp:382] rf_c3_lateral_bn -> rf_c3_lateral_bn
I0627 10:46:54.147383 33979 net.cpp:124] Setting up rf_c3_lateral_bn
I0627 10:46:54.147390 33979 net.cpp:131] Top shape: 1 64 10 10 (6400)
I0627 10:46:54.147397 33979 net.cpp:139] Memory required for data: 46745600
I0627 10:46:54.147404 33979 layer_factory.hpp:77] Creating layer rf_c3_lateral_bn_scale
I0627 10:46:54.147413 33979 net.cpp:86] Creating Layer rf_c3_lateral_bn_scale
I0627 10:46:54.147418 33979 net.cpp:408] rf_c3_lateral_bn_scale <- rf_c3_lateral_bn
I0627 10:46:54.147426 33979 net.cpp:369] rf_c3_lateral_bn_scale -> rf_c3_lateral_bn (in-place)
I0627 10:46:54.147480 33979 layer_factory.hpp:77] Creating layer rf_c3_lateral_bn_scale
I0627 10:46:54.147609 33979 net.cpp:124] Setting up rf_c3_lateral_bn_scale
I0627 10:46:54.147619 33979 net.cpp:131] Top shape: 1 64 10 10 (6400)
I0627 10:46:54.147624 33979 net.cpp:139] Memory required for data: 46771200
I0627 10:46:54.147631 33979 layer_factory.hpp:77] Creating layer rf_c3_lateral_relu
I0627 10:46:54.147640 33979 net.cpp:86] Creating Layer rf_c3_lateral_relu
I0627 10:46:54.147644 33979 net.cpp:408] rf_c3_lateral_relu <- rf_c3_lateral_bn
I0627 10:46:54.147650 33979 net.cpp:369] rf_c3_lateral_relu -> rf_c3_lateral_bn (in-place)
I0627 10:46:54.147656 33979 net.cpp:124] Setting up rf_c3_lateral_relu
I0627 10:46:54.147660 33979 net.cpp:131] Top shape: 1 64 10 10 (6400)
I0627 10:46:54.147665 33979 net.cpp:139] Memory required for data: 46796800
I0627 10:46:54.147670 33979 layer_factory.hpp:77] Creating layer rf_c3_lateral_bn_rf_c3_lateral_relu_0_split
I0627 10:46:54.147676 33979 net.cpp:86] Creating Layer rf_c3_lateral_bn_rf_c3_lateral_relu_0_split
I0627 10:46:54.147680 33979 net.cpp:408] rf_c3_lateral_bn_rf_c3_lateral_relu_0_split <- rf_c3_lateral_bn
I0627 10:46:54.147689 33979 net.cpp:382] rf_c3_lateral_bn_rf_c3_lateral_relu_0_split -> rf_c3_lateral_bn_rf_c3_lateral_relu_0_split_0
I0627 10:46:54.147696 33979 net.cpp:382] rf_c3_lateral_bn_rf_c3_lateral_relu_0_split -> rf_c3_lateral_bn_rf_c3_lateral_relu_0_split_1
I0627 10:46:54.147702 33979 net.cpp:382] rf_c3_lateral_bn_rf_c3_lateral_relu_0_split -> rf_c3_lateral_bn_rf_c3_lateral_relu_0_split_2
I0627 10:46:54.147752 33979 net.cpp:124] Setting up rf_c3_lateral_bn_rf_c3_lateral_relu_0_split
I0627 10:46:54.147758 33979 net.cpp:131] Top shape: 1 64 10 10 (6400)
I0627 10:46:54.147763 33979 net.cpp:131] Top shape: 1 64 10 10 (6400)
I0627 10:46:54.147768 33979 net.cpp:131] Top shape: 1 64 10 10 (6400)
I0627 10:46:54.147773 33979 net.cpp:139] Memory required for data: 46873600
I0627 10:46:54.147778 33979 layer_factory.hpp:77] Creating layer rf_c3_det_conv1
I0627 10:46:54.147788 33979 net.cpp:86] Creating Layer rf_c3_det_conv1
I0627 10:46:54.147792 33979 net.cpp:408] rf_c3_det_conv1 <- rf_c3_lateral_bn_rf_c3_lateral_relu_0_split_0
I0627 10:46:54.147799 33979 net.cpp:382] rf_c3_det_conv1 -> rf_c3_det_conv1
I0627 10:46:54.148082 33979 net.cpp:124] Setting up rf_c3_det_conv1
I0627 10:46:54.148092 33979 net.cpp:131] Top shape: 1 32 10 10 (3200)
I0627 10:46:54.148097 33979 net.cpp:139] Memory required for data: 46886400
I0627 10:46:54.148103 33979 layer_factory.hpp:77] Creating layer rf_c3_det_context_conv1
I0627 10:46:54.148114 33979 net.cpp:86] Creating Layer rf_c3_det_context_conv1
I0627 10:46:54.148119 33979 net.cpp:408] rf_c3_det_context_conv1 <- rf_c3_lateral_bn_rf_c3_lateral_relu_0_split_1
I0627 10:46:54.148126 33979 net.cpp:382] rf_c3_det_context_conv1 -> rf_c3_det_context_conv1
I0627 10:46:54.148401 33979 net.cpp:124] Setting up rf_c3_det_context_conv1
I0627 10:46:54.148422 33979 net.cpp:131] Top shape: 1 16 10 10 (1600)
I0627 10:46:54.148428 33979 net.cpp:139] Memory required for data: 46892800
I0627 10:46:54.148434 33979 layer_factory.hpp:77] Creating layer rf_c3_upsampling_
I0627 10:46:54.148461 33979 net.cpp:86] Creating Layer rf_c3_upsampling_
I0627 10:46:54.148466 33979 net.cpp:408] rf_c3_upsampling_ <- rf_c3_lateral_bn_rf_c3_lateral_relu_0_split_2
I0627 10:46:54.148473 33979 net.cpp:382] rf_c3_upsampling_ -> rf_c3_upsampling
I0627 10:46:54.148672 33979 net.cpp:124] Setting up rf_c3_upsampling_
I0627 10:46:54.148680 33979 net.cpp:131] Top shape: 1 64 20 20 (25600)
I0627 10:46:54.148686 33979 net.cpp:139] Memory required for data: 46995200
I0627 10:46:54.148691 33979 layer_factory.hpp:77] Creating layer rf_c3_det_conv1_bn
I0627 10:46:54.148699 33979 net.cpp:86] Creating Layer rf_c3_det_conv1_bn
I0627 10:46:54.148703 33979 net.cpp:408] rf_c3_det_conv1_bn <- rf_c3_det_conv1
I0627 10:46:54.148712 33979 net.cpp:382] rf_c3_det_conv1_bn -> rf_c3_det_conv1_bn
I0627 10:46:54.148942 33979 net.cpp:124] Setting up rf_c3_det_conv1_bn
I0627 10:46:54.148950 33979 net.cpp:131] Top shape: 1 32 10 10 (3200)
I0627 10:46:54.148955 33979 net.cpp:139] Memory required for data: 47008000
I0627 10:46:54.148963 33979 layer_factory.hpp:77] Creating layer rf_c3_det_conv1_bn_scale
I0627 10:46:54.148970 33979 net.cpp:86] Creating Layer rf_c3_det_conv1_bn_scale
I0627 10:46:54.148975 33979 net.cpp:408] rf_c3_det_conv1_bn_scale <- rf_c3_det_conv1_bn
I0627 10:46:54.148982 33979 net.cpp:369] rf_c3_det_conv1_bn_scale -> rf_c3_det_conv1_bn (in-place)
I0627 10:46:54.149022 33979 layer_factory.hpp:77] Creating layer rf_c3_det_conv1_bn_scale
I0627 10:46:54.149147 33979 net.cpp:124] Setting up rf_c3_det_conv1_bn_scale
I0627 10:46:54.149157 33979 net.cpp:131] Top shape: 1 32 10 10 (3200)
I0627 10:46:54.149163 33979 net.cpp:139] Memory required for data: 47020800
I0627 10:46:54.149168 33979 layer_factory.hpp:77] Creating layer rf_c3_det_context_conv1_bn
I0627 10:46:54.149175 33979 net.cpp:86] Creating Layer rf_c3_det_context_conv1_bn
I0627 10:46:54.149179 33979 net.cpp:408] rf_c3_det_context_conv1_bn <- rf_c3_det_context_conv1
I0627 10:46:54.149188 33979 net.cpp:382] rf_c3_det_context_conv1_bn -> rf_c3_det_context_conv1_bn
I0627 10:46:54.149392 33979 net.cpp:124] Setting up rf_c3_det_context_conv1_bn
I0627 10:46:54.149399 33979 net.cpp:131] Top shape: 1 16 10 10 (1600)
I0627 10:46:54.149405 33979 net.cpp:139] Memory required for data: 47027200
I0627 10:46:54.149412 33979 layer_factory.hpp:77] Creating layer rf_c3_det_context_conv1_bn_scale
I0627 10:46:54.149420 33979 net.cpp:86] Creating Layer rf_c3_det_context_conv1_bn_scale
I0627 10:46:54.149423 33979 net.cpp:408] rf_c3_det_context_conv1_bn_scale <- rf_c3_det_context_conv1_bn
I0627 10:46:54.149430 33979 net.cpp:369] rf_c3_det_context_conv1_bn_scale -> rf_c3_det_context_conv1_bn (in-place)
I0627 10:46:54.149468 33979 layer_factory.hpp:77] Creating layer rf_c3_det_context_conv1_bn_scale
I0627 10:46:54.149595 33979 net.cpp:124] Setting up rf_c3_det_context_conv1_bn_scale
I0627 10:46:54.149601 33979 net.cpp:131] Top shape: 1 16 10 10 (1600)
I0627 10:46:54.149606 33979 net.cpp:139] Memory required for data: 47033600
I0627 10:46:54.149613 33979 layer_factory.hpp:77] Creating layer crop0
I0627 10:46:54.149621 33979 net.cpp:86] Creating Layer crop0
I0627 10:46:54.149624 33979 net.cpp:408] crop0 <- rf_c3_upsampling
I0627 10:46:54.149631 33979 net.cpp:408] crop0 <- rf_c2_lateral_bn_rf_c2_lateral_relu_0_split_0
I0627 10:46:54.149636 33979 net.cpp:382] crop0 -> crop0
I0627 10:46:54.149734 33979 net.cpp:124] Setting up crop0
I0627 10:46:54.149739 33979 net.cpp:131] Top shape: 1 64 20 20 (25600)
I0627 10:46:54.149745 33979 net.cpp:139] Memory required for data: 47136000
I0627 10:46:54.149749 33979 layer_factory.hpp:77] Creating layer rf_c3_det_context_conv1_relu
I0627 10:46:54.149760 33979 net.cpp:86] Creating Layer rf_c3_det_context_conv1_relu
I0627 10:46:54.149765 33979 net.cpp:408] rf_c3_det_context_conv1_relu <- rf_c3_det_context_conv1_bn
I0627 10:46:54.149770 33979 net.cpp:369] rf_c3_det_context_conv1_relu -> rf_c3_det_context_conv1_bn (in-place)
I0627 10:46:54.149789 33979 net.cpp:124] Setting up rf_c3_det_context_conv1_relu
I0627 10:46:54.149794 33979 net.cpp:131] Top shape: 1 16 10 10 (1600)
I0627 10:46:54.149799 33979 net.cpp:139] Memory required for data: 47142400
I0627 10:46:54.149803 33979 layer_factory.hpp:77] Creating layer rf_c3_det_context_conv1_bn_rf_c3_det_context_conv1_relu_0_split
I0627 10:46:54.149813 33979 net.cpp:86] Creating Layer rf_c3_det_context_conv1_bn_rf_c3_det_context_conv1_relu_0_split
I0627 10:46:54.149817 33979 net.cpp:408] rf_c3_det_context_conv1_bn_rf_c3_det_context_conv1_relu_0_split <- rf_c3_det_context_conv1_bn
I0627 10:46:54.149823 33979 net.cpp:382] rf_c3_det_context_conv1_bn_rf_c3_det_context_conv1_relu_0_split -> rf_c3_det_context_conv1_bn_rf_c3_det_context_conv1_relu_0_split_0
I0627 10:46:54.149832 33979 net.cpp:382] rf_c3_det_context_conv1_bn_rf_c3_det_context_conv1_relu_0_split -> rf_c3_det_context_conv1_bn_rf_c3_det_context_conv1_relu_0_split_1
I0627 10:46:54.149871 33979 net.cpp:124] Setting up rf_c3_det_context_conv1_bn_rf_c3_det_context_conv1_relu_0_split
I0627 10:46:54.149878 33979 net.cpp:131] Top shape: 1 16 10 10 (1600)
I0627 10:46:54.149883 33979 net.cpp:131] Top shape: 1 16 10 10 (1600)
I0627 10:46:54.149888 33979 net.cpp:139] Memory required for data: 47155200
I0627 10:46:54.149893 33979 layer_factory.hpp:77] Creating layer plus0
I0627 10:46:54.149904 33979 net.cpp:86] Creating Layer plus0
I0627 10:46:54.149909 33979 net.cpp:408] plus0 <- rf_c2_lateral_bn_rf_c2_lateral_relu_0_split_1
I0627 10:46:54.149914 33979 net.cpp:408] plus0 <- crop0
I0627 10:46:54.149920 33979 net.cpp:382] plus0 -> plus0
I0627 10:46:54.149957 33979 net.cpp:124] Setting up plus0
I0627 10:46:54.149963 33979 net.cpp:131] Top shape: 1 64 20 20 (25600)
I0627 10:46:54.149969 33979 net.cpp:139] Memory required for data: 47257600
I0627 10:46:54.149973 33979 layer_factory.hpp:77] Creating layer rf_c3_det_context_conv2
I0627 10:46:54.149981 33979 net.cpp:86] Creating Layer rf_c3_det_context_conv2
I0627 10:46:54.149986 33979 net.cpp:408] rf_c3_det_context_conv2 <- rf_c3_det_context_conv1_bn_rf_c3_det_context_conv1_relu_0_split_0
I0627 10:46:54.149991 33979 net.cpp:382] rf_c3_det_context_conv2 -> rf_c3_det_context_conv2
I0627 10:46:54.150243 33979 net.cpp:124] Setting up rf_c3_det_context_conv2
I0627 10:46:54.150250 33979 net.cpp:131] Top shape: 1 16 10 10 (1600)
I0627 10:46:54.150256 33979 net.cpp:139] Memory required for data: 47264000
I0627 10:46:54.150264 33979 layer_factory.hpp:77] Creating layer rf_c3_det_context_conv3_1
I0627 10:46:54.150272 33979 net.cpp:86] Creating Layer rf_c3_det_context_conv3_1
I0627 10:46:54.150279 33979 net.cpp:408] rf_c3_det_context_conv3_1 <- rf_c3_det_context_conv1_bn_rf_c3_det_context_conv1_relu_0_split_1
I0627 10:46:54.150285 33979 net.cpp:382] rf_c3_det_context_conv3_1 -> rf_c3_det_context_conv3_1
I0627 10:46:54.150528 33979 net.cpp:124] Setting up rf_c3_det_context_conv3_1
I0627 10:46:54.150535 33979 net.cpp:131] Top shape: 1 16 10 10 (1600)
I0627 10:46:54.150542 33979 net.cpp:139] Memory required for data: 47270400
I0627 10:46:54.150547 33979 layer_factory.hpp:77] Creating layer rf_c2_aggr
I0627 10:46:54.150557 33979 net.cpp:86] Creating Layer rf_c2_aggr
I0627 10:46:54.150563 33979 net.cpp:408] rf_c2_aggr <- plus0
I0627 10:46:54.150568 33979 net.cpp:382] rf_c2_aggr -> rf_c2_aggr
I0627 10:46:54.150882 33979 net.cpp:124] Setting up rf_c2_aggr
I0627 10:46:54.150889 33979 net.cpp:131] Top shape: 1 64 20 20 (25600)
I0627 10:46:54.150894 33979 net.cpp:139] Memory required for data: 47372800
I0627 10:46:54.150902 33979 layer_factory.hpp:77] Creating layer rf_c3_det_context_conv2_bn
I0627 10:46:54.150912 33979 net.cpp:86] Creating Layer rf_c3_det_context_conv2_bn
I0627 10:46:54.150916 33979 net.cpp:408] rf_c3_det_context_conv2_bn <- rf_c3_det_context_conv2
I0627 10:46:54.150923 33979 net.cpp:382] rf_c3_det_context_conv2_bn -> rf_c3_det_context_conv2_bn
I0627 10:46:54.151144 33979 net.cpp:124] Setting up rf_c3_det_context_conv2_bn
I0627 10:46:54.151150 33979 net.cpp:131] Top shape: 1 16 10 10 (1600)
I0627 10:46:54.151167 33979 net.cpp:139] Memory required for data: 47379200
I0627 10:46:54.151176 33979 layer_factory.hpp:77] Creating layer rf_c3_det_context_conv2_bn_scale
I0627 10:46:54.151183 33979 net.cpp:86] Creating Layer rf_c3_det_context_conv2_bn_scale
I0627 10:46:54.151188 33979 net.cpp:408] rf_c3_det_context_conv2_bn_scale <- rf_c3_det_context_conv2_bn
I0627 10:46:54.151194 33979 net.cpp:369] rf_c3_det_context_conv2_bn_scale -> rf_c3_det_context_conv2_bn (in-place)
I0627 10:46:54.151239 33979 layer_factory.hpp:77] Creating layer rf_c3_det_context_conv2_bn_scale
I0627 10:46:54.151368 33979 net.cpp:124] Setting up rf_c3_det_context_conv2_bn_scale
I0627 10:46:54.151376 33979 net.cpp:131] Top shape: 1 16 10 10 (1600)
I0627 10:46:54.151381 33979 net.cpp:139] Memory required for data: 47385600
I0627 10:46:54.151387 33979 layer_factory.hpp:77] Creating layer rf_c3_det_context_conv3_1_bn
I0627 10:46:54.151396 33979 net.cpp:86] Creating Layer rf_c3_det_context_conv3_1_bn
I0627 10:46:54.151401 33979 net.cpp:408] rf_c3_det_context_conv3_1_bn <- rf_c3_det_context_conv3_1
I0627 10:46:54.151408 33979 net.cpp:382] rf_c3_det_context_conv3_1_bn -> rf_c3_det_context_conv3_1_bn
I0627 10:46:54.151621 33979 net.cpp:124] Setting up rf_c3_det_context_conv3_1_bn
I0627 10:46:54.151628 33979 net.cpp:131] Top shape: 1 16 10 10 (1600)
I0627 10:46:54.151633 33979 net.cpp:139] Memory required for data: 47392000
I0627 10:46:54.151641 33979 layer_factory.hpp:77] Creating layer rf_c3_det_context_conv3_1_bn_scale
I0627 10:46:54.151648 33979 net.cpp:86] Creating Layer rf_c3_det_context_conv3_1_bn_scale
I0627 10:46:54.151654 33979 net.cpp:408] rf_c3_det_context_conv3_1_bn_scale <- rf_c3_det_context_conv3_1_bn
I0627 10:46:54.151659 33979 net.cpp:369] rf_c3_det_context_conv3_1_bn_scale -> rf_c3_det_context_conv3_1_bn (in-place)
I0627 10:46:54.151700 33979 layer_factory.hpp:77] Creating layer rf_c3_det_context_conv3_1_bn_scale
I0627 10:46:54.151825 33979 net.cpp:124] Setting up rf_c3_det_context_conv3_1_bn_scale
I0627 10:46:54.151832 33979 net.cpp:131] Top shape: 1 16 10 10 (1600)
I0627 10:46:54.151837 33979 net.cpp:139] Memory required for data: 47398400
I0627 10:46:54.151844 33979 layer_factory.hpp:77] Creating layer rf_c2_aggr_bn
I0627 10:46:54.151854 33979 net.cpp:86] Creating Layer rf_c2_aggr_bn
I0627 10:46:54.151859 33979 net.cpp:408] rf_c2_aggr_bn <- rf_c2_aggr
I0627 10:46:54.151865 33979 net.cpp:382] rf_c2_aggr_bn -> rf_c2_aggr_bn
I0627 10:46:54.152093 33979 net.cpp:124] Setting up rf_c2_aggr_bn
I0627 10:46:54.152101 33979 net.cpp:131] Top shape: 1 64 20 20 (25600)
I0627 10:46:54.152107 33979 net.cpp:139] Memory required for data: 47500800
I0627 10:46:54.152114 33979 layer_factory.hpp:77] Creating layer rf_c2_aggr_bn_scale
I0627 10:46:54.152122 33979 net.cpp:86] Creating Layer rf_c2_aggr_bn_scale
I0627 10:46:54.152127 33979 net.cpp:408] rf_c2_aggr_bn_scale <- rf_c2_aggr_bn
I0627 10:46:54.152132 33979 net.cpp:369] rf_c2_aggr_bn_scale -> rf_c2_aggr_bn (in-place)
I0627 10:46:54.152173 33979 layer_factory.hpp:77] Creating layer rf_c2_aggr_bn_scale
I0627 10:46:54.152303 33979 net.cpp:124] Setting up rf_c2_aggr_bn_scale
I0627 10:46:54.152310 33979 net.cpp:131] Top shape: 1 64 20 20 (25600)
I0627 10:46:54.152315 33979 net.cpp:139] Memory required for data: 47603200
I0627 10:46:54.152323 33979 layer_factory.hpp:77] Creating layer rf_c3_det_context_conv3_1_relu
I0627 10:46:54.152329 33979 net.cpp:86] Creating Layer rf_c3_det_context_conv3_1_relu
I0627 10:46:54.152334 33979 net.cpp:408] rf_c3_det_context_conv3_1_relu <- rf_c3_det_context_conv3_1_bn
I0627 10:46:54.152343 33979 net.cpp:369] rf_c3_det_context_conv3_1_relu -> rf_c3_det_context_conv3_1_bn (in-place)
I0627 10:46:54.152349 33979 net.cpp:124] Setting up rf_c3_det_context_conv3_1_relu
I0627 10:46:54.152354 33979 net.cpp:131] Top shape: 1 16 10 10 (1600)
I0627 10:46:54.152359 33979 net.cpp:139] Memory required for data: 47609600
I0627 10:46:54.152362 33979 layer_factory.hpp:77] Creating layer rf_c2_aggr_relu
I0627 10:46:54.152367 33979 net.cpp:86] Creating Layer rf_c2_aggr_relu
I0627 10:46:54.152385 33979 net.cpp:408] rf_c2_aggr_relu <- rf_c2_aggr_bn
I0627 10:46:54.152392 33979 net.cpp:369] rf_c2_aggr_relu -> rf_c2_aggr_bn (in-place)
I0627 10:46:54.152397 33979 net.cpp:124] Setting up rf_c2_aggr_relu
I0627 10:46:54.152401 33979 net.cpp:131] Top shape: 1 64 20 20 (25600)
I0627 10:46:54.152406 33979 net.cpp:139] Memory required for data: 47712000
I0627 10:46:54.152411 33979 layer_factory.hpp:77] Creating layer rf_c2_aggr_bn_rf_c2_aggr_relu_0_split
I0627 10:46:54.152421 33979 net.cpp:86] Creating Layer rf_c2_aggr_bn_rf_c2_aggr_relu_0_split
I0627 10:46:54.152426 33979 net.cpp:408] rf_c2_aggr_bn_rf_c2_aggr_relu_0_split <- rf_c2_aggr_bn
I0627 10:46:54.152431 33979 net.cpp:382] rf_c2_aggr_bn_rf_c2_aggr_relu_0_split -> rf_c2_aggr_bn_rf_c2_aggr_relu_0_split_0
I0627 10:46:54.152438 33979 net.cpp:382] rf_c2_aggr_bn_rf_c2_aggr_relu_0_split -> rf_c2_aggr_bn_rf_c2_aggr_relu_0_split_1
I0627 10:46:54.152446 33979 net.cpp:382] rf_c2_aggr_bn_rf_c2_aggr_relu_0_split -> rf_c2_aggr_bn_rf_c2_aggr_relu_0_split_2
I0627 10:46:54.152498 33979 net.cpp:124] Setting up rf_c2_aggr_bn_rf_c2_aggr_relu_0_split
I0627 10:46:54.152504 33979 net.cpp:131] Top shape: 1 64 20 20 (25600)
I0627 10:46:54.152509 33979 net.cpp:131] Top shape: 1 64 20 20 (25600)
I0627 10:46:54.152514 33979 net.cpp:131] Top shape: 1 64 20 20 (25600)
I0627 10:46:54.152519 33979 net.cpp:139] Memory required for data: 48019200
I0627 10:46:54.152524 33979 layer_factory.hpp:77] Creating layer rf_c3_det_context_conv3_2
I0627 10:46:54.152534 33979 net.cpp:86] Creating Layer rf_c3_det_context_conv3_2
I0627 10:46:54.152539 33979 net.cpp:408] rf_c3_det_context_conv3_2 <- rf_c3_det_context_conv3_1_bn
I0627 10:46:54.152545 33979 net.cpp:382] rf_c3_det_context_conv3_2 -> rf_c3_det_context_conv3_2
I0627 10:46:54.152798 33979 net.cpp:124] Setting up rf_c3_det_context_conv3_2
I0627 10:46:54.152806 33979 net.cpp:131] Top shape: 1 16 10 10 (1600)
I0627 10:46:54.152812 33979 net.cpp:139] Memory required for data: 48025600
I0627 10:46:54.152818 33979 layer_factory.hpp:77] Creating layer rf_c2_det_conv1
I0627 10:46:54.152828 33979 net.cpp:86] Creating Layer rf_c2_det_conv1
I0627 10:46:54.152833 33979 net.cpp:408] rf_c2_det_conv1 <- rf_c2_aggr_bn_rf_c2_aggr_relu_0_split_0
I0627 10:46:54.152839 33979 net.cpp:382] rf_c2_det_conv1 -> rf_c2_det_conv1
I0627 10:46:54.153115 33979 net.cpp:124] Setting up rf_c2_det_conv1
I0627 10:46:54.153122 33979 net.cpp:131] Top shape: 1 32 20 20 (12800)
I0627 10:46:54.153128 33979 net.cpp:139] Memory required for data: 48076800
I0627 10:46:54.153136 33979 layer_factory.hpp:77] Creating layer rf_c2_det_context_conv1
I0627 10:46:54.153144 33979 net.cpp:86] Creating Layer rf_c2_det_context_conv1
I0627 10:46:54.153149 33979 net.cpp:408] rf_c2_det_context_conv1 <- rf_c2_aggr_bn_rf_c2_aggr_relu_0_split_1
I0627 10:46:54.153158 33979 net.cpp:382] rf_c2_det_context_conv1 -> rf_c2_det_context_conv1
I0627 10:46:54.153431 33979 net.cpp:124] Setting up rf_c2_det_context_conv1
I0627 10:46:54.153439 33979 net.cpp:131] Top shape: 1 16 20 20 (6400)
I0627 10:46:54.153443 33979 net.cpp:139] Memory required for data: 48102400
I0627 10:46:54.153450 33979 layer_factory.hpp:77] Creating layer rf_c2_upsampling_
I0627 10:46:54.153461 33979 net.cpp:86] Creating Layer rf_c2_upsampling_
I0627 10:46:54.153466 33979 net.cpp:408] rf_c2_upsampling_ <- rf_c2_aggr_bn_rf_c2_aggr_relu_0_split_2
I0627 10:46:54.153473 33979 net.cpp:382] rf_c2_upsampling_ -> rf_c2_upsampling
I0627 10:46:54.153669 33979 net.cpp:124] Setting up rf_c2_upsampling_
I0627 10:46:54.153676 33979 net.cpp:131] Top shape: 1 64 40 40 (102400)
I0627 10:46:54.153682 33979 net.cpp:139] Memory required for data: 48512000
I0627 10:46:54.153687 33979 layer_factory.hpp:77] Creating layer rf_c3_det_context_conv3_2_bn
I0627 10:46:54.153697 33979 net.cpp:86] Creating Layer rf_c3_det_context_conv3_2_bn
I0627 10:46:54.153702 33979 net.cpp:408] rf_c3_det_context_conv3_2_bn <- rf_c3_det_context_conv3_2
I0627 10:46:54.153708 33979 net.cpp:382] rf_c3_det_context_conv3_2_bn -> rf_c3_det_context_conv3_2_bn
I0627 10:46:54.153945 33979 net.cpp:124] Setting up rf_c3_det_context_conv3_2_bn
I0627 10:46:54.153954 33979 net.cpp:131] Top shape: 1 16 10 10 (1600)
I0627 10:46:54.153959 33979 net.cpp:139] Memory required for data: 48518400
I0627 10:46:54.153966 33979 layer_factory.hpp:77] Creating layer rf_c3_det_context_conv3_2_bn_scale
I0627 10:46:54.153975 33979 net.cpp:86] Creating Layer rf_c3_det_context_conv3_2_bn_scale
I0627 10:46:54.153980 33979 net.cpp:408] rf_c3_det_context_conv3_2_bn_scale <- rf_c3_det_context_conv3_2_bn
I0627 10:46:54.153988 33979 net.cpp:369] rf_c3_det_context_conv3_2_bn_scale -> rf_c3_det_context_conv3_2_bn (in-place)
I0627 10:46:54.154029 33979 layer_factory.hpp:77] Creating layer rf_c3_det_context_conv3_2_bn_scale
I0627 10:46:54.154160 33979 net.cpp:124] Setting up rf_c3_det_context_conv3_2_bn_scale
I0627 10:46:54.154166 33979 net.cpp:131] Top shape: 1 16 10 10 (1600)
I0627 10:46:54.154171 33979 net.cpp:139] Memory required for data: 48524800
I0627 10:46:54.154177 33979 layer_factory.hpp:77] Creating layer rf_c2_det_conv1_bn
I0627 10:46:54.154187 33979 net.cpp:86] Creating Layer rf_c2_det_conv1_bn
I0627 10:46:54.154192 33979 net.cpp:408] rf_c2_det_conv1_bn <- rf_c2_det_conv1
I0627 10:46:54.154203 33979 net.cpp:382] rf_c2_det_conv1_bn -> rf_c2_det_conv1_bn
I0627 10:46:54.154422 33979 net.cpp:124] Setting up rf_c2_det_conv1_bn
I0627 10:46:54.154430 33979 net.cpp:131] Top shape: 1 32 20 20 (12800)
I0627 10:46:54.154435 33979 net.cpp:139] Memory required for data: 48576000
I0627 10:46:54.154443 33979 layer_factory.hpp:77] Creating layer rf_c2_det_conv1_bn_scale
I0627 10:46:54.154450 33979 net.cpp:86] Creating Layer rf_c2_det_conv1_bn_scale
I0627 10:46:54.154455 33979 net.cpp:408] rf_c2_det_conv1_bn_scale <- rf_c2_det_conv1_bn
I0627 10:46:54.154464 33979 net.cpp:369] rf_c2_det_conv1_bn_scale -> rf_c2_det_conv1_bn (in-place)
I0627 10:46:54.154523 33979 layer_factory.hpp:77] Creating layer rf_c2_det_conv1_bn_scale
I0627 10:46:54.154650 33979 net.cpp:124] Setting up rf_c2_det_conv1_bn_scale
I0627 10:46:54.154657 33979 net.cpp:131] Top shape: 1 32 20 20 (12800)
I0627 10:46:54.154662 33979 net.cpp:139] Memory required for data: 48627200
I0627 10:46:54.154669 33979 layer_factory.hpp:77] Creating layer rf_c2_det_context_conv1_bn
I0627 10:46:54.154677 33979 net.cpp:86] Creating Layer rf_c2_det_context_conv1_bn
I0627 10:46:54.154682 33979 net.cpp:408] rf_c2_det_context_conv1_bn <- rf_c2_det_context_conv1
I0627 10:46:54.154708 33979 net.cpp:382] rf_c2_det_context_conv1_bn -> rf_c2_det_context_conv1_bn
I0627 10:46:54.154920 33979 net.cpp:124] Setting up rf_c2_det_context_conv1_bn
I0627 10:46:54.154927 33979 net.cpp:131] Top shape: 1 16 20 20 (6400)
I0627 10:46:54.154932 33979 net.cpp:139] Memory required for data: 48652800
I0627 10:46:54.154939 33979 layer_factory.hpp:77] Creating layer rf_c2_det_context_conv1_bn_scale
I0627 10:46:54.154949 33979 net.cpp:86] Creating Layer rf_c2_det_context_conv1_bn_scale
I0627 10:46:54.154954 33979 net.cpp:408] rf_c2_det_context_conv1_bn_scale <- rf_c2_det_context_conv1_bn
I0627 10:46:54.154959 33979 net.cpp:369] rf_c2_det_context_conv1_bn_scale -> rf_c2_det_context_conv1_bn (in-place)
I0627 10:46:54.154999 33979 layer_factory.hpp:77] Creating layer rf_c2_det_context_conv1_bn_scale
I0627 10:46:54.155125 33979 net.cpp:124] Setting up rf_c2_det_context_conv1_bn_scale
I0627 10:46:54.155133 33979 net.cpp:131] Top shape: 1 16 20 20 (6400)
I0627 10:46:54.155138 33979 net.cpp:139] Memory required for data: 48678400
I0627 10:46:54.155144 33979 layer_factory.hpp:77] Creating layer crop1
I0627 10:46:54.155154 33979 net.cpp:86] Creating Layer crop1
I0627 10:46:54.155159 33979 net.cpp:408] crop1 <- rf_c2_upsampling
I0627 10:46:54.155164 33979 net.cpp:408] crop1 <- rf_c1_red_conv_bn_rf_c1_red_conv_relu_0_split_0
I0627 10:46:54.155171 33979 net.cpp:382] crop1 -> crop1
I0627 10:46:54.155267 33979 net.cpp:124] Setting up crop1
I0627 10:46:54.155273 33979 net.cpp:131] Top shape: 1 64 40 40 (102400)
I0627 10:46:54.155278 33979 net.cpp:139] Memory required for data: 49088000
I0627 10:46:54.155297 33979 layer_factory.hpp:77] Creating layer rf_c3_det_concat
I0627 10:46:54.155306 33979 net.cpp:86] Creating Layer rf_c3_det_concat
I0627 10:46:54.155311 33979 net.cpp:408] rf_c3_det_concat <- rf_c3_det_conv1_bn
I0627 10:46:54.155316 33979 net.cpp:408] rf_c3_det_concat <- rf_c3_det_context_conv2_bn
I0627 10:46:54.155321 33979 net.cpp:408] rf_c3_det_concat <- rf_c3_det_context_conv3_2_bn
I0627 10:46:54.155328 33979 net.cpp:382] rf_c3_det_concat -> rf_c3_det_concat
I0627 10:46:54.155359 33979 net.cpp:124] Setting up rf_c3_det_concat
I0627 10:46:54.155366 33979 net.cpp:131] Top shape: 1 64 10 10 (6400)
I0627 10:46:54.155371 33979 net.cpp:139] Memory required for data: 49113600
I0627 10:46:54.155376 33979 layer_factory.hpp:77] Creating layer rf_c2_det_context_conv1_relu
I0627 10:46:54.155383 33979 net.cpp:86] Creating Layer rf_c2_det_context_conv1_relu
I0627 10:46:54.155387 33979 net.cpp:408] rf_c2_det_context_conv1_relu <- rf_c2_det_context_conv1_bn
I0627 10:46:54.155396 33979 net.cpp:369] rf_c2_det_context_conv1_relu -> rf_c2_det_context_conv1_bn (in-place)
I0627 10:46:54.155402 33979 net.cpp:124] Setting up rf_c2_det_context_conv1_relu
I0627 10:46:54.155406 33979 net.cpp:131] Top shape: 1 16 20 20 (6400)
I0627 10:46:54.155411 33979 net.cpp:139] Memory required for data: 49139200
I0627 10:46:54.155416 33979 layer_factory.hpp:77] Creating layer rf_c2_det_context_conv1_bn_rf_c2_det_context_conv1_relu_0_split
I0627 10:46:54.155422 33979 net.cpp:86] Creating Layer rf_c2_det_context_conv1_bn_rf_c2_det_context_conv1_relu_0_split
I0627 10:46:54.155426 33979 net.cpp:408] rf_c2_det_context_conv1_bn_rf_c2_det_context_conv1_relu_0_split <- rf_c2_det_context_conv1_bn
I0627 10:46:54.155432 33979 net.cpp:382] rf_c2_det_context_conv1_bn_rf_c2_det_context_conv1_relu_0_split -> rf_c2_det_context_conv1_bn_rf_c2_det_context_conv1_relu_0_split_0
I0627 10:46:54.155442 33979 net.cpp:382] rf_c2_det_context_conv1_bn_rf_c2_det_context_conv1_relu_0_split -> rf_c2_det_context_conv1_bn_rf_c2_det_context_conv1_relu_0_split_1
I0627 10:46:54.155481 33979 net.cpp:124] Setting up rf_c2_det_context_conv1_bn_rf_c2_det_context_conv1_relu_0_split
I0627 10:46:54.155488 33979 net.cpp:131] Top shape: 1 16 20 20 (6400)
I0627 10:46:54.155493 33979 net.cpp:131] Top shape: 1 16 20 20 (6400)
I0627 10:46:54.155498 33979 net.cpp:139] Memory required for data: 49190400
I0627 10:46:54.155503 33979 layer_factory.hpp:77] Creating layer plus1
I0627 10:46:54.155515 33979 net.cpp:86] Creating Layer plus1
I0627 10:46:54.155520 33979 net.cpp:408] plus1 <- rf_c1_red_conv_bn_rf_c1_red_conv_relu_0_split_1
I0627 10:46:54.155525 33979 net.cpp:408] plus1 <- crop1
I0627 10:46:54.155531 33979 net.cpp:382] plus1 -> plus1
I0627 10:46:54.155552 33979 net.cpp:124] Setting up plus1
I0627 10:46:54.155558 33979 net.cpp:131] Top shape: 1 64 40 40 (102400)
I0627 10:46:54.155565 33979 net.cpp:139] Memory required for data: 49600000
I0627 10:46:54.155568 33979 layer_factory.hpp:77] Creating layer rf_c3_det_concat_relu
I0627 10:46:54.155575 33979 net.cpp:86] Creating Layer rf_c3_det_concat_relu
I0627 10:46:54.155580 33979 net.cpp:408] rf_c3_det_concat_relu <- rf_c3_det_concat
I0627 10:46:54.155586 33979 net.cpp:369] rf_c3_det_concat_relu -> rf_c3_det_concat (in-place)
I0627 10:46:54.155591 33979 net.cpp:124] Setting up rf_c3_det_concat_relu
I0627 10:46:54.155594 33979 net.cpp:131] Top shape: 1 64 10 10 (6400)
I0627 10:46:54.155599 33979 net.cpp:139] Memory required for data: 49625600
I0627 10:46:54.155603 33979 layer_factory.hpp:77] Creating layer rf_c3_det_concat_rf_c3_det_concat_relu_0_split
I0627 10:46:54.155611 33979 net.cpp:86] Creating Layer rf_c3_det_concat_rf_c3_det_concat_relu_0_split
I0627 10:46:54.155614 33979 net.cpp:408] rf_c3_det_concat_rf_c3_det_concat_relu_0_split <- rf_c3_det_concat
I0627 10:46:54.155620 33979 net.cpp:382] rf_c3_det_concat_rf_c3_det_concat_relu_0_split -> rf_c3_det_concat_rf_c3_det_concat_relu_0_split_0
I0627 10:46:54.155627 33979 net.cpp:382] rf_c3_det_concat_rf_c3_det_concat_relu_0_split -> rf_c3_det_concat_rf_c3_det_concat_relu_0_split_1
I0627 10:46:54.155633 33979 net.cpp:382] rf_c3_det_concat_rf_c3_det_concat_relu_0_split -> rf_c3_det_concat_rf_c3_det_concat_relu_0_split_2
I0627 10:46:54.155694 33979 net.cpp:124] Setting up rf_c3_det_concat_rf_c3_det_concat_relu_0_split
I0627 10:46:54.155700 33979 net.cpp:131] Top shape: 1 64 10 10 (6400)
I0627 10:46:54.155706 33979 net.cpp:131] Top shape: 1 64 10 10 (6400)
I0627 10:46:54.155711 33979 net.cpp:131] Top shape: 1 64 10 10 (6400)
I0627 10:46:54.155715 33979 net.cpp:139] Memory required for data: 49702400
I0627 10:46:54.155720 33979 layer_factory.hpp:77] Creating layer rf_c2_det_context_conv2
I0627 10:46:54.155730 33979 net.cpp:86] Creating Layer rf_c2_det_context_conv2
I0627 10:46:54.155735 33979 net.cpp:408] rf_c2_det_context_conv2 <- rf_c2_det_context_conv1_bn_rf_c2_det_context_conv1_relu_0_split_0
I0627 10:46:54.155742 33979 net.cpp:382] rf_c2_det_context_conv2 -> rf_c2_det_context_conv2
I0627 10:46:54.156016 33979 net.cpp:124] Setting up rf_c2_det_context_conv2
I0627 10:46:54.156024 33979 net.cpp:131] Top shape: 1 16 20 20 (6400)
I0627 10:46:54.156030 33979 net.cpp:139] Memory required for data: 49728000
I0627 10:46:54.156038 33979 layer_factory.hpp:77] Creating layer rf_c2_det_context_conv3_1
I0627 10:46:54.156047 33979 net.cpp:86] Creating Layer rf_c2_det_context_conv3_1
I0627 10:46:54.156052 33979 net.cpp:408] rf_c2_det_context_conv3_1 <- rf_c2_det_context_conv1_bn_rf_c2_det_context_conv1_relu_0_split_1
I0627 10:46:54.156059 33979 net.cpp:382] rf_c2_det_context_conv3_1 -> rf_c2_det_context_conv3_1
I0627 10:46:54.156317 33979 net.cpp:124] Setting up rf_c2_det_context_conv3_1
I0627 10:46:54.156324 33979 net.cpp:131] Top shape: 1 16 20 20 (6400)
I0627 10:46:54.156330 33979 net.cpp:139] Memory required for data: 49753600
I0627 10:46:54.156352 33979 layer_factory.hpp:77] Creating layer rf_c1_aggr
I0627 10:46:54.156374 33979 net.cpp:86] Creating Layer rf_c1_aggr
I0627 10:46:54.156380 33979 net.cpp:408] rf_c1_aggr <- plus1
I0627 10:46:54.156386 33979 net.cpp:382] rf_c1_aggr -> rf_c1_aggr
I0627 10:46:54.156710 33979 net.cpp:124] Setting up rf_c1_aggr
I0627 10:46:54.156718 33979 net.cpp:131] Top shape: 1 64 40 40 (102400)
I0627 10:46:54.156738 33979 net.cpp:139] Memory required for data: 50163200
I0627 10:46:54.156744 33979 layer_factory.hpp:77] Creating layer face_rpn_cls_score_stride32
I0627 10:46:54.156754 33979 net.cpp:86] Creating Layer face_rpn_cls_score_stride32
I0627 10:46:54.156759 33979 net.cpp:408] face_rpn_cls_score_stride32 <- rf_c3_det_concat_rf_c3_det_concat_relu_0_split_0
I0627 10:46:54.156764 33979 net.cpp:382] face_rpn_cls_score_stride32 -> face_rpn_cls_score_stride32
I0627 10:46:54.157002 33979 net.cpp:124] Setting up face_rpn_cls_score_stride32
I0627 10:46:54.157009 33979 net.cpp:131] Top shape: 1 4 10 10 (400)
I0627 10:46:54.157016 33979 net.cpp:139] Memory required for data: 50164800
I0627 10:46:54.157021 33979 layer_factory.hpp:77] Creating layer face_rpn_bbox_pred_stride32
I0627 10:46:54.157033 33979 net.cpp:86] Creating Layer face_rpn_bbox_pred_stride32
I0627 10:46:54.157038 33979 net.cpp:408] face_rpn_bbox_pred_stride32 <- rf_c3_det_concat_rf_c3_det_concat_relu_0_split_1
I0627 10:46:54.157047 33979 net.cpp:382] face_rpn_bbox_pred_stride32 -> face_rpn_bbox_pred_stride32
I0627 10:46:54.157307 33979 net.cpp:124] Setting up face_rpn_bbox_pred_stride32
I0627 10:46:54.157315 33979 net.cpp:131] Top shape: 1 8 10 10 (800)
I0627 10:46:54.157320 33979 net.cpp:139] Memory required for data: 50168000
I0627 10:46:54.157325 33979 layer_factory.hpp:77] Creating layer face_rpn_landmark_pred_stride32
I0627 10:46:54.157335 33979 net.cpp:86] Creating Layer face_rpn_landmark_pred_stride32
I0627 10:46:54.157341 33979 net.cpp:408] face_rpn_landmark_pred_stride32 <- rf_c3_det_concat_rf_c3_det_concat_relu_0_split_2
I0627 10:46:54.157349 33979 net.cpp:382] face_rpn_landmark_pred_stride32 -> face_rpn_landmark_pred_stride32
I0627 10:46:54.157605 33979 net.cpp:124] Setting up face_rpn_landmark_pred_stride32
I0627 10:46:54.157613 33979 net.cpp:131] Top shape: 1 20 10 10 (2000)
I0627 10:46:54.157618 33979 net.cpp:139] Memory required for data: 50176000
I0627 10:46:54.157637 33979 layer_factory.hpp:77] Creating layer rf_c2_det_context_conv2_bn
I0627 10:46:54.157649 33979 net.cpp:86] Creating Layer rf_c2_det_context_conv2_bn
I0627 10:46:54.157655 33979 net.cpp:408] rf_c2_det_context_conv2_bn <- rf_c2_det_context_conv2
I0627 10:46:54.157660 33979 net.cpp:382] rf_c2_det_context_conv2_bn -> rf_c2_det_context_conv2_bn
I0627 10:46:54.157881 33979 net.cpp:124] Setting up rf_c2_det_context_conv2_bn
I0627 10:46:54.157887 33979 net.cpp:131] Top shape: 1 16 20 20 (6400)
I0627 10:46:54.157893 33979 net.cpp:139] Memory required for data: 50201600
I0627 10:46:54.157902 33979 layer_factory.hpp:77] Creating layer rf_c2_det_context_conv2_bn_scale
I0627 10:46:54.157910 33979 net.cpp:86] Creating Layer rf_c2_det_context_conv2_bn_scale
I0627 10:46:54.157915 33979 net.cpp:408] rf_c2_det_context_conv2_bn_scale <- rf_c2_det_context_conv2_bn
I0627 10:46:54.157922 33979 net.cpp:369] rf_c2_det_context_conv2_bn_scale -> rf_c2_det_context_conv2_bn (in-place)
I0627 10:46:54.157963 33979 layer_factory.hpp:77] Creating layer rf_c2_det_context_conv2_bn_scale
I0627 10:46:54.158102 33979 net.cpp:124] Setting up rf_c2_det_context_conv2_bn_scale
I0627 10:46:54.158108 33979 net.cpp:131] Top shape: 1 16 20 20 (6400)
I0627 10:46:54.158114 33979 net.cpp:139] Memory required for data: 50227200
I0627 10:46:54.158138 33979 layer_factory.hpp:77] Creating layer rf_c2_det_context_conv3_1_bn
I0627 10:46:54.158149 33979 net.cpp:86] Creating Layer rf_c2_det_context_conv3_1_bn
I0627 10:46:54.158154 33979 net.cpp:408] rf_c2_det_context_conv3_1_bn <- rf_c2_det_context_conv3_1
I0627 10:46:54.158160 33979 net.cpp:382] rf_c2_det_context_conv3_1_bn -> rf_c2_det_context_conv3_1_bn
I0627 10:46:54.158385 33979 net.cpp:124] Setting up rf_c2_det_context_conv3_1_bn
I0627 10:46:54.158391 33979 net.cpp:131] Top shape: 1 16 20 20 (6400)
I0627 10:46:54.158396 33979 net.cpp:139] Memory required for data: 50252800
I0627 10:46:54.158404 33979 layer_factory.hpp:77] Creating layer rf_c2_det_context_conv3_1_bn_scale
I0627 10:46:54.158413 33979 net.cpp:86] Creating Layer rf_c2_det_context_conv3_1_bn_scale
I0627 10:46:54.158418 33979 net.cpp:408] rf_c2_det_context_conv3_1_bn_scale <- rf_c2_det_context_conv3_1_bn
I0627 10:46:54.158428 33979 net.cpp:369] rf_c2_det_context_conv3_1_bn_scale -> rf_c2_det_context_conv3_1_bn (in-place)
I0627 10:46:54.158468 33979 layer_factory.hpp:77] Creating layer rf_c2_det_context_conv3_1_bn_scale
I0627 10:46:54.158598 33979 net.cpp:124] Setting up rf_c2_det_context_conv3_1_bn_scale
I0627 10:46:54.158605 33979 net.cpp:131] Top shape: 1 16 20 20 (6400)
I0627 10:46:54.158612 33979 net.cpp:139] Memory required for data: 50278400
I0627 10:46:54.158617 33979 layer_factory.hpp:77] Creating layer rf_c1_aggr_bn
I0627 10:46:54.158627 33979 net.cpp:86] Creating Layer rf_c1_aggr_bn
I0627 10:46:54.158632 33979 net.cpp:408] rf_c1_aggr_bn <- rf_c1_aggr
I0627 10:46:54.158638 33979 net.cpp:382] rf_c1_aggr_bn -> rf_c1_aggr_bn
I0627 10:46:54.158848 33979 net.cpp:124] Setting up rf_c1_aggr_bn
I0627 10:46:54.158854 33979 net.cpp:131] Top shape: 1 64 40 40 (102400)
I0627 10:46:54.158859 33979 net.cpp:139] Memory required for data: 50688000
I0627 10:46:54.158866 33979 layer_factory.hpp:77] Creating layer rf_c1_aggr_bn_scale
I0627 10:46:54.158876 33979 net.cpp:86] Creating Layer rf_c1_aggr_bn_scale
I0627 10:46:54.158881 33979 net.cpp:408] rf_c1_aggr_bn_scale <- rf_c1_aggr_bn
I0627 10:46:54.158887 33979 net.cpp:369] rf_c1_aggr_bn_scale -> rf_c1_aggr_bn (in-place)
I0627 10:46:54.158931 33979 layer_factory.hpp:77] Creating layer rf_c1_aggr_bn_scale
I0627 10:46:54.159063 33979 net.cpp:124] Setting up rf_c1_aggr_bn_scale
I0627 10:46:54.159070 33979 net.cpp:131] Top shape: 1 64 40 40 (102400)
I0627 10:46:54.159075 33979 net.cpp:139] Memory required for data: 51097600
I0627 10:46:54.159081 33979 layer_factory.hpp:77] Creating layer face_rpn_cls_score_reshape_stride32
I0627 10:46:54.159094 33979 net.cpp:86] Creating Layer face_rpn_cls_score_reshape_stride32
I0627 10:46:54.159099 33979 net.cpp:408] face_rpn_cls_score_reshape_stride32 <- face_rpn_cls_score_stride32
I0627 10:46:54.159117 33979 net.cpp:382] face_rpn_cls_score_reshape_stride32 -> face_rpn_cls_score_reshape_stride32
I0627 10:46:54.159153 33979 net.cpp:124] Setting up face_rpn_cls_score_reshape_stride32
I0627 10:46:54.159159 33979 net.cpp:131] Top shape: 1 2 20 10 (400)
I0627 10:46:54.159165 33979 net.cpp:139] Memory required for data: 51099200
I0627 10:46:54.159169 33979 layer_factory.hpp:77] Creating layer rf_c2_det_context_conv3_1_relu
I0627 10:46:54.159178 33979 net.cpp:86] Creating Layer rf_c2_det_context_conv3_1_relu
I0627 10:46:54.159183 33979 net.cpp:408] rf_c2_det_context_conv3_1_relu <- rf_c2_det_context_conv3_1_bn
I0627 10:46:54.159189 33979 net.cpp:369] rf_c2_det_context_conv3_1_relu -> rf_c2_det_context_conv3_1_bn (in-place)
I0627 10:46:54.159195 33979 net.cpp:124] Setting up rf_c2_det_context_conv3_1_relu
I0627 10:46:54.159199 33979 net.cpp:131] Top shape: 1 16 20 20 (6400)
I0627 10:46:54.159204 33979 net.cpp:139] Memory required for data: 51124800
I0627 10:46:54.159209 33979 layer_factory.hpp:77] Creating layer rf_c1_aggr_relu
I0627 10:46:54.159214 33979 net.cpp:86] Creating Layer rf_c1_aggr_relu
I0627 10:46:54.159220 33979 net.cpp:408] rf_c1_aggr_relu <- rf_c1_aggr_bn
I0627 10:46:54.159225 33979 net.cpp:369] rf_c1_aggr_relu -> rf_c1_aggr_bn (in-place)
I0627 10:46:54.159231 33979 net.cpp:124] Setting up rf_c1_aggr_relu
I0627 10:46:54.159235 33979 net.cpp:131] Top shape: 1 64 40 40 (102400)
I0627 10:46:54.159240 33979 net.cpp:139] Memory required for data: 51534400
I0627 10:46:54.159245 33979 layer_factory.hpp:77] Creating layer rf_c1_aggr_bn_rf_c1_aggr_relu_0_split
I0627 10:46:54.159250 33979 net.cpp:86] Creating Layer rf_c1_aggr_bn_rf_c1_aggr_relu_0_split
I0627 10:46:54.159255 33979 net.cpp:408] rf_c1_aggr_bn_rf_c1_aggr_relu_0_split <- rf_c1_aggr_bn
I0627 10:46:54.159260 33979 net.cpp:382] rf_c1_aggr_bn_rf_c1_aggr_relu_0_split -> rf_c1_aggr_bn_rf_c1_aggr_relu_0_split_0
I0627 10:46:54.159267 33979 net.cpp:382] rf_c1_aggr_bn_rf_c1_aggr_relu_0_split -> rf_c1_aggr_bn_rf_c1_aggr_relu_0_split_1
I0627 10:46:54.159304 33979 net.cpp:124] Setting up rf_c1_aggr_bn_rf_c1_aggr_relu_0_split
I0627 10:46:54.159310 33979 net.cpp:131] Top shape: 1 64 40 40 (102400)
I0627 10:46:54.159315 33979 net.cpp:131] Top shape: 1 64 40 40 (102400)
I0627 10:46:54.159320 33979 net.cpp:139] Memory required for data: 52353600
I0627 10:46:54.159325 33979 layer_factory.hpp:77] Creating layer face_rpn_cls_prob_stride32
I0627 10:46:54.159333 33979 net.cpp:86] Creating Layer face_rpn_cls_prob_stride32
I0627 10:46:54.159338 33979 net.cpp:408] face_rpn_cls_prob_stride32 <- face_rpn_cls_score_reshape_stride32
I0627 10:46:54.159346 33979 net.cpp:382] face_rpn_cls_prob_stride32 -> face_rpn_cls_prob_stride32
I0627 10:46:54.159415 33979 net.cpp:124] Setting up face_rpn_cls_prob_stride32
I0627 10:46:54.159422 33979 net.cpp:131] Top shape: 1 2 20 10 (400)
I0627 10:46:54.159427 33979 net.cpp:139] Memory required for data: 52355200
I0627 10:46:54.159431 33979 layer_factory.hpp:77] Creating layer rf_c2_det_context_conv3_2
I0627 10:46:54.159452 33979 net.cpp:86] Creating Layer rf_c2_det_context_conv3_2
I0627 10:46:54.159459 33979 net.cpp:408] rf_c2_det_context_conv3_2 <- rf_c2_det_context_conv3_1_bn
I0627 10:46:54.159476 33979 net.cpp:382] rf_c2_det_context_conv3_2 -> rf_c2_det_context_conv3_2
I0627 10:46:54.159737 33979 net.cpp:124] Setting up rf_c2_det_context_conv3_2
I0627 10:46:54.159744 33979 net.cpp:131] Top shape: 1 16 20 20 (6400)
I0627 10:46:54.159750 33979 net.cpp:139] Memory required for data: 52380800
I0627 10:46:54.159756 33979 layer_factory.hpp:77] Creating layer rf_c1_det_conv1
I0627 10:46:54.159765 33979 net.cpp:86] Creating Layer rf_c1_det_conv1
I0627 10:46:54.159770 33979 net.cpp:408] rf_c1_det_conv1 <- rf_c1_aggr_bn_rf_c1_aggr_relu_0_split_0
I0627 10:46:54.159776 33979 net.cpp:382] rf_c1_det_conv1 -> rf_c1_det_conv1
I0627 10:46:54.160086 33979 net.cpp:124] Setting up rf_c1_det_conv1
I0627 10:46:54.160095 33979 net.cpp:131] Top shape: 1 32 40 40 (51200)
I0627 10:46:54.160100 33979 net.cpp:139] Memory required for data: 52585600
I0627 10:46:54.160120 33979 layer_factory.hpp:77] Creating layer rf_c1_det_context_conv1
I0627 10:46:54.160128 33979 net.cpp:86] Creating Layer rf_c1_det_context_conv1
I0627 10:46:54.160133 33979 net.cpp:408] rf_c1_det_context_conv1 <- rf_c1_aggr_bn_rf_c1_aggr_relu_0_split_1
I0627 10:46:54.160142 33979 net.cpp:382] rf_c1_det_context_conv1 -> rf_c1_det_context_conv1
I0627 10:46:54.160480 33979 net.cpp:124] Setting up rf_c1_det_context_conv1
I0627 10:46:54.160496 33979 net.cpp:131] Top shape: 1 16 40 40 (25600)
I0627 10:46:54.160503 33979 net.cpp:139] Memory required for data: 52688000
I0627 10:46:54.160509 33979 layer_factory.hpp:77] Creating layer face_rpn_cls_prob_reshape_stride32
I0627 10:46:54.160519 33979 net.cpp:86] Creating Layer face_rpn_cls_prob_reshape_stride32
I0627 10:46:54.160524 33979 net.cpp:408] face_rpn_cls_prob_reshape_stride32 <- face_rpn_cls_prob_stride32
I0627 10:46:54.160533 33979 net.cpp:382] face_rpn_cls_prob_reshape_stride32 -> face_rpn_cls_prob_reshape_stride32
I0627 10:46:54.160562 33979 net.cpp:124] Setting up face_rpn_cls_prob_reshape_stride32
I0627 10:46:54.160567 33979 net.cpp:131] Top shape: 1 4 10 10 (400)
I0627 10:46:54.160573 33979 net.cpp:139] Memory required for data: 52689600
I0627 10:46:54.160580 33979 layer_factory.hpp:77] Creating layer rf_c2_det_context_conv3_2_bn
I0627 10:46:54.160589 33979 net.cpp:86] Creating Layer rf_c2_det_context_conv3_2_bn
I0627 10:46:54.160593 33979 net.cpp:408] rf_c2_det_context_conv3_2_bn <- rf_c2_det_context_conv3_2
I0627 10:46:54.160603 33979 net.cpp:382] rf_c2_det_context_conv3_2_bn -> rf_c2_det_context_conv3_2_bn
I0627 10:46:54.160833 33979 net.cpp:124] Setting up rf_c2_det_context_conv3_2_bn
I0627 10:46:54.160841 33979 net.cpp:131] Top shape: 1 16 20 20 (6400)
I0627 10:46:54.160846 33979 net.cpp:139] Memory required for data: 52715200
I0627 10:46:54.160854 33979 layer_factory.hpp:77] Creating layer rf_c2_det_context_conv3_2_bn_scale
I0627 10:46:54.160861 33979 net.cpp:86] Creating Layer rf_c2_det_context_conv3_2_bn_scale
I0627 10:46:54.160866 33979 net.cpp:408] rf_c2_det_context_conv3_2_bn_scale <- rf_c2_det_context_conv3_2_bn
I0627 10:46:54.160872 33979 net.cpp:369] rf_c2_det_context_conv3_2_bn_scale -> rf_c2_det_context_conv3_2_bn (in-place)
I0627 10:46:54.160913 33979 layer_factory.hpp:77] Creating layer rf_c2_det_context_conv3_2_bn_scale
I0627 10:46:54.161054 33979 net.cpp:124] Setting up rf_c2_det_context_conv3_2_bn_scale
I0627 10:46:54.161061 33979 net.cpp:131] Top shape: 1 16 20 20 (6400)
I0627 10:46:54.161067 33979 net.cpp:139] Memory required for data: 52740800
I0627 10:46:54.161072 33979 layer_factory.hpp:77] Creating layer rf_c1_det_conv1_bn
I0627 10:46:54.161080 33979 net.cpp:86] Creating Layer rf_c1_det_conv1_bn
I0627 10:46:54.161085 33979 net.cpp:408] rf_c1_det_conv1_bn <- rf_c1_det_conv1
I0627 10:46:54.161093 33979 net.cpp:382] rf_c1_det_conv1_bn -> rf_c1_det_conv1_bn
I0627 10:46:54.161329 33979 net.cpp:124] Setting up rf_c1_det_conv1_bn
I0627 10:46:54.161335 33979 net.cpp:131] Top shape: 1 32 40 40 (51200)
I0627 10:46:54.161341 33979 net.cpp:139] Memory required for data: 52945600
I0627 10:46:54.161348 33979 layer_factory.hpp:77] Creating layer rf_c1_det_conv1_bn_scale
I0627 10:46:54.161355 33979 net.cpp:86] Creating Layer rf_c1_det_conv1_bn_scale
I0627 10:46:54.161360 33979 net.cpp:408] rf_c1_det_conv1_bn_scale <- rf_c1_det_conv1_bn
I0627 10:46:54.161366 33979 net.cpp:369] rf_c1_det_conv1_bn_scale -> rf_c1_det_conv1_bn (in-place)
I0627 10:46:54.161408 33979 layer_factory.hpp:77] Creating layer rf_c1_det_conv1_bn_scale
I0627 10:46:54.161545 33979 net.cpp:124] Setting up rf_c1_det_conv1_bn_scale
I0627 10:46:54.161551 33979 net.cpp:131] Top shape: 1 32 40 40 (51200)
I0627 10:46:54.161556 33979 net.cpp:139] Memory required for data: 53150400
I0627 10:46:54.161563 33979 layer_factory.hpp:77] Creating layer rf_c1_det_context_conv1_bn
I0627 10:46:54.161569 33979 net.cpp:86] Creating Layer rf_c1_det_context_conv1_bn
I0627 10:46:54.161574 33979 net.cpp:408] rf_c1_det_context_conv1_bn <- rf_c1_det_context_conv1
I0627 10:46:54.161597 33979 net.cpp:382] rf_c1_det_context_conv1_bn -> rf_c1_det_context_conv1_bn
I0627 10:46:54.161842 33979 net.cpp:124] Setting up rf_c1_det_context_conv1_bn
I0627 10:46:54.161851 33979 net.cpp:131] Top shape: 1 16 40 40 (25600)
I0627 10:46:54.161856 33979 net.cpp:139] Memory required for data: 53252800
I0627 10:46:54.161864 33979 layer_factory.hpp:77] Creating layer rf_c1_det_context_conv1_bn_scale
I0627 10:46:54.161871 33979 net.cpp:86] Creating Layer rf_c1_det_context_conv1_bn_scale
I0627 10:46:54.161876 33979 net.cpp:408] rf_c1_det_context_conv1_bn_scale <- rf_c1_det_context_conv1_bn
I0627 10:46:54.161882 33979 net.cpp:369] rf_c1_det_context_conv1_bn_scale -> rf_c1_det_context_conv1_bn (in-place)
I0627 10:46:54.161924 33979 layer_factory.hpp:77] Creating layer rf_c1_det_context_conv1_bn_scale
I0627 10:46:54.162057 33979 net.cpp:124] Setting up rf_c1_det_context_conv1_bn_scale
I0627 10:46:54.162065 33979 net.cpp:131] Top shape: 1 16 40 40 (25600)
I0627 10:46:54.162070 33979 net.cpp:139] Memory required for data: 53355200
I0627 10:46:54.162075 33979 layer_factory.hpp:77] Creating layer rf_c2_det_concat
I0627 10:46:54.162083 33979 net.cpp:86] Creating Layer rf_c2_det_concat
I0627 10:46:54.162088 33979 net.cpp:408] rf_c2_det_concat <- rf_c2_det_conv1_bn
I0627 10:46:54.162093 33979 net.cpp:408] rf_c2_det_concat <- rf_c2_det_context_conv2_bn
I0627 10:46:54.162098 33979 net.cpp:408] rf_c2_det_concat <- rf_c2_det_context_conv3_2_bn
I0627 10:46:54.162107 33979 net.cpp:382] rf_c2_det_concat -> rf_c2_det_concat
I0627 10:46:54.162134 33979 net.cpp:124] Setting up rf_c2_det_concat
I0627 10:46:54.162139 33979 net.cpp:131] Top shape: 1 64 20 20 (25600)
I0627 10:46:54.162144 33979 net.cpp:139] Memory required for data: 53457600
I0627 10:46:54.162148 33979 layer_factory.hpp:77] Creating layer rf_c1_det_context_conv1_relu
I0627 10:46:54.162155 33979 net.cpp:86] Creating Layer rf_c1_det_context_conv1_relu
I0627 10:46:54.162159 33979 net.cpp:408] rf_c1_det_context_conv1_relu <- rf_c1_det_context_conv1_bn
I0627 10:46:54.162165 33979 net.cpp:369] rf_c1_det_context_conv1_relu -> rf_c1_det_context_conv1_bn (in-place)
I0627 10:46:54.162178 33979 net.cpp:124] Setting up rf_c1_det_context_conv1_relu
I0627 10:46:54.162183 33979 net.cpp:131] Top shape: 1 16 40 40 (25600)
I0627 10:46:54.162187 33979 net.cpp:139] Memory required for data: 53560000
I0627 10:46:54.162191 33979 layer_factory.hpp:77] Creating layer rf_c1_det_context_conv1_bn_rf_c1_det_context_conv1_relu_0_split
I0627 10:46:54.162200 33979 net.cpp:86] Creating Layer rf_c1_det_context_conv1_bn_rf_c1_det_context_conv1_relu_0_split
I0627 10:46:54.162205 33979 net.cpp:408] rf_c1_det_context_conv1_bn_rf_c1_det_context_conv1_relu_0_split <- rf_c1_det_context_conv1_bn
I0627 10:46:54.162210 33979 net.cpp:382] rf_c1_det_context_conv1_bn_rf_c1_det_context_conv1_relu_0_split -> rf_c1_det_context_conv1_bn_rf_c1_det_context_conv1_relu_0_split_0
I0627 10:46:54.162219 33979 net.cpp:382] rf_c1_det_context_conv1_bn_rf_c1_det_context_conv1_relu_0_split -> rf_c1_det_context_conv1_bn_rf_c1_det_context_conv1_relu_0_split_1
I0627 10:46:54.162262 33979 net.cpp:124] Setting up rf_c1_det_context_conv1_bn_rf_c1_det_context_conv1_relu_0_split
I0627 10:46:54.162271 33979 net.cpp:131] Top shape: 1 16 40 40 (25600)
I0627 10:46:54.162276 33979 net.cpp:131] Top shape: 1 16 40 40 (25600)
I0627 10:46:54.162281 33979 net.cpp:139] Memory required for data: 53764800
I0627 10:46:54.162284 33979 layer_factory.hpp:77] Creating layer rf_c2_det_concat_relu
I0627 10:46:54.162293 33979 net.cpp:86] Creating Layer rf_c2_det_concat_relu
I0627 10:46:54.162298 33979 net.cpp:408] rf_c2_det_concat_relu <- rf_c2_det_concat
I0627 10:46:54.162304 33979 net.cpp:369] rf_c2_det_concat_relu -> rf_c2_det_concat (in-place)
I0627 10:46:54.162310 33979 net.cpp:124] Setting up rf_c2_det_concat_relu
I0627 10:46:54.162314 33979 net.cpp:131] Top shape: 1 64 20 20 (25600)
I0627 10:46:54.162319 33979 net.cpp:139] Memory required for data: 53867200
I0627 10:46:54.162323 33979 layer_factory.hpp:77] Creating layer rf_c2_det_concat_rf_c2_det_concat_relu_0_split
I0627 10:46:54.162343 33979 net.cpp:86] Creating Layer rf_c2_det_concat_rf_c2_det_concat_relu_0_split
I0627 10:46:54.162348 33979 net.cpp:408] rf_c2_det_concat_rf_c2_det_concat_relu_0_split <- rf_c2_det_concat
I0627 10:46:54.162353 33979 net.cpp:382] rf_c2_det_concat_rf_c2_det_concat_relu_0_split -> rf_c2_det_concat_rf_c2_det_concat_relu_0_split_0
I0627 10:46:54.162374 33979 net.cpp:382] rf_c2_det_concat_rf_c2_det_concat_relu_0_split -> rf_c2_det_concat_rf_c2_det_concat_relu_0_split_1
I0627 10:46:54.162380 33979 net.cpp:382] rf_c2_det_concat_rf_c2_det_concat_relu_0_split -> rf_c2_det_concat_rf_c2_det_concat_relu_0_split_2
I0627 10:46:54.162427 33979 net.cpp:124] Setting up rf_c2_det_concat_rf_c2_det_concat_relu_0_split
I0627 10:46:54.162434 33979 net.cpp:131] Top shape: 1 64 20 20 (25600)
I0627 10:46:54.162439 33979 net.cpp:131] Top shape: 1 64 20 20 (25600)
I0627 10:46:54.162444 33979 net.cpp:131] Top shape: 1 64 20 20 (25600)
I0627 10:46:54.162449 33979 net.cpp:139] Memory required for data: 54174400
I0627 10:46:54.162454 33979 layer_factory.hpp:77] Creating layer rf_c1_det_context_conv2
I0627 10:46:54.162462 33979 net.cpp:86] Creating Layer rf_c1_det_context_conv2
I0627 10:46:54.162467 33979 net.cpp:408] rf_c1_det_context_conv2 <- rf_c1_det_context_conv1_bn_rf_c1_det_context_conv1_relu_0_split_0
I0627 10:46:54.162473 33979 net.cpp:382] rf_c1_det_context_conv2 -> rf_c1_det_context_conv2
I0627 10:46:54.162740 33979 net.cpp:124] Setting up rf_c1_det_context_conv2
I0627 10:46:54.162748 33979 net.cpp:131] Top shape: 1 16 40 40 (25600)
I0627 10:46:54.162755 33979 net.cpp:139] Memory required for data: 54276800
I0627 10:46:54.162760 33979 layer_factory.hpp:77] Creating layer rf_c1_det_context_conv3_1
I0627 10:46:54.162770 33979 net.cpp:86] Creating Layer rf_c1_det_context_conv3_1
I0627 10:46:54.162775 33979 net.cpp:408] rf_c1_det_context_conv3_1 <- rf_c1_det_context_conv1_bn_rf_c1_det_context_conv1_relu_0_split_1
I0627 10:46:54.162782 33979 net.cpp:382] rf_c1_det_context_conv3_1 -> rf_c1_det_context_conv3_1
I0627 10:46:54.163061 33979 net.cpp:124] Setting up rf_c1_det_context_conv3_1
I0627 10:46:54.163069 33979 net.cpp:131] Top shape: 1 16 40 40 (25600)
I0627 10:46:54.163074 33979 net.cpp:139] Memory required for data: 54379200
I0627 10:46:54.163081 33979 layer_factory.hpp:77] Creating layer face_rpn_cls_score_stride16
I0627 10:46:54.163090 33979 net.cpp:86] Creating Layer face_rpn_cls_score_stride16
I0627 10:46:54.163095 33979 net.cpp:408] face_rpn_cls_score_stride16 <- rf_c2_det_concat_rf_c2_det_concat_relu_0_split_0
I0627 10:46:54.163102 33979 net.cpp:382] face_rpn_cls_score_stride16 -> face_rpn_cls_score_stride16
I0627 10:46:54.163352 33979 net.cpp:124] Setting up face_rpn_cls_score_stride16
I0627 10:46:54.163359 33979 net.cpp:131] Top shape: 1 4 20 20 (1600)
I0627 10:46:54.163365 33979 net.cpp:139] Memory required for data: 54385600
I0627 10:46:54.163372 33979 layer_factory.hpp:77] Creating layer face_rpn_bbox_pred_stride16
I0627 10:46:54.163383 33979 net.cpp:86] Creating Layer face_rpn_bbox_pred_stride16
I0627 10:46:54.163388 33979 net.cpp:408] face_rpn_bbox_pred_stride16 <- rf_c2_det_concat_rf_c2_det_concat_relu_0_split_1
I0627 10:46:54.163395 33979 net.cpp:382] face_rpn_bbox_pred_stride16 -> face_rpn_bbox_pred_stride16
I0627 10:46:54.163658 33979 net.cpp:124] Setting up face_rpn_bbox_pred_stride16
I0627 10:46:54.163666 33979 net.cpp:131] Top shape: 1 8 20 20 (3200)
I0627 10:46:54.163671 33979 net.cpp:139] Memory required for data: 54398400
I0627 10:46:54.163677 33979 layer_factory.hpp:77] Creating layer face_rpn_landmark_pred_stride16
I0627 10:46:54.163687 33979 net.cpp:86] Creating Layer face_rpn_landmark_pred_stride16
I0627 10:46:54.163692 33979 net.cpp:408] face_rpn_landmark_pred_stride16 <- rf_c2_det_concat_rf_c2_det_concat_relu_0_split_2
I0627 10:46:54.163698 33979 net.cpp:382] face_rpn_landmark_pred_stride16 -> face_rpn_landmark_pred_stride16
I0627 10:46:54.163983 33979 net.cpp:124] Setting up face_rpn_landmark_pred_stride16
I0627 10:46:54.163991 33979 net.cpp:131] Top shape: 1 20 20 20 (8000)
I0627 10:46:54.164013 33979 net.cpp:139] Memory required for data: 54430400
I0627 10:46:54.164021 33979 layer_factory.hpp:77] Creating layer rf_c1_det_context_conv2_bn
I0627 10:46:54.164031 33979 net.cpp:86] Creating Layer rf_c1_det_context_conv2_bn
I0627 10:46:54.164037 33979 net.cpp:408] rf_c1_det_context_conv2_bn <- rf_c1_det_context_conv2
I0627 10:46:54.164043 33979 net.cpp:382] rf_c1_det_context_conv2_bn -> rf_c1_det_context_conv2_bn
I0627 10:46:54.164268 33979 net.cpp:124] Setting up rf_c1_det_context_conv2_bn
I0627 10:46:54.164274 33979 net.cpp:131] Top shape: 1 16 40 40 (25600)
I0627 10:46:54.164280 33979 net.cpp:139] Memory required for data: 54532800
I0627 10:46:54.164288 33979 layer_factory.hpp:77] Creating layer rf_c1_det_context_conv2_bn_scale
I0627 10:46:54.164297 33979 net.cpp:86] Creating Layer rf_c1_det_context_conv2_bn_scale
I0627 10:46:54.164302 33979 net.cpp:408] rf_c1_det_context_conv2_bn_scale <- rf_c1_det_context_conv2_bn
I0627 10:46:54.164309 33979 net.cpp:369] rf_c1_det_context_conv2_bn_scale -> rf_c1_det_context_conv2_bn (in-place)
I0627 10:46:54.164350 33979 layer_factory.hpp:77] Creating layer rf_c1_det_context_conv2_bn_scale
I0627 10:46:54.164487 33979 net.cpp:124] Setting up rf_c1_det_context_conv2_bn_scale
I0627 10:46:54.164494 33979 net.cpp:131] Top shape: 1 16 40 40 (25600)
I0627 10:46:54.164499 33979 net.cpp:139] Memory required for data: 54635200
I0627 10:46:54.164506 33979 layer_factory.hpp:77] Creating layer rf_c1_det_context_conv3_1_bn
I0627 10:46:54.164515 33979 net.cpp:86] Creating Layer rf_c1_det_context_conv3_1_bn
I0627 10:46:54.164522 33979 net.cpp:408] rf_c1_det_context_conv3_1_bn <- rf_c1_det_context_conv3_1
I0627 10:46:54.164530 33979 net.cpp:382] rf_c1_det_context_conv3_1_bn -> rf_c1_det_context_conv3_1_bn
I0627 10:46:54.164746 33979 net.cpp:124] Setting up rf_c1_det_context_conv3_1_bn
I0627 10:46:54.164752 33979 net.cpp:131] Top shape: 1 16 40 40 (25600)
I0627 10:46:54.164757 33979 net.cpp:139] Memory required for data: 54737600
I0627 10:46:54.164764 33979 layer_factory.hpp:77] Creating layer rf_c1_det_context_conv3_1_bn_scale
I0627 10:46:54.164774 33979 net.cpp:86] Creating Layer rf_c1_det_context_conv3_1_bn_scale
I0627 10:46:54.164779 33979 net.cpp:408] rf_c1_det_context_conv3_1_bn_scale <- rf_c1_det_context_conv3_1_bn
I0627 10:46:54.164785 33979 net.cpp:369] rf_c1_det_context_conv3_1_bn_scale -> rf_c1_det_context_conv3_1_bn (in-place)
I0627 10:46:54.164824 33979 layer_factory.hpp:77] Creating layer rf_c1_det_context_conv3_1_bn_scale
I0627 10:46:54.164964 33979 net.cpp:124] Setting up rf_c1_det_context_conv3_1_bn_scale
I0627 10:46:54.164970 33979 net.cpp:131] Top shape: 1 16 40 40 (25600)
I0627 10:46:54.164976 33979 net.cpp:139] Memory required for data: 54840000
I0627 10:46:54.164983 33979 layer_factory.hpp:77] Creating layer face_rpn_cls_score_reshape_stride16
I0627 10:46:54.164991 33979 net.cpp:86] Creating Layer face_rpn_cls_score_reshape_stride16
I0627 10:46:54.164996 33979 net.cpp:408] face_rpn_cls_score_reshape_stride16 <- face_rpn_cls_score_stride16
I0627 10:46:54.165002 33979 net.cpp:382] face_rpn_cls_score_reshape_stride16 -> face_rpn_cls_score_reshape_stride16
I0627 10:46:54.165033 33979 net.cpp:124] Setting up face_rpn_cls_score_reshape_stride16
I0627 10:46:54.165038 33979 net.cpp:131] Top shape: 1 2 40 20 (1600)
I0627 10:46:54.165045 33979 net.cpp:139] Memory required for data: 54846400
I0627 10:46:54.165048 33979 layer_factory.hpp:77] Creating layer rf_c1_det_context_conv3_1_relu
I0627 10:46:54.165057 33979 net.cpp:86] Creating Layer rf_c1_det_context_conv3_1_relu
I0627 10:46:54.165062 33979 net.cpp:408] rf_c1_det_context_conv3_1_relu <- rf_c1_det_context_conv3_1_bn
I0627 10:46:54.165067 33979 net.cpp:369] rf_c1_det_context_conv3_1_relu -> rf_c1_det_context_conv3_1_bn (in-place)
I0627 10:46:54.165073 33979 net.cpp:124] Setting up rf_c1_det_context_conv3_1_relu
I0627 10:46:54.165077 33979 net.cpp:131] Top shape: 1 16 40 40 (25600)
I0627 10:46:54.165082 33979 net.cpp:139] Memory required for data: 54948800
I0627 10:46:54.165086 33979 layer_factory.hpp:77] Creating layer face_rpn_cls_prob_stride16
I0627 10:46:54.165107 33979 net.cpp:86] Creating Layer face_rpn_cls_prob_stride16
I0627 10:46:54.165112 33979 net.cpp:408] face_rpn_cls_prob_stride16 <- face_rpn_cls_score_reshape_stride16
I0627 10:46:54.165117 33979 net.cpp:382] face_rpn_cls_prob_stride16 -> face_rpn_cls_prob_stride16
I0627 10:46:54.165186 33979 net.cpp:124] Setting up face_rpn_cls_prob_stride16
I0627 10:46:54.165194 33979 net.cpp:131] Top shape: 1 2 40 20 (1600)
I0627 10:46:54.165199 33979 net.cpp:139] Memory required for data: 54955200
I0627 10:46:54.165204 33979 layer_factory.hpp:77] Creating layer rf_c1_det_context_conv3_2
I0627 10:46:54.165210 33979 net.cpp:86] Creating Layer rf_c1_det_context_conv3_2
I0627 10:46:54.165215 33979 net.cpp:408] rf_c1_det_context_conv3_2 <- rf_c1_det_context_conv3_1_bn
I0627 10:46:54.165221 33979 net.cpp:382] rf_c1_det_context_conv3_2 -> rf_c1_det_context_conv3_2
I0627 10:46:54.165474 33979 net.cpp:124] Setting up rf_c1_det_context_conv3_2
I0627 10:46:54.165482 33979 net.cpp:131] Top shape: 1 16 40 40 (25600)
I0627 10:46:54.165488 33979 net.cpp:139] Memory required for data: 55057600
I0627 10:46:54.165493 33979 layer_factory.hpp:77] Creating layer face_rpn_cls_prob_reshape_stride16
I0627 10:46:54.165504 33979 net.cpp:86] Creating Layer face_rpn_cls_prob_reshape_stride16
I0627 10:46:54.165509 33979 net.cpp:408] face_rpn_cls_prob_reshape_stride16 <- face_rpn_cls_prob_stride16
I0627 10:46:54.165515 33979 net.cpp:382] face_rpn_cls_prob_reshape_stride16 -> face_rpn_cls_prob_reshape_stride16
I0627 10:46:54.165542 33979 net.cpp:124] Setting up face_rpn_cls_prob_reshape_stride16
I0627 10:46:54.165547 33979 net.cpp:131] Top shape: 1 4 20 20 (1600)
I0627 10:46:54.165552 33979 net.cpp:139] Memory required for data: 55064000
I0627 10:46:54.165557 33979 layer_factory.hpp:77] Creating layer rf_c1_det_context_conv3_2_bn
I0627 10:46:54.165566 33979 net.cpp:86] Creating Layer rf_c1_det_context_conv3_2_bn
I0627 10:46:54.165571 33979 net.cpp:408] rf_c1_det_context_conv3_2_bn <- rf_c1_det_context_conv3_2
I0627 10:46:54.165576 33979 net.cpp:382] rf_c1_det_context_conv3_2_bn -> rf_c1_det_context_conv3_2_bn
I0627 10:46:54.165801 33979 net.cpp:124] Setting up rf_c1_det_context_conv3_2_bn
I0627 10:46:54.165807 33979 net.cpp:131] Top shape: 1 16 40 40 (25600)
I0627 10:46:54.165812 33979 net.cpp:139] Memory required for data: 55166400
I0627 10:46:54.165819 33979 layer_factory.hpp:77] Creating layer rf_c1_det_context_conv3_2_bn_scale
I0627 10:46:54.165828 33979 net.cpp:86] Creating Layer rf_c1_det_context_conv3_2_bn_scale
I0627 10:46:54.165833 33979 net.cpp:408] rf_c1_det_context_conv3_2_bn_scale <- rf_c1_det_context_conv3_2_bn
I0627 10:46:54.165839 33979 net.cpp:369] rf_c1_det_context_conv3_2_bn_scale -> rf_c1_det_context_conv3_2_bn (in-place)
I0627 10:46:54.165880 33979 layer_factory.hpp:77] Creating layer rf_c1_det_context_conv3_2_bn_scale
I0627 10:46:54.166018 33979 net.cpp:124] Setting up rf_c1_det_context_conv3_2_bn_scale
I0627 10:46:54.166025 33979 net.cpp:131] Top shape: 1 16 40 40 (25600)
I0627 10:46:54.166030 33979 net.cpp:139] Memory required for data: 55268800
I0627 10:46:54.166036 33979 layer_factory.hpp:77] Creating layer rf_c1_det_concat
I0627 10:46:54.166047 33979 net.cpp:86] Creating Layer rf_c1_det_concat
I0627 10:46:54.166051 33979 net.cpp:408] rf_c1_det_concat <- rf_c1_det_conv1_bn
I0627 10:46:54.166057 33979 net.cpp:408] rf_c1_det_concat <- rf_c1_det_context_conv2_bn
I0627 10:46:54.166061 33979 net.cpp:408] rf_c1_det_concat <- rf_c1_det_context_conv3_2_bn
I0627 10:46:54.166067 33979 net.cpp:382] rf_c1_det_concat -> rf_c1_det_concat
I0627 10:46:54.166095 33979 net.cpp:124] Setting up rf_c1_det_concat
I0627 10:46:54.166100 33979 net.cpp:131] Top shape: 1 64 40 40 (102400)
I0627 10:46:54.166105 33979 net.cpp:139] Memory required for data: 55678400
I0627 10:46:54.166108 33979 layer_factory.hpp:77] Creating layer rf_c1_det_concat_relu
I0627 10:46:54.166115 33979 net.cpp:86] Creating Layer rf_c1_det_concat_relu
I0627 10:46:54.166121 33979 net.cpp:408] rf_c1_det_concat_relu <- rf_c1_det_concat
I0627 10:46:54.166137 33979 net.cpp:369] rf_c1_det_concat_relu -> rf_c1_det_concat (in-place)
I0627 10:46:54.166144 33979 net.cpp:124] Setting up rf_c1_det_concat_relu
I0627 10:46:54.166148 33979 net.cpp:131] Top shape: 1 64 40 40 (102400)
I0627 10:46:54.166153 33979 net.cpp:139] Memory required for data: 56088000
I0627 10:46:54.166158 33979 layer_factory.hpp:77] Creating layer rf_c1_det_concat_rf_c1_det_concat_relu_0_split
I0627 10:46:54.166164 33979 net.cpp:86] Creating Layer rf_c1_det_concat_rf_c1_det_concat_relu_0_split
I0627 10:46:54.166168 33979 net.cpp:408] rf_c1_det_concat_rf_c1_det_concat_relu_0_split <- rf_c1_det_concat
I0627 10:46:54.166174 33979 net.cpp:382] rf_c1_det_concat_rf_c1_det_concat_relu_0_split -> rf_c1_det_concat_rf_c1_det_concat_relu_0_split_0
I0627 10:46:54.166183 33979 net.cpp:382] rf_c1_det_concat_rf_c1_det_concat_relu_0_split -> rf_c1_det_concat_rf_c1_det_concat_relu_0_split_1
I0627 10:46:54.166190 33979 net.cpp:382] rf_c1_det_concat_rf_c1_det_concat_relu_0_split -> rf_c1_det_concat_rf_c1_det_concat_relu_0_split_2
I0627 10:46:54.166252 33979 net.cpp:124] Setting up rf_c1_det_concat_rf_c1_det_concat_relu_0_split
I0627 10:46:54.166260 33979 net.cpp:131] Top shape: 1 64 40 40 (102400)
I0627 10:46:54.166265 33979 net.cpp:131] Top shape: 1 64 40 40 (102400)
I0627 10:46:54.166270 33979 net.cpp:131] Top shape: 1 64 40 40 (102400)
I0627 10:46:54.166275 33979 net.cpp:139] Memory required for data: 57316800
I0627 10:46:54.166278 33979 layer_factory.hpp:77] Creating layer face_rpn_cls_score_stride8
I0627 10:46:54.166290 33979 net.cpp:86] Creating Layer face_rpn_cls_score_stride8
I0627 10:46:54.166296 33979 net.cpp:408] face_rpn_cls_score_stride8 <- rf_c1_det_concat_rf_c1_det_concat_relu_0_split_0
I0627 10:46:54.166301 33979 net.cpp:382] face_rpn_cls_score_stride8 -> face_rpn_cls_score_stride8
I0627 10:46:54.166555 33979 net.cpp:124] Setting up face_rpn_cls_score_stride8
I0627 10:46:54.166563 33979 net.cpp:131] Top shape: 1 4 40 40 (6400)
I0627 10:46:54.166568 33979 net.cpp:139] Memory required for data: 57342400
I0627 10:46:54.166575 33979 layer_factory.hpp:77] Creating layer face_rpn_bbox_pred_stride8
I0627 10:46:54.166585 33979 net.cpp:86] Creating Layer face_rpn_bbox_pred_stride8
I0627 10:46:54.166590 33979 net.cpp:408] face_rpn_bbox_pred_stride8 <- rf_c1_det_concat_rf_c1_det_concat_relu_0_split_1
I0627 10:46:54.166599 33979 net.cpp:382] face_rpn_bbox_pred_stride8 -> face_rpn_bbox_pred_stride8
I0627 10:46:54.166868 33979 net.cpp:124] Setting up face_rpn_bbox_pred_stride8
I0627 10:46:54.166875 33979 net.cpp:131] Top shape: 1 8 40 40 (12800)
I0627 10:46:54.166882 33979 net.cpp:139] Memory required for data: 57393600
I0627 10:46:54.166887 33979 layer_factory.hpp:77] Creating layer face_rpn_landmark_pred_stride8
I0627 10:46:54.166898 33979 net.cpp:86] Creating Layer face_rpn_landmark_pred_stride8
I0627 10:46:54.166903 33979 net.cpp:408] face_rpn_landmark_pred_stride8 <- rf_c1_det_concat_rf_c1_det_concat_relu_0_split_2
I0627 10:46:54.166910 33979 net.cpp:382] face_rpn_landmark_pred_stride8 -> face_rpn_landmark_pred_stride8
I0627 10:46:54.167184 33979 net.cpp:124] Setting up face_rpn_landmark_pred_stride8
I0627 10:46:54.167191 33979 net.cpp:131] Top shape: 1 20 40 40 (32000)
I0627 10:46:54.167197 33979 net.cpp:139] Memory required for data: 57521600
I0627 10:46:54.167203 33979 layer_factory.hpp:77] Creating layer face_rpn_cls_score_reshape_stride8
I0627 10:46:54.167212 33979 net.cpp:86] Creating Layer face_rpn_cls_score_reshape_stride8
I0627 10:46:54.167217 33979 net.cpp:408] face_rpn_cls_score_reshape_stride8 <- face_rpn_cls_score_stride8
I0627 10:46:54.167223 33979 net.cpp:382] face_rpn_cls_score_reshape_stride8 -> face_rpn_cls_score_reshape_stride8
I0627 10:46:54.167251 33979 net.cpp:124] Setting up face_rpn_cls_score_reshape_stride8
I0627 10:46:54.167256 33979 net.cpp:131] Top shape: 1 2 80 40 (6400)
I0627 10:46:54.167263 33979 net.cpp:139] Memory required for data: 57547200
I0627 10:46:54.167266 33979 layer_factory.hpp:77] Creating layer face_rpn_cls_prob_stride8
I0627 10:46:54.167274 33979 net.cpp:86] Creating Layer face_rpn_cls_prob_stride8
I0627 10:46:54.167291 33979 net.cpp:408] face_rpn_cls_prob_stride8 <- face_rpn_cls_score_reshape_stride8
I0627 10:46:54.167299 33979 net.cpp:382] face_rpn_cls_prob_stride8 -> face_rpn_cls_prob_stride8
I0627 10:46:54.167366 33979 net.cpp:124] Setting up face_rpn_cls_prob_stride8
I0627 10:46:54.167372 33979 net.cpp:131] Top shape: 1 2 80 40 (6400)
I0627 10:46:54.167377 33979 net.cpp:139] Memory required for data: 57572800
I0627 10:46:54.167383 33979 layer_factory.hpp:77] Creating layer face_rpn_cls_prob_reshape_stride8
I0627 10:46:54.167393 33979 net.cpp:86] Creating Layer face_rpn_cls_prob_reshape_stride8
I0627 10:46:54.167397 33979 net.cpp:408] face_rpn_cls_prob_reshape_stride8 <- face_rpn_cls_prob_stride8
I0627 10:46:54.167403 33979 net.cpp:382] face_rpn_cls_prob_reshape_stride8 -> face_rpn_cls_prob_reshape_stride8
I0627 10:46:54.167428 33979 net.cpp:124] Setting up face_rpn_cls_prob_reshape_stride8
I0627 10:46:54.167433 33979 net.cpp:131] Top shape: 1 4 40 40 (6400)
I0627 10:46:54.167438 33979 net.cpp:139] Memory required for data: 57598400
I0627 10:46:54.167448 33979 net.cpp:202] face_rpn_cls_prob_reshape_stride8 does not need backward computation.
I0627 10:46:54.167459 33979 net.cpp:202] face_rpn_cls_prob_stride8 does not need backward computation.
I0627 10:46:54.167464 33979 net.cpp:202] face_rpn_cls_score_reshape_stride8 does not need backward computation.
…
