I0408 16:36:05.312247 32323 caffe.cpp:339] Use GPU with device ID 1
I0408 16:36:05.983803 32323 net.cpp:296] The NetState phase (0) differed from the phase (1) specified by a rule in layer detection_out
I0408 16:36:05.983834 32323 net.cpp:53] Initializing net from parameters: 
name: "remove_bn"
state {
  phase: TRAIN
  level: 0
  stage: ""
}
layer {
  name: "data"
  type: "Input"
  top: "data"
  input_param {
    shape {
      dim: 1
      dim: 3
      dim: 320
      dim: 320
    }
  }
}
layer {
  name: "conv0"
  type: "Convolution"
  bottom: "data"
  top: "conv0"
  param {
    lr_mult: 1
    decay_mult: 1
  }
  convolution_param {
    num_output: 32
    bias_term: true
    pad: 1
    kernel_size: 3
    stride: 2
    weight_filler {
      type: "msra"
    }
  }
}
layer {
  name: "conv0/relu"
  type: "ReLU"
  bottom: "conv0"
  top: "conv0"
}
layer {
  name: "conv1/dw"
  type: "DepthwiseConvolution"
  bottom: "conv0"
  top: "conv1/dw"
  param {
    lr_mult: 1
    decay_mult: 1
  }
  convolution_param {
    num_output: 32
    bias_term: true
    pad: 1
    kernel_size: 3
    group: 32
    weight_filler {
      type: "msra"
    }
    engine: CAFFE
  }
}
layer {
  name: "conv1/dw/relu"
  type: "ReLU"
  bottom: "conv1/dw"
  top: "conv1/dw"
}
layer {
  name: "conv1"
  type: "Convolution"
  bottom: "conv1/dw"
  top: "conv1"
  param {
    lr_mult: 1
    decay_mult: 1
  }
  convolution_param {
    num_output: 64
    bias_term: true
    kernel_size: 1
    weight_filler {
      type: "msra"
    }
  }
}
layer {
  name: "conv1/relu"
  type: "ReLU"
  bottom: "conv1"
  top: "conv1"
}
layer {
  name: "conv2/dw"
  type: "DepthwiseConvolution"
  bottom: "conv1"
  top: "conv2/dw"
  param {
    lr_mult: 1
    decay_mult: 1
  }
  convolution_param {
    num_output: 64
    bias_term: true
    pad: 1
    kernel_size: 3
    group: 64
    stride: 2
    weight_filler {
      type: "msra"
    }
    engine: CAFFE
  }
}
layer {
  name: "conv2/dw/relu"
  type: "ReLU"
  bottom: "conv2/dw"
  top: "conv2/dw"
}
layer {
  name: "conv2"
  type: "Convolution"
  bottom: "conv2/dw"
  top: "conv2"
  param {
    lr_mult: 1
    decay_mult: 1
  }
  convolution_param {
    num_output: 128
    bias_term: true
    kernel_size: 1
    weight_filler {
      type: "msra"
    }
  }
}
layer {
  name: "conv2/relu"
  type: "ReLU"
  bottom: "conv2"
  top: "conv2"
}
layer {
  name: "conv3/dw"
  type: "DepthwiseConvolution"
  bottom: "conv2"
  top: "conv3/dw"
  param {
    lr_mult: 1
    decay_mult: 1
  }
  convolution_param {
    num_output: 128
    bias_term: true
    pad: 1
    kernel_size: 3
    group: 128
    weight_filler {
      type: "msra"
    }
    engine: CAFFE
  }
}
layer {
  name: "conv3/dw/relu"
  type: "ReLU"
  bottom: "conv3/dw"
  top: "conv3/dw"
}
layer {
  name: "conv3"
  type: "Convolution"
  bottom: "conv3/dw"
  top: "conv3"
  param {
    lr_mult: 1
    decay_mult: 1
  }
  convolution_param {
    num_output: 128
    bias_term: true
    kernel_size: 1
    weight_filler {
      type: "msra"
    }
  }
}
layer {
  name: "conv3/relu"
  type: "ReLU"
  bottom: "conv3"
  top: "conv3"
}
layer {
  name: "conv4/dw"
  type: "DepthwiseConvolution"
  bottom: "conv3"
  top: "conv4/dw"
  param {
    lr_mult: 1
    decay_mult: 1
  }
  convolution_param {
    num_output: 128
    bias_term: true
    pad: 1
    kernel_size: 3
    group: 128
    stride: 2
    weight_filler {
      type: "msra"
    }
    engine: CAFFE
  }
}
layer {
  name: "conv4/dw/relu"
  type: "ReLU"
  bottom: "conv4/dw"
  top: "conv4/dw"
}
layer {
  name: "conv4"
  type: "Convolution"
  bottom: "conv4/dw"
  top: "conv4"
  param {
    lr_mult: 1
    decay_mult: 1
  }
  convolution_param {
    num_output: 256
    bias_term: true
    kernel_size: 1
    weight_filler {
      type: "msra"
    }
  }
}
layer {
  name: "conv4/relu"
  type: "ReLU"
  bottom: "conv4"
  top: "conv4"
}
layer {
  name: "conv5/dw"
  type: "DepthwiseConvolution"
  bottom: "conv4"
  top: "conv5/dw"
  param {
    lr_mult: 1
    decay_mult: 1
  }
  convolution_param {
    num_output: 256
    bias_term: true
    pad: 1
    kernel_size: 3
    group: 256
    weight_filler {
      type: "msra"
    }
    engine: CAFFE
  }
}
layer {
  name: "conv5/dw/relu"
  type: "ReLU"
  bottom: "conv5/dw"
  top: "conv5/dw"
}
layer {
  name: "conv5"
  type: "Convolution"
  bottom: "conv5/dw"
  top: "conv5"
  param {
    lr_mult: 1
    decay_mult: 1
  }
  convolution_param {
    num_output: 256
    bias_term: true
    kernel_size: 1
    weight_filler {
      type: "msra"
    }
  }
}
layer {
  name: "conv5/relu"
  type: "ReLU"
  bottom: "conv5"
  top: "conv5"
}
layer {
  name: "conv6/dw"
  type: "DepthwiseConvolution"
  bottom: "conv5"
  top: "conv6/dw"
  param {
    lr_mult: 1
    decay_mult: 1
  }
  convolution_param {
    num_output: 256
    bias_term: true
    pad: 1
    kernel_size: 3
    group: 256
    stride: 2
    weight_filler {
      type: "msra"
    }
    engine: CAFFE
  }
}
layer {
  name: "conv6/dw/relu"
  type: "ReLU"
  bottom: "conv6/dw"
  top: "conv6/dw"
}
layer {
  name: "conv6"
  type: "Convolution"
  bottom: "conv6/dw"
  top: "conv6"
  param {
    lr_mult: 1
    decay_mult: 1
  }
  convolution_param {
    num_output: 512
    bias_term: true
    kernel_size: 1
    weight_filler {
      type: "msra"
    }
  }
}
layer {
  name: "conv6/relu"
  type: "ReLU"
  bottom: "conv6"
  top: "conv6"
}
layer {
  name: "conv7/dw"
  type: "DepthwiseConvolution"
  bottom: "conv6"
  top: "conv7/dw"
  param {
    lr_mult: 1
    decay_mult: 1
  }
  convolution_param {
    num_output: 512
    bias_term: true
    pad: 1
    kernel_size: 3
    group: 512
    weight_filler {
      type: "msra"
    }
    engine: CAFFE
  }
}
layer {
  name: "conv7/dw/relu"
  type: "ReLU"
  bottom: "conv7/dw"
  top: "conv7/dw"
}
layer {
  name: "conv7"
  type: "Convolution"
  bottom: "conv7/dw"
  top: "conv7"
  param {
    lr_mult: 1
    decay_mult: 1
  }
  convolution_param {
    num_output: 512
    bias_term: true
    kernel_size: 1
    weight_filler {
      type: "msra"
    }
  }
}
layer {
  name: "conv7/relu"
  type: "ReLU"
  bottom: "conv7"
  top: "conv7"
}
layer {
  name: "conv8/dw"
  type: "DepthwiseConvolution"
  bottom: "conv7"
  top: "conv8/dw"
  param {
    lr_mult: 1
    decay_mult: 1
  }
  convolution_param {
    num_output: 512
    bias_term: true
    pad: 1
    kernel_size: 3
    group: 512
    weight_filler {
      type: "msra"
    }
    engine: CAFFE
  }
}
layer {
  name: "conv8/dw/relu"
  type: "ReLU"
  bottom: "conv8/dw"
  top: "conv8/dw"
}
layer {
  name: "conv8"
  type: "Convolution"
  bottom: "conv8/dw"
  top: "conv8"
  param {
    lr_mult: 1
    decay_mult: 1
  }
  convolution_param {
    num_output: 512
    bias_term: true
    kernel_size: 1
    weight_filler {
      type: "msra"
    }
  }
}
layer {
  name: "conv8/relu"
  type: "ReLU"
  bottom: "conv8"
  top: "conv8"
}
layer {
  name: "conv9/dw"
  type: "DepthwiseConvolution"
  bottom: "conv8"
  top: "conv9/dw"
  param {
    lr_mult: 1
    decay_mult: 1
  }
  convolution_param {
    num_output: 512
    bias_term: true
    pad: 1
    kernel_size: 3
    group: 512
    weight_filler {
      type: "msra"
    }
    engine: CAFFE
  }
}
layer {
  name: "conv9/dw/relu"
  type: "ReLU"
  bottom: "conv9/dw"
  top: "conv9/dw"
}
layer {
  name: "conv9"
  type: "Convolution"
  bottom: "conv9/dw"
  top: "conv9"
  param {
    lr_mult: 1
    decay_mult: 1
  }
  convolution_param {
    num_output: 512
    bias_term: true
    kernel_size: 1
    weight_filler {
      type: "msra"
    }
  }
}
layer {
  name: "conv9/relu"
  type: "ReLU"
  bottom: "conv9"
  top: "conv9"
}
layer {
  name: "conv10/dw"
  type: "DepthwiseConvolution"
  bottom: "conv9"
  top: "conv10/dw"
  param {
    lr_mult: 1
    decay_mult: 1
  }
  convolution_param {
    num_output: 512
    bias_term: true
    pad: 1
    kernel_size: 3
    group: 512
    weight_filler {
      type: "msra"
    }
    engine: CAFFE
  }
}
layer {
  name: "conv10/dw/relu"
  type: "ReLU"
  bottom: "conv10/dw"
  top: "conv10/dw"
}
layer {
  name: "conv10"
  type: "Convolution"
  bottom: "conv10/dw"
  top: "conv10"
  param {
    lr_mult: 1
    decay_mult: 1
  }
  convolution_param {
    num_output: 512
    bias_term: true
    kernel_size: 1
    weight_filler {
      type: "msra"
    }
  }
}
layer {
  name: "conv10/relu"
  type: "ReLU"
  bottom: "conv10"
  top: "conv10"
}
layer {
  name: "conv11/dw"
  type: "DepthwiseConvolution"
  bottom: "conv10"
  top: "conv11/dw"
  param {
    lr_mult: 1
    decay_mult: 1
  }
  convolution_param {
    num_output: 512
    bias_term: true
    pad: 1
    kernel_size: 3
    group: 512
    weight_filler {
      type: "msra"
    }
    engine: CAFFE
  }
}
layer {
  name: "conv11/dw/relu"
  type: "ReLU"
  bottom: "conv11/dw"
  top: "conv11/dw"
}
layer {
  name: "conv11"
  type: "Convolution"
  bottom: "conv11/dw"
  top: "conv11"
  param {
    lr_mult: 1
    decay_mult: 1
  }
  convolution_param {
    num_output: 512
    bias_term: true
    kernel_size: 1
    weight_filler {
      type: "msra"
    }
  }
}
layer {
  name: "conv11/relu"
  type: "ReLU"
  bottom: "conv11"
  top: "conv11"
}
layer {
  name: "conv12/dw"
  type: "DepthwiseConvolution"
  bottom: "conv11"
  top: "conv12/dw"
  param {
    lr_mult: 1
    decay_mult: 1
  }
  convolution_param {
    num_output: 512
    bias_term: true
    pad: 1
    kernel_size: 3
    group: 512
    stride: 2
    weight_filler {
      type: "msra"
    }
    engine: CAFFE
  }
}
layer {
  name: "conv12/dw/relu"
  type: "ReLU"
  bottom: "conv12/dw"
  top: "conv12/dw"
}
layer {
  name: "conv12"
  type: "Convolution"
  bottom: "conv12/dw"
  top: "conv12"
  param {
    lr_mult: 1
    decay_mult: 1
  }
  convolution_param {
    num_output: 1024
    bias_term: true
    kernel_size: 1
    weight_filler {
      type: "msra"
    }
  }
}
layer {
  name: "conv12/relu"
  type: "ReLU"
  bottom: "conv12"
  top: "conv12"
}
layer {
  name: "conv13/dw"
  type: "DepthwiseConvolution"
  bottom: "conv12"
  top: "conv13/dw"
  param {
    lr_mult: 1
    decay_mult: 1
  }
  convolution_param {
    num_output: 1024
    bias_term: true
    pad: 1
    kernel_size: 3
    group: 1024
    weight_filler {
      type: "msra"
    }
    engine: CAFFE
  }
}
layer {
  name: "conv13/dw/relu"
  type: "ReLU"
  bottom: "conv13/dw"
  top: "conv13/dw"
}
layer {
  name: "conv13"
  type: "Convolution"
  bottom: "conv13/dw"
  top: "conv13"
  param {
    lr_mult: 1
    decay_mult: 1
  }
  convolution_param {
    num_output: 1024
    bias_term: true
    kernel_size: 1
    weight_filler {
      type: "msra"
    }
  }
}
layer {
  name: "conv13/relu"
  type: "ReLU"
  bottom: "conv13"
  top: "conv13"
}
layer {
  name: "conv15/dw"
  type: "DepthwiseConvolution"
  bottom: "conv13"
  top: "conv15/dw"
  param {
    lr_mult: 1
    decay_mult: 1
  }
  convolution_param {
    num_output: 1024
    bias_term: true
    pad: 1
    kernel_size: 3
    group: 1024
    weight_filler {
      type: "msra"
    }
    engine: CAFFE
  }
}
layer {
  name: "conv15/dw/relu"
  type: "ReLU"
  bottom: "conv15/dw"
  top: "conv15/dw"
}
layer {
  name: "conv15"
  type: "Convolution"
  bottom: "conv15/dw"
  top: "conv15"
  param {
    lr_mult: 1
    decay_mult: 1
  }
  convolution_param {
    num_output: 1024
    bias_term: true
    kernel_size: 1
    weight_filler {
      type: "msra"
    }
  }
}
layer {
  name: "conv15/relu"
  type: "ReLU"
  bottom: "conv15"
  top: "conv15"
}
layer {
  name: "upsample"
  type: "Deconvolution"
  bottom: "conv15"
  top: "upsample"
  param {
    lr_mult: 0
    decay_mult: 0
  }
  convolution_param {
    num_output: 512
    bias_term: false
    pad: 0
    kernel_size: 1
    group: 512
    stride: 2
    weight_filler {
      type: "constant"
      value: 1
    }
  }
}
layer {
  name: "maxpool"
  type: "Pooling"
  bottom: "upsample"
  top: "maxpool"
  pooling_param {
    pool: MAX
    kernel_size: 2
    stride: 1
    pad: 1
  }
}
layer {
  name: "conv17/dw"
  type: "DepthwiseConvolution"
  bottom: "conv11"
  top: "conv17/dw"
  param {
    lr_mult: 1
    decay_mult: 1
  }
  convolution_param {
    num_output: 512
    bias_term: true
    pad: 1
    kernel_size: 3
    group: 512
    weight_filler {
      type: "msra"
    }
    engine: CAFFE
  }
}
layer {
  name: "conv17/dw/relu"
  type: "ReLU"
  bottom: "conv17/dw"
  top: "conv17/dw"
}
layer {
  name: "conv17"
  type: "Convolution"
  bottom: "conv17/dw"
  top: "conv17"
  param {
    lr_mult: 1
    decay_mult: 1
  }
  convolution_param {
    num_output: 512
    bias_term: true
    kernel_size: 1
    weight_filler {
      type: "msra"
    }
  }
}
layer {
  name: "conv17/relu"
  type: "ReLU"
  bottom: "conv17"
  top: "conv17"
}
layer {
  name: "conv17/sum"
  type: "Eltwise"
  bottom: "maxpool"
  bottom: "conv17"
  top: "conv17/sum"
}
layer {
  name: "conv18/dw"
  type: "DepthwiseConvolution"
  bottom: "conv17/sum"
  top: "conv18/dw"
  param {
    lr_mult: 1
    decay_mult: 1
  }
  convolution_param {
    num_output: 512
    bias_term: true
    pad: 1
    kernel_size: 3
    group: 512
    weight_filler {
      type: "msra"
    }
    engine: CAFFE
  }
}
layer {
  name: "conv18/dw/relu"
  type: "ReLU"
  bottom: "conv18/dw"
  top: "conv18/dw"
}
layer {
  name: "conv18_new"
  type: "Convolution"
  bottom: "conv18/dw"
  top: "conv18_new"
  param {
    lr_mult: 1
    decay_mult: 1
  }
  convolution_param {
    num_output: 1024
    bias_term: true
    kernel_size: 1
    weight_filler {
      type: "msra"
    }
  }
}
layer {
  name: "conv18_new/relu"
  type: "ReLU"
  bottom: "conv18_new"
  top: "conv18_new"
}
layer {
  name: "conv19"
  type: "Convolution"
  bottom: "conv15"
  top: "conv19"
  param {
    lr_mult: 1
    decay_mult: 1
  }
  param {
    lr_mult: 2
    decay_mult: 0
  }
  convolution_param {
    num_output: 75
    bias_term: true
    pad: 0
    kernel_size: 1
    stride: 1
    weight_filler {
      type: "xavier"
    }
    bias_filler {
      value: 0
    }
  }
}
layer {
  name: "conv20"
  type: "Convolution"
  bottom: "conv18_new"
  top: "conv20"
  param {
    lr_mult: 1
    decay_mult: 1
  }
  param {
    lr_mult: 2
    decay_mult: 0
  }
  convolution_param {
    num_output: 75
    bias_term: true
    pad: 0
    kernel_size: 1
    stride: 1
    weight_filler {
      type: "xavier"
    }
    bias_filler {
      value: 0
    }
  }
}
I0408 16:36:05.984474 32323 layer_factory.hpp:77] Creating layer data
I0408 16:36:05.984493 32323 net.cpp:86] Creating Layer data
I0408 16:36:05.984500 32323 net.cpp:382] data -> data
I0408 16:36:05.995738 32323 net.cpp:124] Setting up data
I0408 16:36:05.995752 32323 net.cpp:131] Top shape: 1 3 320 320 (307200)
I0408 16:36:05.995777 32323 net.cpp:139] Memory required for data: 1228800
I0408 16:36:05.995784 32323 layer_factory.hpp:77] Creating layer conv0
I0408 16:36:05.995824 32323 net.cpp:86] Creating Layer conv0
I0408 16:36:05.995831 32323 net.cpp:408] conv0 <- data
I0408 16:36:05.995839 32323 net.cpp:382] conv0 -> conv0
I0408 16:36:07.144516 32323 net.cpp:124] Setting up conv0
I0408 16:36:07.144560 32323 net.cpp:131] Top shape: 1 32 160 160 (819200)
I0408 16:36:07.144570 32323 net.cpp:139] Memory required for data: 4505600
I0408 16:36:07.144600 32323 layer_factory.hpp:77] Creating layer conv0/relu
I0408 16:36:07.144631 32323 net.cpp:86] Creating Layer conv0/relu
I0408 16:36:07.144636 32323 net.cpp:408] conv0/relu <- conv0
I0408 16:36:07.144641 32323 net.cpp:369] conv0/relu -> conv0 (in-place)
I0408 16:36:07.145244 32323 net.cpp:124] Setting up conv0/relu
I0408 16:36:07.145253 32323 net.cpp:131] Top shape: 1 32 160 160 (819200)
I0408 16:36:07.145258 32323 net.cpp:139] Memory required for data: 7782400
I0408 16:36:07.145262 32323 layer_factory.hpp:77] Creating layer conv1/dw
I0408 16:36:07.145278 32323 net.cpp:86] Creating Layer conv1/dw
I0408 16:36:07.145282 32323 net.cpp:408] conv1/dw <- conv0
I0408 16:36:07.145287 32323 net.cpp:382] conv1/dw -> conv1/dw
I0408 16:36:07.145653 32323 net.cpp:124] Setting up conv1/dw
I0408 16:36:07.145661 32323 net.cpp:131] Top shape: 1 32 160 160 (819200)
I0408 16:36:07.145666 32323 net.cpp:139] Memory required for data: 11059200
I0408 16:36:07.145673 32323 layer_factory.hpp:77] Creating layer conv1/dw/relu
I0408 16:36:07.145679 32323 net.cpp:86] Creating Layer conv1/dw/relu
I0408 16:36:07.145682 32323 net.cpp:408] conv1/dw/relu <- conv1/dw
I0408 16:36:07.145686 32323 net.cpp:369] conv1/dw/relu -> conv1/dw (in-place)
I0408 16:36:07.146541 32323 net.cpp:124] Setting up conv1/dw/relu
I0408 16:36:07.146553 32323 net.cpp:131] Top shape: 1 32 160 160 (819200)
I0408 16:36:07.146584 32323 net.cpp:139] Memory required for data: 14336000
I0408 16:36:07.146589 32323 layer_factory.hpp:77] Creating layer conv1
I0408 16:36:07.146600 32323 net.cpp:86] Creating Layer conv1
I0408 16:36:07.146620 32323 net.cpp:408] conv1 <- conv1/dw
I0408 16:36:07.146625 32323 net.cpp:382] conv1 -> conv1
I0408 16:36:07.150311 32323 net.cpp:124] Setting up conv1
I0408 16:36:07.150323 32323 net.cpp:131] Top shape: 1 64 160 160 (1638400)
I0408 16:36:07.150329 32323 net.cpp:139] Memory required for data: 20889600
I0408 16:36:07.150337 32323 layer_factory.hpp:77] Creating layer conv1/relu
I0408 16:36:07.150346 32323 net.cpp:86] Creating Layer conv1/relu
I0408 16:36:07.150348 32323 net.cpp:408] conv1/relu <- conv1
I0408 16:36:07.150352 32323 net.cpp:369] conv1/relu -> conv1 (in-place)
I0408 16:36:07.150948 32323 net.cpp:124] Setting up conv1/relu
I0408 16:36:07.150956 32323 net.cpp:131] Top shape: 1 64 160 160 (1638400)
I0408 16:36:07.150960 32323 net.cpp:139] Memory required for data: 27443200
I0408 16:36:07.150964 32323 layer_factory.hpp:77] Creating layer conv2/dw
I0408 16:36:07.150974 32323 net.cpp:86] Creating Layer conv2/dw
I0408 16:36:07.150979 32323 net.cpp:408] conv2/dw <- conv1
I0408 16:36:07.150982 32323 net.cpp:382] conv2/dw -> conv2/dw
I0408 16:36:07.152400 32323 net.cpp:124] Setting up conv2/dw
I0408 16:36:07.152410 32323 net.cpp:131] Top shape: 1 64 80 80 (409600)
I0408 16:36:07.152415 32323 net.cpp:139] Memory required for data: 29081600
I0408 16:36:07.152420 32323 layer_factory.hpp:77] Creating layer conv2/dw/relu
I0408 16:36:07.152426 32323 net.cpp:86] Creating Layer conv2/dw/relu
I0408 16:36:07.152429 32323 net.cpp:408] conv2/dw/relu <- conv2/dw
I0408 16:36:07.152433 32323 net.cpp:369] conv2/dw/relu -> conv2/dw (in-place)
I0408 16:36:07.154961 32323 net.cpp:124] Setting up conv2/dw/relu
I0408 16:36:07.154973 32323 net.cpp:131] Top shape: 1 64 80 80 (409600)
I0408 16:36:07.154978 32323 net.cpp:139] Memory required for data: 30720000
I0408 16:36:07.154981 32323 layer_factory.hpp:77] Creating layer conv2
I0408 16:36:07.154994 32323 net.cpp:86] Creating Layer conv2
I0408 16:36:07.154996 32323 net.cpp:408] conv2 <- conv2/dw
I0408 16:36:07.155001 32323 net.cpp:382] conv2 -> conv2
I0408 16:36:07.157706 32323 net.cpp:124] Setting up conv2
I0408 16:36:07.157718 32323 net.cpp:131] Top shape: 1 128 80 80 (819200)
I0408 16:36:07.157723 32323 net.cpp:139] Memory required for data: 33996800
I0408 16:36:07.157733 32323 layer_factory.hpp:77] Creating layer conv2/relu
I0408 16:36:07.157742 32323 net.cpp:86] Creating Layer conv2/relu
I0408 16:36:07.157744 32323 net.cpp:408] conv2/relu <- conv2
I0408 16:36:07.157748 32323 net.cpp:369] conv2/relu -> conv2 (in-place)
I0408 16:36:07.158321 32323 net.cpp:124] Setting up conv2/relu
I0408 16:36:07.158330 32323 net.cpp:131] Top shape: 1 128 80 80 (819200)
I0408 16:36:07.158334 32323 net.cpp:139] Memory required for data: 37273600
I0408 16:36:07.158337 32323 layer_factory.hpp:77] Creating layer conv3/dw
I0408 16:36:07.158345 32323 net.cpp:86] Creating Layer conv3/dw
I0408 16:36:07.158349 32323 net.cpp:408] conv3/dw <- conv2
I0408 16:36:07.158354 32323 net.cpp:382] conv3/dw -> conv3/dw
I0408 16:36:07.158700 32323 net.cpp:124] Setting up conv3/dw
I0408 16:36:07.158708 32323 net.cpp:131] Top shape: 1 128 80 80 (819200)
I0408 16:36:07.158713 32323 net.cpp:139] Memory required for data: 40550400
I0408 16:36:07.158720 32323 layer_factory.hpp:77] Creating layer conv3/dw/relu
I0408 16:36:07.158726 32323 net.cpp:86] Creating Layer conv3/dw/relu
I0408 16:36:07.158746 32323 net.cpp:408] conv3/dw/relu <- conv3/dw
I0408 16:36:07.158751 32323 net.cpp:369] conv3/dw/relu -> conv3/dw (in-place)
I0408 16:36:07.159603 32323 net.cpp:124] Setting up conv3/dw/relu
I0408 16:36:07.159613 32323 net.cpp:131] Top shape: 1 128 80 80 (819200)
I0408 16:36:07.159618 32323 net.cpp:139] Memory required for data: 43827200
I0408 16:36:07.159621 32323 layer_factory.hpp:77] Creating layer conv3
I0408 16:36:07.159632 32323 net.cpp:86] Creating Layer conv3
I0408 16:36:07.159651 32323 net.cpp:408] conv3 <- conv3/dw
I0408 16:36:07.159658 32323 net.cpp:382] conv3 -> conv3
I0408 16:36:07.162267 32323 net.cpp:124] Setting up conv3
I0408 16:36:07.162278 32323 net.cpp:131] Top shape: 1 128 80 80 (819200)
I0408 16:36:07.162283 32323 net.cpp:139] Memory required for data: 47104000
I0408 16:36:07.162290 32323 layer_factory.hpp:77] Creating layer conv3/relu
I0408 16:36:07.162297 32323 net.cpp:86] Creating Layer conv3/relu
I0408 16:36:07.162299 32323 net.cpp:408] conv3/relu <- conv3
I0408 16:36:07.162303 32323 net.cpp:369] conv3/relu -> conv3 (in-place)
I0408 16:36:07.162899 32323 net.cpp:124] Setting up conv3/relu
I0408 16:36:07.162909 32323 net.cpp:131] Top shape: 1 128 80 80 (819200)
I0408 16:36:07.162912 32323 net.cpp:139] Memory required for data: 50380800
I0408 16:36:07.162915 32323 layer_factory.hpp:77] Creating layer conv4/dw
I0408 16:36:07.162925 32323 net.cpp:86] Creating Layer conv4/dw
I0408 16:36:07.162930 32323 net.cpp:408] conv4/dw <- conv3
I0408 16:36:07.162935 32323 net.cpp:382] conv4/dw -> conv4/dw
I0408 16:36:07.163229 32323 net.cpp:124] Setting up conv4/dw
I0408 16:36:07.163236 32323 net.cpp:131] Top shape: 1 128 40 40 (204800)
I0408 16:36:07.163240 32323 net.cpp:139] Memory required for data: 51200000
I0408 16:36:07.163245 32323 layer_factory.hpp:77] Creating layer conv4/dw/relu
I0408 16:36:07.163252 32323 net.cpp:86] Creating Layer conv4/dw/relu
I0408 16:36:07.163255 32323 net.cpp:408] conv4/dw/relu <- conv4/dw
I0408 16:36:07.163261 32323 net.cpp:369] conv4/dw/relu -> conv4/dw (in-place)
I0408 16:36:07.165818 32323 net.cpp:124] Setting up conv4/dw/relu
I0408 16:36:07.165829 32323 net.cpp:131] Top shape: 1 128 40 40 (204800)
I0408 16:36:07.165851 32323 net.cpp:139] Memory required for data: 52019200
I0408 16:36:07.165856 32323 layer_factory.hpp:77] Creating layer conv4
I0408 16:36:07.165869 32323 net.cpp:86] Creating Layer conv4
I0408 16:36:07.165874 32323 net.cpp:408] conv4 <- conv4/dw
I0408 16:36:07.165879 32323 net.cpp:382] conv4 -> conv4
I0408 16:36:07.168712 32323 net.cpp:124] Setting up conv4
I0408 16:36:07.168723 32323 net.cpp:131] Top shape: 1 256 40 40 (409600)
I0408 16:36:07.168728 32323 net.cpp:139] Memory required for data: 53657600
I0408 16:36:07.168735 32323 layer_factory.hpp:77] Creating layer conv4/relu
I0408 16:36:07.168742 32323 net.cpp:86] Creating Layer conv4/relu
I0408 16:36:07.168745 32323 net.cpp:408] conv4/relu <- conv4
I0408 16:36:07.168750 32323 net.cpp:369] conv4/relu -> conv4 (in-place)
I0408 16:36:07.169317 32323 net.cpp:124] Setting up conv4/relu
I0408 16:36:07.169325 32323 net.cpp:131] Top shape: 1 256 40 40 (409600)
I0408 16:36:07.169329 32323 net.cpp:139] Memory required for data: 55296000
I0408 16:36:07.169332 32323 layer_factory.hpp:77] Creating layer conv5/dw
I0408 16:36:07.169343 32323 net.cpp:86] Creating Layer conv5/dw
I0408 16:36:07.169348 32323 net.cpp:408] conv5/dw <- conv4
I0408 16:36:07.169353 32323 net.cpp:382] conv5/dw -> conv5/dw
I0408 16:36:07.169692 32323 net.cpp:124] Setting up conv5/dw
I0408 16:36:07.169698 32323 net.cpp:131] Top shape: 1 256 40 40 (409600)
I0408 16:36:07.169703 32323 net.cpp:139] Memory required for data: 56934400
I0408 16:36:07.169708 32323 layer_factory.hpp:77] Creating layer conv5/dw/relu
I0408 16:36:07.169715 32323 net.cpp:86] Creating Layer conv5/dw/relu
I0408 16:36:07.169718 32323 net.cpp:408] conv5/dw/relu <- conv5/dw
I0408 16:36:07.169723 32323 net.cpp:369] conv5/dw/relu -> conv5/dw (in-place)
I0408 16:36:07.170845 32323 net.cpp:124] Setting up conv5/dw/relu
I0408 16:36:07.170855 32323 net.cpp:131] Top shape: 1 256 40 40 (409600)
I0408 16:36:07.170859 32323 net.cpp:139] Memory required for data: 58572800
I0408 16:36:07.170863 32323 layer_factory.hpp:77] Creating layer conv5
I0408 16:36:07.170874 32323 net.cpp:86] Creating Layer conv5
I0408 16:36:07.170879 32323 net.cpp:408] conv5 <- conv5/dw
I0408 16:36:07.170884 32323 net.cpp:382] conv5 -> conv5
I0408 16:36:07.174309 32323 net.cpp:124] Setting up conv5
I0408 16:36:07.174320 32323 net.cpp:131] Top shape: 1 256 40 40 (409600)
I0408 16:36:07.174338 32323 net.cpp:139] Memory required for data: 60211200
I0408 16:36:07.174345 32323 layer_factory.hpp:77] Creating layer conv5/relu
I0408 16:36:07.174352 32323 net.cpp:86] Creating Layer conv5/relu
I0408 16:36:07.174356 32323 net.cpp:408] conv5/relu <- conv5
I0408 16:36:07.174360 32323 net.cpp:369] conv5/relu -> conv5 (in-place)
I0408 16:36:07.174929 32323 net.cpp:124] Setting up conv5/relu
I0408 16:36:07.174938 32323 net.cpp:131] Top shape: 1 256 40 40 (409600)
I0408 16:36:07.174958 32323 net.cpp:139] Memory required for data: 61849600
I0408 16:36:07.174962 32323 layer_factory.hpp:77] Creating layer conv6/dw
I0408 16:36:07.174975 32323 net.cpp:86] Creating Layer conv6/dw
I0408 16:36:07.174978 32323 net.cpp:408] conv6/dw <- conv5
I0408 16:36:07.174984 32323 net.cpp:382] conv6/dw -> conv6/dw
I0408 16:36:07.175346 32323 net.cpp:124] Setting up conv6/dw
I0408 16:36:07.175352 32323 net.cpp:131] Top shape: 1 256 20 20 (102400)
I0408 16:36:07.175356 32323 net.cpp:139] Memory required for data: 62259200
I0408 16:36:07.175361 32323 layer_factory.hpp:77] Creating layer conv6/dw/relu
I0408 16:36:07.175367 32323 net.cpp:86] Creating Layer conv6/dw/relu
I0408 16:36:07.175370 32323 net.cpp:408] conv6/dw/relu <- conv6/dw
I0408 16:36:07.175374 32323 net.cpp:369] conv6/dw/relu -> conv6/dw (in-place)
I0408 16:36:07.177493 32323 net.cpp:124] Setting up conv6/dw/relu
I0408 16:36:07.177505 32323 net.cpp:131] Top shape: 1 256 20 20 (102400)
I0408 16:36:07.177510 32323 net.cpp:139] Memory required for data: 62668800
I0408 16:36:07.177513 32323 layer_factory.hpp:77] Creating layer conv6
I0408 16:36:07.177526 32323 net.cpp:86] Creating Layer conv6
I0408 16:36:07.177529 32323 net.cpp:408] conv6 <- conv6/dw
I0408 16:36:07.177536 32323 net.cpp:382] conv6 -> conv6
I0408 16:36:07.182354 32323 net.cpp:124] Setting up conv6
I0408 16:36:07.182366 32323 net.cpp:131] Top shape: 1 512 20 20 (204800)
I0408 16:36:07.182371 32323 net.cpp:139] Memory required for data: 63488000
I0408 16:36:07.182377 32323 layer_factory.hpp:77] Creating layer conv6/relu
I0408 16:36:07.182385 32323 net.cpp:86] Creating Layer conv6/relu
I0408 16:36:07.182389 32323 net.cpp:408] conv6/relu <- conv6
I0408 16:36:07.182392 32323 net.cpp:369] conv6/relu -> conv6 (in-place)
I0408 16:36:07.182956 32323 net.cpp:124] Setting up conv6/relu
I0408 16:36:07.182965 32323 net.cpp:131] Top shape: 1 512 20 20 (204800)
I0408 16:36:07.182971 32323 net.cpp:139] Memory required for data: 64307200
I0408 16:36:07.182976 32323 layer_factory.hpp:77] Creating layer conv7/dw
I0408 16:36:07.182983 32323 net.cpp:86] Creating Layer conv7/dw
I0408 16:36:07.182987 32323 net.cpp:408] conv7/dw <- conv6
I0408 16:36:07.182992 32323 net.cpp:382] conv7/dw -> conv7/dw
I0408 16:36:07.183357 32323 net.cpp:124] Setting up conv7/dw
I0408 16:36:07.183363 32323 net.cpp:131] Top shape: 1 512 20 20 (204800)
I0408 16:36:07.183367 32323 net.cpp:139] Memory required for data: 65126400
I0408 16:36:07.183372 32323 layer_factory.hpp:77] Creating layer conv7/dw/relu
I0408 16:36:07.183377 32323 net.cpp:86] Creating Layer conv7/dw/relu
I0408 16:36:07.183379 32323 net.cpp:408] conv7/dw/relu <- conv7/dw
I0408 16:36:07.183385 32323 net.cpp:369] conv7/dw/relu -> conv7/dw (in-place)
I0408 16:36:07.184219 32323 net.cpp:124] Setting up conv7/dw/relu
I0408 16:36:07.184229 32323 net.cpp:131] Top shape: 1 512 20 20 (204800)
I0408 16:36:07.184234 32323 net.cpp:139] Memory required for data: 65945600
I0408 16:36:07.184237 32323 layer_factory.hpp:77] Creating layer conv7
I0408 16:36:07.184247 32323 net.cpp:86] Creating Layer conv7
I0408 16:36:07.184250 32323 net.cpp:408] conv7 <- conv7/dw
I0408 16:36:07.184255 32323 net.cpp:382] conv7 -> conv7
I0408 16:36:07.188776 32323 net.cpp:124] Setting up conv7
I0408 16:36:07.188788 32323 net.cpp:131] Top shape: 1 512 20 20 (204800)
I0408 16:36:07.188793 32323 net.cpp:139] Memory required for data: 66764800
I0408 16:36:07.188800 32323 layer_factory.hpp:77] Creating layer conv7/relu
I0408 16:36:07.188807 32323 net.cpp:86] Creating Layer conv7/relu
I0408 16:36:07.188810 32323 net.cpp:408] conv7/relu <- conv7
I0408 16:36:07.188827 32323 net.cpp:369] conv7/relu -> conv7 (in-place)
I0408 16:36:07.189700 32323 net.cpp:124] Setting up conv7/relu
I0408 16:36:07.189712 32323 net.cpp:131] Top shape: 1 512 20 20 (204800)
I0408 16:36:07.189716 32323 net.cpp:139] Memory required for data: 67584000
I0408 16:36:07.189719 32323 layer_factory.hpp:77] Creating layer conv8/dw
I0408 16:36:07.189728 32323 net.cpp:86] Creating Layer conv8/dw
I0408 16:36:07.189733 32323 net.cpp:408] conv8/dw <- conv7
I0408 16:36:07.189738 32323 net.cpp:382] conv8/dw -> conv8/dw
I0408 16:36:07.190106 32323 net.cpp:124] Setting up conv8/dw
I0408 16:36:07.190114 32323 net.cpp:131] Top shape: 1 512 20 20 (204800)
I0408 16:36:07.190117 32323 net.cpp:139] Memory required for data: 68403200
I0408 16:36:07.190122 32323 layer_factory.hpp:77] Creating layer conv8/dw/relu
I0408 16:36:07.190132 32323 net.cpp:86] Creating Layer conv8/dw/relu
I0408 16:36:07.190135 32323 net.cpp:408] conv8/dw/relu <- conv8/dw
I0408 16:36:07.190140 32323 net.cpp:369] conv8/dw/relu -> conv8/dw (in-place)
I0408 16:36:07.191098 32323 net.cpp:124] Setting up conv8/dw/relu
I0408 16:36:07.191112 32323 net.cpp:131] Top shape: 1 512 20 20 (204800)
I0408 16:36:07.191119 32323 net.cpp:139] Memory required for data: 69222400
I0408 16:36:07.191123 32323 layer_factory.hpp:77] Creating layer conv8
I0408 16:36:07.191141 32323 net.cpp:86] Creating Layer conv8
I0408 16:36:07.191148 32323 net.cpp:408] conv8 <- conv8/dw
I0408 16:36:07.191155 32323 net.cpp:382] conv8 -> conv8
I0408 16:36:07.199597 32323 net.cpp:124] Setting up conv8
I0408 16:36:07.199610 32323 net.cpp:131] Top shape: 1 512 20 20 (204800)
I0408 16:36:07.199631 32323 net.cpp:139] Memory required for data: 70041600
I0408 16:36:07.199642 32323 layer_factory.hpp:77] Creating layer conv8/relu
I0408 16:36:07.199648 32323 net.cpp:86] Creating Layer conv8/relu
I0408 16:36:07.199651 32323 net.cpp:408] conv8/relu <- conv8
I0408 16:36:07.199659 32323 net.cpp:369] conv8/relu -> conv8 (in-place)
I0408 16:36:07.200284 32323 net.cpp:124] Setting up conv8/relu
I0408 16:36:07.200294 32323 net.cpp:131] Top shape: 1 512 20 20 (204800)
I0408 16:36:07.200314 32323 net.cpp:139] Memory required for data: 70860800
I0408 16:36:07.200317 32323 layer_factory.hpp:77] Creating layer conv9/dw
I0408 16:36:07.200330 32323 net.cpp:86] Creating Layer conv9/dw
I0408 16:36:07.200335 32323 net.cpp:408] conv9/dw <- conv8
I0408 16:36:07.200340 32323 net.cpp:382] conv9/dw -> conv9/dw
I0408 16:36:07.200767 32323 net.cpp:124] Setting up conv9/dw
I0408 16:36:07.200773 32323 net.cpp:131] Top shape: 1 512 20 20 (204800)
I0408 16:36:07.200778 32323 net.cpp:139] Memory required for data: 71680000
I0408 16:36:07.200798 32323 layer_factory.hpp:77] Creating layer conv9/dw/relu
I0408 16:36:07.200805 32323 net.cpp:86] Creating Layer conv9/dw/relu
I0408 16:36:07.200809 32323 net.cpp:408] conv9/dw/relu <- conv9/dw
I0408 16:36:07.200814 32323 net.cpp:369] conv9/dw/relu -> conv9/dw (in-place)
I0408 16:36:07.201694 32323 net.cpp:124] Setting up conv9/dw/relu
I0408 16:36:07.201704 32323 net.cpp:131] Top shape: 1 512 20 20 (204800)
I0408 16:36:07.201725 32323 net.cpp:139] Memory required for data: 72499200
I0408 16:36:07.201730 32323 layer_factory.hpp:77] Creating layer conv9
I0408 16:36:07.201743 32323 net.cpp:86] Creating Layer conv9
I0408 16:36:07.201748 32323 net.cpp:408] conv9 <- conv9/dw
I0408 16:36:07.201753 32323 net.cpp:382] conv9 -> conv9
I0408 16:36:07.206944 32323 net.cpp:124] Setting up conv9
I0408 16:36:07.206959 32323 net.cpp:131] Top shape: 1 512 20 20 (204800)
I0408 16:36:07.206966 32323 net.cpp:139] Memory required for data: 73318400
I0408 16:36:07.206974 32323 layer_factory.hpp:77] Creating layer conv9/relu
I0408 16:36:07.206980 32323 net.cpp:86] Creating Layer conv9/relu
I0408 16:36:07.206984 32323 net.cpp:408] conv9/relu <- conv9
I0408 16:36:07.206990 32323 net.cpp:369] conv9/relu -> conv9 (in-place)
I0408 16:36:07.207641 32323 net.cpp:124] Setting up conv9/relu
I0408 16:36:07.207651 32323 net.cpp:131] Top shape: 1 512 20 20 (204800)
I0408 16:36:07.207656 32323 net.cpp:139] Memory required for data: 74137600
I0408 16:36:07.207679 32323 layer_factory.hpp:77] Creating layer conv10/dw
I0408 16:36:07.207692 32323 net.cpp:86] Creating Layer conv10/dw
I0408 16:36:07.207697 32323 net.cpp:408] conv10/dw <- conv9
I0408 16:36:07.207703 32323 net.cpp:382] conv10/dw -> conv10/dw
I0408 16:36:07.208112 32323 net.cpp:124] Setting up conv10/dw
I0408 16:36:07.208119 32323 net.cpp:131] Top shape: 1 512 20 20 (204800)
I0408 16:36:07.208125 32323 net.cpp:139] Memory required for data: 74956800
I0408 16:36:07.208133 32323 layer_factory.hpp:77] Creating layer conv10/dw/relu
I0408 16:36:07.208140 32323 net.cpp:86] Creating Layer conv10/dw/relu
I0408 16:36:07.208144 32323 net.cpp:408] conv10/dw/relu <- conv10/dw
I0408 16:36:07.208149 32323 net.cpp:369] conv10/dw/relu -> conv10/dw (in-place)
I0408 16:36:07.208827 32323 net.cpp:124] Setting up conv10/dw/relu
I0408 16:36:07.208837 32323 net.cpp:131] Top shape: 1 512 20 20 (204800)
I0408 16:36:07.208842 32323 net.cpp:139] Memory required for data: 75776000
I0408 16:36:07.208845 32323 layer_factory.hpp:77] Creating layer conv10
I0408 16:36:07.208858 32323 net.cpp:86] Creating Layer conv10
I0408 16:36:07.208863 32323 net.cpp:408] conv10 <- conv10/dw
I0408 16:36:07.208868 32323 net.cpp:382] conv10 -> conv10
I0408 16:36:07.217885 32323 net.cpp:124] Setting up conv10
I0408 16:36:07.217898 32323 net.cpp:131] Top shape: 1 512 20 20 (204800)
I0408 16:36:07.217921 32323 net.cpp:139] Memory required for data: 76595200
I0408 16:36:07.217927 32323 layer_factory.hpp:77] Creating layer conv10/relu
I0408 16:36:07.217936 32323 net.cpp:86] Creating Layer conv10/relu
I0408 16:36:07.217939 32323 net.cpp:408] conv10/relu <- conv10
I0408 16:36:07.217944 32323 net.cpp:369] conv10/relu -> conv10 (in-place)
I0408 16:36:07.218608 32323 net.cpp:124] Setting up conv10/relu
I0408 16:36:07.218616 32323 net.cpp:131] Top shape: 1 512 20 20 (204800)
I0408 16:36:07.218637 32323 net.cpp:139] Memory required for data: 77414400
I0408 16:36:07.218641 32323 layer_factory.hpp:77] Creating layer conv11/dw
I0408 16:36:07.218657 32323 net.cpp:86] Creating Layer conv11/dw
I0408 16:36:07.218660 32323 net.cpp:408] conv11/dw <- conv10
I0408 16:36:07.218667 32323 net.cpp:382] conv11/dw -> conv11/dw
I0408 16:36:07.219079 32323 net.cpp:124] Setting up conv11/dw
I0408 16:36:07.219086 32323 net.cpp:131] Top shape: 1 512 20 20 (204800)
I0408 16:36:07.219106 32323 net.cpp:139] Memory required for data: 78233600
I0408 16:36:07.219112 32323 layer_factory.hpp:77] Creating layer conv11/dw/relu
I0408 16:36:07.219116 32323 net.cpp:86] Creating Layer conv11/dw/relu
I0408 16:36:07.219120 32323 net.cpp:408] conv11/dw/relu <- conv11/dw
I0408 16:36:07.219125 32323 net.cpp:369] conv11/dw/relu -> conv11/dw (in-place)
I0408 16:36:07.219758 32323 net.cpp:124] Setting up conv11/dw/relu
I0408 16:36:07.219766 32323 net.cpp:131] Top shape: 1 512 20 20 (204800)
I0408 16:36:07.219785 32323 net.cpp:139] Memory required for data: 79052800
I0408 16:36:07.219789 32323 layer_factory.hpp:77] Creating layer conv11
I0408 16:36:07.219817 32323 net.cpp:86] Creating Layer conv11
I0408 16:36:07.219821 32323 net.cpp:408] conv11 <- conv11/dw
I0408 16:36:07.219827 32323 net.cpp:382] conv11 -> conv11
I0408 16:36:07.225106 32323 net.cpp:124] Setting up conv11
I0408 16:36:07.225118 32323 net.cpp:131] Top shape: 1 512 20 20 (204800)
I0408 16:36:07.225139 32323 net.cpp:139] Memory required for data: 79872000
I0408 16:36:07.225147 32323 layer_factory.hpp:77] Creating layer conv11/relu
I0408 16:36:07.225152 32323 net.cpp:86] Creating Layer conv11/relu
I0408 16:36:07.225157 32323 net.cpp:408] conv11/relu <- conv11
I0408 16:36:07.225163 32323 net.cpp:369] conv11/relu -> conv11 (in-place)
I0408 16:36:07.225831 32323 net.cpp:124] Setting up conv11/relu
I0408 16:36:07.225839 32323 net.cpp:131] Top shape: 1 512 20 20 (204800)
I0408 16:36:07.225860 32323 net.cpp:139] Memory required for data: 80691200
I0408 16:36:07.225865 32323 layer_factory.hpp:77] Creating layer conv11_conv11/relu_0_split
I0408 16:36:07.225878 32323 net.cpp:86] Creating Layer conv11_conv11/relu_0_split
I0408 16:36:07.225911 32323 net.cpp:408] conv11_conv11/relu_0_split <- conv11
I0408 16:36:07.225917 32323 net.cpp:382] conv11_conv11/relu_0_split -> conv11_conv11/relu_0_split_0
I0408 16:36:07.225924 32323 net.cpp:382] conv11_conv11/relu_0_split -> conv11_conv11/relu_0_split_1
I0408 16:36:07.225980 32323 net.cpp:124] Setting up conv11_conv11/relu_0_split
I0408 16:36:07.225986 32323 net.cpp:131] Top shape: 1 512 20 20 (204800)
I0408 16:36:07.225991 32323 net.cpp:131] Top shape: 1 512 20 20 (204800)
I0408 16:36:07.225994 32323 net.cpp:139] Memory required for data: 82329600
I0408 16:36:07.225998 32323 layer_factory.hpp:77] Creating layer conv12/dw
I0408 16:36:07.226007 32323 net.cpp:86] Creating Layer conv12/dw
I0408 16:36:07.226011 32323 net.cpp:408] conv12/dw <- conv11_conv11/relu_0_split_0
I0408 16:36:07.226024 32323 net.cpp:382] conv12/dw -> conv12/dw
I0408 16:36:07.226430 32323 net.cpp:124] Setting up conv12/dw
I0408 16:36:07.226438 32323 net.cpp:131] Top shape: 1 512 10 10 (51200)
I0408 16:36:07.226442 32323 net.cpp:139] Memory required for data: 82534400
I0408 16:36:07.226464 32323 layer_factory.hpp:77] Creating layer conv12/dw/relu
I0408 16:36:07.226469 32323 net.cpp:86] Creating Layer conv12/dw/relu
I0408 16:36:07.226471 32323 net.cpp:408] conv12/dw/relu <- conv12/dw
I0408 16:36:07.226475 32323 net.cpp:369] conv12/dw/relu -> conv12/dw (in-place)
I0408 16:36:07.227067 32323 net.cpp:124] Setting up conv12/dw/relu
I0408 16:36:07.227075 32323 net.cpp:131] Top shape: 1 512 10 10 (51200)
I0408 16:36:07.227095 32323 net.cpp:139] Memory required for data: 82739200
I0408 16:36:07.227100 32323 layer_factory.hpp:77] Creating layer conv12
I0408 16:36:07.227113 32323 net.cpp:86] Creating Layer conv12
I0408 16:36:07.227116 32323 net.cpp:408] conv12 <- conv12/dw
I0408 16:36:07.227121 32323 net.cpp:382] conv12 -> conv12
I0408 16:36:07.238250 32323 net.cpp:124] Setting up conv12
I0408 16:36:07.238265 32323 net.cpp:131] Top shape: 1 1024 10 10 (102400)
I0408 16:36:07.238270 32323 net.cpp:139] Memory required for data: 83148800
I0408 16:36:07.238276 32323 layer_factory.hpp:77] Creating layer conv12/relu
I0408 16:36:07.238281 32323 net.cpp:86] Creating Layer conv12/relu
I0408 16:36:07.238283 32323 net.cpp:408] conv12/relu <- conv12
I0408 16:36:07.238288 32323 net.cpp:369] conv12/relu -> conv12 (in-place)
I0408 16:36:07.238855 32323 net.cpp:124] Setting up conv12/relu
I0408 16:36:07.238864 32323 net.cpp:131] Top shape: 1 1024 10 10 (102400)
I0408 16:36:07.238868 32323 net.cpp:139] Memory required for data: 83558400
I0408 16:36:07.238871 32323 layer_factory.hpp:77] Creating layer conv13/dw
I0408 16:36:07.238884 32323 net.cpp:86] Creating Layer conv13/dw
I0408 16:36:07.238888 32323 net.cpp:408] conv13/dw <- conv12
I0408 16:36:07.238893 32323 net.cpp:382] conv13/dw -> conv13/dw
I0408 16:36:07.239315 32323 net.cpp:124] Setting up conv13/dw
I0408 16:36:07.239321 32323 net.cpp:131] Top shape: 1 1024 10 10 (102400)
I0408 16:36:07.239326 32323 net.cpp:139] Memory required for data: 83968000
I0408 16:36:07.239331 32323 layer_factory.hpp:77] Creating layer conv13/dw/relu
I0408 16:36:07.239338 32323 net.cpp:86] Creating Layer conv13/dw/relu
I0408 16:36:07.239341 32323 net.cpp:408] conv13/dw/relu <- conv13/dw
I0408 16:36:07.239346 32323 net.cpp:369] conv13/dw/relu -> conv13/dw (in-place)
I0408 16:36:07.239907 32323 net.cpp:124] Setting up conv13/dw/relu
I0408 16:36:07.239915 32323 net.cpp:131] Top shape: 1 1024 10 10 (102400)
I0408 16:36:07.239919 32323 net.cpp:139] Memory required for data: 84377600
I0408 16:36:07.239923 32323 layer_factory.hpp:77] Creating layer conv13
I0408 16:36:07.239934 32323 net.cpp:86] Creating Layer conv13
I0408 16:36:07.239938 32323 net.cpp:408] conv13 <- conv13/dw
I0408 16:36:07.239943 32323 net.cpp:382] conv13 -> conv13
I0408 16:36:07.255332 32323 net.cpp:124] Setting up conv13
I0408 16:36:07.255345 32323 net.cpp:131] Top shape: 1 1024 10 10 (102400)
I0408 16:36:07.255350 32323 net.cpp:139] Memory required for data: 84787200
I0408 16:36:07.255357 32323 layer_factory.hpp:77] Creating layer conv13/relu
I0408 16:36:07.255362 32323 net.cpp:86] Creating Layer conv13/relu
I0408 16:36:07.255383 32323 net.cpp:408] conv13/relu <- conv13
I0408 16:36:07.255389 32323 net.cpp:369] conv13/relu -> conv13 (in-place)
I0408 16:36:07.255964 32323 net.cpp:124] Setting up conv13/relu
I0408 16:36:07.255971 32323 net.cpp:131] Top shape: 1 1024 10 10 (102400)
I0408 16:36:07.255976 32323 net.cpp:139] Memory required for data: 85196800
I0408 16:36:07.255980 32323 layer_factory.hpp:77] Creating layer conv15/dw
I0408 16:36:07.255988 32323 net.cpp:86] Creating Layer conv15/dw
I0408 16:36:07.255992 32323 net.cpp:408] conv15/dw <- conv13
I0408 16:36:07.255997 32323 net.cpp:382] conv15/dw -> conv15/dw
I0408 16:36:07.256419 32323 net.cpp:124] Setting up conv15/dw
I0408 16:36:07.256426 32323 net.cpp:131] Top shape: 1 1024 10 10 (102400)
I0408 16:36:07.256431 32323 net.cpp:139] Memory required for data: 85606400
I0408 16:36:07.256438 32323 layer_factory.hpp:77] Creating layer conv15/dw/relu
I0408 16:36:07.256443 32323 net.cpp:86] Creating Layer conv15/dw/relu
I0408 16:36:07.256448 32323 net.cpp:408] conv15/dw/relu <- conv15/dw
I0408 16:36:07.256450 32323 net.cpp:369] conv15/dw/relu -> conv15/dw (in-place)
I0408 16:36:07.257095 32323 net.cpp:124] Setting up conv15/dw/relu
I0408 16:36:07.257102 32323 net.cpp:131] Top shape: 1 1024 10 10 (102400)
I0408 16:36:07.257107 32323 net.cpp:139] Memory required for data: 86016000
I0408 16:36:07.257110 32323 layer_factory.hpp:77] Creating layer conv15
I0408 16:36:07.257122 32323 net.cpp:86] Creating Layer conv15
I0408 16:36:07.257124 32323 net.cpp:408] conv15 <- conv15/dw
I0408 16:36:07.257129 32323 net.cpp:382] conv15 -> conv15
I0408 16:36:07.272178 32323 net.cpp:124] Setting up conv15
I0408 16:36:07.272191 32323 net.cpp:131] Top shape: 1 1024 10 10 (102400)
I0408 16:36:07.272195 32323 net.cpp:139] Memory required for data: 86425600
I0408 16:36:07.272202 32323 layer_factory.hpp:77] Creating layer conv15/relu
I0408 16:36:07.272208 32323 net.cpp:86] Creating Layer conv15/relu
I0408 16:36:07.272212 32323 net.cpp:408] conv15/relu <- conv15
I0408 16:36:07.272217 32323 net.cpp:369] conv15/relu -> conv15 (in-place)
I0408 16:36:07.272786 32323 net.cpp:124] Setting up conv15/relu
I0408 16:36:07.272794 32323 net.cpp:131] Top shape: 1 1024 10 10 (102400)
I0408 16:36:07.272799 32323 net.cpp:139] Memory required for data: 86835200
I0408 16:36:07.272804 32323 layer_factory.hpp:77] Creating layer conv15_conv15/relu_0_split
I0408 16:36:07.272814 32323 net.cpp:86] Creating Layer conv15_conv15/relu_0_split
I0408 16:36:07.272816 32323 net.cpp:408] conv15_conv15/relu_0_split <- conv15
I0408 16:36:07.272821 32323 net.cpp:382] conv15_conv15/relu_0_split -> conv15_conv15/relu_0_split_0
I0408 16:36:07.272830 32323 net.cpp:382] conv15_conv15/relu_0_split -> conv15_conv15/relu_0_split_1
I0408 16:36:07.272899 32323 net.cpp:124] Setting up conv15_conv15/relu_0_split
I0408 16:36:07.272907 32323 net.cpp:131] Top shape: 1 1024 10 10 (102400)
I0408 16:36:07.272912 32323 net.cpp:131] Top shape: 1 1024 10 10 (102400)
I0408 16:36:07.272914 32323 net.cpp:139] Memory required for data: 87654400
I0408 16:36:07.272917 32323 layer_factory.hpp:77] Creating layer upsample
I0408 16:36:07.272928 32323 net.cpp:86] Creating Layer upsample
I0408 16:36:07.272931 32323 net.cpp:408] upsample <- conv15_conv15/relu_0_split_0
I0408 16:36:07.272936 32323 net.cpp:382] upsample -> upsample
I0408 16:36:09.005944 32323 net.cpp:124] Setting up upsample
I0408 16:36:09.005978 32323 net.cpp:131] Top shape: 1 512 19 19 (184832)
I0408 16:36:09.005991 32323 net.cpp:139] Memory required for data: 88393728
I0408 16:36:09.006013 32323 layer_factory.hpp:77] Creating layer maxpool
I0408 16:36:09.006036 32323 net.cpp:86] Creating Layer maxpool
I0408 16:36:09.006052 32323 net.cpp:408] maxpool <- upsample
I0408 16:36:09.006069 32323 net.cpp:382] maxpool -> maxpool
I0408 16:36:09.006271 32323 net.cpp:124] Setting up maxpool
I0408 16:36:09.006280 32323 net.cpp:131] Top shape: 1 512 20 20 (204800)
I0408 16:36:09.006289 32323 net.cpp:139] Memory required for data: 89212928
I0408 16:36:09.006294 32323 layer_factory.hpp:77] Creating layer conv17/dw
I0408 16:36:09.006337 32323 net.cpp:86] Creating Layer conv17/dw
I0408 16:36:09.006350 32323 net.cpp:408] conv17/dw <- conv11_conv11/relu_0_split_1
I0408 16:36:09.006366 32323 net.cpp:382] conv17/dw -> conv17/dw
I0408 16:36:09.007944 32323 net.cpp:124] Setting up conv17/dw
I0408 16:36:09.007954 32323 net.cpp:131] Top shape: 1 512 20 20 (204800)
I0408 16:36:09.007962 32323 net.cpp:139] Memory required for data: 90032128
I0408 16:36:09.007972 32323 layer_factory.hpp:77] Creating layer conv17/dw/relu
I0408 16:36:09.008008 32323 net.cpp:86] Creating Layer conv17/dw/relu
I0408 16:36:09.008015 32323 net.cpp:408] conv17/dw/relu <- conv17/dw
I0408 16:36:09.008024 32323 net.cpp:369] conv17/dw/relu -> conv17/dw (in-place)
I0408 16:36:09.008675 32323 net.cpp:124] Setting up conv17/dw/relu
I0408 16:36:09.008687 32323 net.cpp:131] Top shape: 1 512 20 20 (204800)
I0408 16:36:09.008695 32323 net.cpp:139] Memory required for data: 90851328
I0408 16:36:09.008702 32323 layer_factory.hpp:77] Creating layer conv17
I0408 16:36:09.008719 32323 net.cpp:86] Creating Layer conv17
I0408 16:36:09.008728 32323 net.cpp:408] conv17 <- conv17/dw
I0408 16:36:09.008736 32323 net.cpp:382] conv17 -> conv17
I0408 16:36:09.016517 32323 net.cpp:124] Setting up conv17
I0408 16:36:09.016531 32323 net.cpp:131] Top shape: 1 512 20 20 (204800)
I0408 16:36:09.016541 32323 net.cpp:139] Memory required for data: 91670528
I0408 16:36:09.016551 32323 layer_factory.hpp:77] Creating layer conv17/relu
I0408 16:36:09.016566 32323 net.cpp:86] Creating Layer conv17/relu
I0408 16:36:09.016575 32323 net.cpp:408] conv17/relu <- conv17
I0408 16:36:09.016583 32323 net.cpp:369] conv17/relu -> conv17 (in-place)
I0408 16:36:09.017217 32323 net.cpp:124] Setting up conv17/relu
I0408 16:36:09.017228 32323 net.cpp:131] Top shape: 1 512 20 20 (204800)
I0408 16:36:09.017236 32323 net.cpp:139] Memory required for data: 92489728
I0408 16:36:09.017244 32323 layer_factory.hpp:77] Creating layer conv17/sum
I0408 16:36:09.017261 32323 net.cpp:86] Creating Layer conv17/sum
I0408 16:36:09.017268 32323 net.cpp:408] conv17/sum <- maxpool
I0408 16:36:09.017277 32323 net.cpp:408] conv17/sum <- conv17
I0408 16:36:09.017287 32323 net.cpp:382] conv17/sum -> conv17/sum
I0408 16:36:09.017395 32323 net.cpp:124] Setting up conv17/sum
I0408 16:36:09.017410 32323 net.cpp:131] Top shape: 1 512 20 20 (204800)
I0408 16:36:09.017418 32323 net.cpp:139] Memory required for data: 93308928
I0408 16:36:09.017424 32323 layer_factory.hpp:77] Creating layer conv18/dw
I0408 16:36:09.017438 32323 net.cpp:86] Creating Layer conv18/dw
I0408 16:36:09.017446 32323 net.cpp:408] conv18/dw <- conv17/sum
I0408 16:36:09.017454 32323 net.cpp:382] conv18/dw -> conv18/dw
I0408 16:36:09.018900 32323 net.cpp:124] Setting up conv18/dw
I0408 16:36:09.018911 32323 net.cpp:131] Top shape: 1 512 20 20 (204800)
I0408 16:36:09.018919 32323 net.cpp:139] Memory required for data: 94128128
I0408 16:36:09.018956 32323 layer_factory.hpp:77] Creating layer conv18/dw/relu
I0408 16:36:09.018967 32323 net.cpp:86] Creating Layer conv18/dw/relu
I0408 16:36:09.018975 32323 net.cpp:408] conv18/dw/relu <- conv18/dw
I0408 16:36:09.018985 32323 net.cpp:369] conv18/dw/relu -> conv18/dw (in-place)
I0408 16:36:09.019635 32323 net.cpp:124] Setting up conv18/dw/relu
I0408 16:36:09.019646 32323 net.cpp:131] Top shape: 1 512 20 20 (204800)
I0408 16:36:09.019654 32323 net.cpp:139] Memory required for data: 94947328
I0408 16:36:09.019676 32323 layer_factory.hpp:77] Creating layer conv18_new
I0408 16:36:09.019693 32323 net.cpp:86] Creating Layer conv18_new
I0408 16:36:09.019701 32323 net.cpp:408] conv18_new <- conv18/dw
I0408 16:36:09.019711 32323 net.cpp:382] conv18_new -> conv18_new
I0408 16:36:09.034615 32323 net.cpp:124] Setting up conv18_new
I0408 16:36:09.034638 32323 net.cpp:131] Top shape: 1 1024 20 20 (409600)
I0408 16:36:09.034648 32323 net.cpp:139] Memory required for data: 96585728
I0408 16:36:09.034660 32323 layer_factory.hpp:77] Creating layer conv18_new/relu
I0408 16:36:09.034672 32323 net.cpp:86] Creating Layer conv18_new/relu
I0408 16:36:09.034701 32323 net.cpp:408] conv18_new/relu <- conv18_new
I0408 16:36:09.034714 32323 net.cpp:369] conv18_new/relu -> conv18_new (in-place)
I0408 16:36:09.035379 32323 net.cpp:124] Setting up conv18_new/relu
I0408 16:36:09.035392 32323 net.cpp:131] Top shape: 1 1024 20 20 (409600)
I0408 16:36:09.035400 32323 net.cpp:139] Memory required for data: 98224128
I0408 16:36:09.035406 32323 layer_factory.hpp:77] Creating layer conv19
I0408 16:36:09.035429 32323 net.cpp:86] Creating Layer conv19
I0408 16:36:09.035436 32323 net.cpp:408] conv19 <- conv15_conv15/relu_0_split_1
I0408 16:36:09.035447 32323 net.cpp:382] conv19 -> conv19
I0408 16:36:09.040508 32323 net.cpp:124] Setting up conv19
I0408 16:36:09.040521 32323 net.cpp:131] Top shape: 1 75 10 10 (7500)
I0408 16:36:09.040531 32323 net.cpp:139] Memory required for data: 98254128
I0408 16:36:09.040542 32323 layer_factory.hpp:77] Creating layer conv20
I0408 16:36:09.040560 32323 net.cpp:86] Creating Layer conv20
I0408 16:36:09.040568 32323 net.cpp:408] conv20 <- conv18_new
I0408 16:36:09.040581 32323 net.cpp:382] conv20 -> conv20
I0408 16:36:09.045163 32323 net.cpp:124] Setting up conv20
I0408 16:36:09.045177 32323 net.cpp:131] Top shape: 1 75 20 20 (30000)
I0408 16:36:09.045187 32323 net.cpp:139] Memory required for data: 98374128
I0408 16:36:09.045198 32323 net.cpp:202] conv20 does not need backward computation.
I0408 16:36:09.045213 32323 net.cpp:202] conv19 does not need backward computation.
I0408 16:36:09.045220 32323 net.cpp:202] conv18_new/relu does not need backward computation.
I0408 16:36:09.045226 32323 net.cpp:202] conv18_new does not need backward computation.
…
