I0227 16:20:06.821869 11577 caffe.cpp:339] Use GPU with device ID 1
I0227 16:20:07.465459 11577 net.cpp:296] The NetState phase (0) differed from the phase (1) specified by a rule in layer detection_out
I0227 16:20:07.465510 11577 net.cpp:53] Initializing net from parameters: 
name: "remove_bn"
state {
  phase: TRAIN
  level: 0
  stage: ""
}
layer {
  name: "data"
  type: "Input"
  top: "data"
  input_param {
    shape {
      dim: 1
      dim: 3
      dim: 320
      dim: 320
    }
  }
}
layer {
  name: "conv0"
  type: "Convolution"
  bottom: "data"
  top: "conv0"
  param {
    lr_mult: 1
    decay_mult: 1
  }
  convolution_param {
    num_output: 32
    bias_term: true
    pad: 1
    kernel_size: 3
    stride: 2
    weight_filler {
      type: "msra"
    }
  }
}
layer {
  name: "conv0/relu"
  type: "ReLU"
  bottom: "conv0"
  top: "conv0"
}
layer {
  name: "conv1/dw"
  type: "DepthwiseConvolution"
  bottom: "conv0"
  top: "conv1/dw"
  param {
    lr_mult: 1
    decay_mult: 1
  }
  convolution_param {
    num_output: 32
    bias_term: true
    pad: 1
    kernel_size: 3
    group: 32
    weight_filler {
      type: "msra"
    }
    engine: CAFFE
  }
}
layer {
  name: "conv1/dw/relu"
  type: "ReLU"
  bottom: "conv1/dw"
  top: "conv1/dw"
}
layer {
  name: "conv1"
  type: "Convolution"
  bottom: "conv1/dw"
  top: "conv1"
  param {
    lr_mult: 1
    decay_mult: 1
  }
  convolution_param {
    num_output: 64
    bias_term: true
    kernel_size: 1
    weight_filler {
      type: "msra"
    }
  }
}
layer {
  name: "conv1/relu"
  type: "ReLU"
  bottom: "conv1"
  top: "conv1"
}
layer {
  name: "conv2/dw"
  type: "DepthwiseConvolution"
  bottom: "conv1"
  top: "conv2/dw"
  param {
    lr_mult: 1
    decay_mult: 1
  }
  convolution_param {
    num_output: 64
    bias_term: true
    pad: 1
    kernel_size: 3
    group: 64
    stride: 2
    weight_filler {
      type: "msra"
    }
    engine: CAFFE
  }
}
layer {
  name: "conv2/dw/relu"
  type: "ReLU"
  bottom: "conv2/dw"
  top: "conv2/dw"
}
layer {
  name: "conv2"
  type: "Convolution"
  bottom: "conv2/dw"
  top: "conv2"
  param {
    lr_mult: 1
    decay_mult: 1
  }
  convolution_param {
    num_output: 128
    bias_term: true
    kernel_size: 1
    weight_filler {
      type: "msra"
    }
  }
}
layer {
  name: "conv2/relu"
  type: "ReLU"
  bottom: "conv2"
  top: "conv2"
}
layer {
  name: "conv3/dw"
  type: "DepthwiseConvolution"
  bottom: "conv2"
  top: "conv3/dw"
  param {
    lr_mult: 1
    decay_mult: 1
  }
  convolution_param {
    num_output: 128
    bias_term: true
    pad: 1
    kernel_size: 3
    group: 128
    weight_filler {
      type: "msra"
    }
    engine: CAFFE
  }
}
layer {
  name: "conv3/dw/relu"
  type: "ReLU"
  bottom: "conv3/dw"
  top: "conv3/dw"
}
layer {
  name: "conv3"
  type: "Convolution"
  bottom: "conv3/dw"
  top: "conv3"
  param {
    lr_mult: 1
    decay_mult: 1
  }
  convolution_param {
    num_output: 128
    bias_term: true
    kernel_size: 1
    weight_filler {
      type: "msra"
    }
  }
}
layer {
  name: "conv3/relu"
  type: "ReLU"
  bottom: "conv3"
  top: "conv3"
}
layer {
  name: "conv4/dw"
  type: "DepthwiseConvolution"
  bottom: "conv3"
  top: "conv4/dw"
  param {
    lr_mult: 1
    decay_mult: 1
  }
  convolution_param {
    num_output: 128
    bias_term: true
    pad: 1
    kernel_size: 3
    group: 128
    stride: 2
    weight_filler {
      type: "msra"
    }
    engine: CAFFE
  }
}
layer {
  name: "conv4/dw/relu"
  type: "ReLU"
  bottom: "conv4/dw"
  top: "conv4/dw"
}
layer {
  name: "conv4"
  type: "Convolution"
  bottom: "conv4/dw"
  top: "conv4"
  param {
    lr_mult: 1
    decay_mult: 1
  }
  convolution_param {
    num_output: 256
    bias_term: true
    kernel_size: 1
    weight_filler {
      type: "msra"
    }
  }
}
layer {
  name: "conv4/relu"
  type: "ReLU"
  bottom: "conv4"
  top: "conv4"
}
layer {
  name: "conv5/dw"
  type: "DepthwiseConvolution"
  bottom: "conv4"
  top: "conv5/dw"
  param {
    lr_mult: 1
    decay_mult: 1
  }
  convolution_param {
    num_output: 256
    bias_term: true
    pad: 1
    kernel_size: 3
    group: 256
    weight_filler {
      type: "msra"
    }
    engine: CAFFE
  }
}
layer {
  name: "conv5/dw/relu"
  type: "ReLU"
  bottom: "conv5/dw"
  top: "conv5/dw"
}
layer {
  name: "conv5"
  type: "Convolution"
  bottom: "conv5/dw"
  top: "conv5"
  param {
    lr_mult: 1
    decay_mult: 1
  }
  convolution_param {
    num_output: 256
    bias_term: true
    kernel_size: 1
    weight_filler {
      type: "msra"
    }
  }
}
layer {
  name: "conv5/relu"
  type: "ReLU"
  bottom: "conv5"
  top: "conv5"
}
layer {
  name: "conv6/dw"
  type: "DepthwiseConvolution"
  bottom: "conv5"
  top: "conv6/dw"
  param {
    lr_mult: 1
    decay_mult: 1
  }
  convolution_param {
    num_output: 256
    bias_term: true
    pad: 1
    kernel_size: 3
    group: 256
    stride: 2
    weight_filler {
      type: "msra"
    }
    engine: CAFFE
  }
}
layer {
  name: "conv6/dw/relu"
  type: "ReLU"
  bottom: "conv6/dw"
  top: "conv6/dw"
}
layer {
  name: "conv6"
  type: "Convolution"
  bottom: "conv6/dw"
  top: "conv6"
  param {
    lr_mult: 1
    decay_mult: 1
  }
  convolution_param {
    num_output: 512
    bias_term: true
    kernel_size: 1
    weight_filler {
      type: "msra"
    }
  }
}
layer {
  name: "conv6/relu"
  type: "ReLU"
  bottom: "conv6"
  top: "conv6"
}
layer {
  name: "conv7/dw"
  type: "DepthwiseConvolution"
  bottom: "conv6"
  top: "conv7/dw"
  param {
    lr_mult: 1
    decay_mult: 1
  }
  convolution_param {
    num_output: 512
    bias_term: true
    pad: 1
    kernel_size: 3
    group: 512
    weight_filler {
      type: "msra"
    }
    engine: CAFFE
  }
}
layer {
  name: "conv7/dw/relu"
  type: "ReLU"
  bottom: "conv7/dw"
  top: "conv7/dw"
}
layer {
  name: "conv7"
  type: "Convolution"
  bottom: "conv7/dw"
  top: "conv7"
  param {
    lr_mult: 1
    decay_mult: 1
  }
  convolution_param {
    num_output: 512
    bias_term: true
    kernel_size: 1
    weight_filler {
      type: "msra"
    }
  }
}
layer {
  name: "conv7/relu"
  type: "ReLU"
  bottom: "conv7"
  top: "conv7"
}
layer {
  name: "conv8/dw"
  type: "DepthwiseConvolution"
  bottom: "conv7"
  top: "conv8/dw"
  param {
    lr_mult: 1
    decay_mult: 1
  }
  convolution_param {
    num_output: 512
    bias_term: true
    pad: 1
    kernel_size: 3
    group: 512
    weight_filler {
      type: "msra"
    }
    engine: CAFFE
  }
}
layer {
  name: "conv8/dw/relu"
  type: "ReLU"
  bottom: "conv8/dw"
  top: "conv8/dw"
}
layer {
  name: "conv8"
  type: "Convolution"
  bottom: "conv8/dw"
  top: "conv8"
  param {
    lr_mult: 1
    decay_mult: 1
  }
  convolution_param {
    num_output: 512
    bias_term: true
    kernel_size: 1
    weight_filler {
      type: "msra"
    }
  }
}
layer {
  name: "conv8/relu"
  type: "ReLU"
  bottom: "conv8"
  top: "conv8"
}
layer {
  name: "conv9/dw"
  type: "DepthwiseConvolution"
  bottom: "conv8"
  top: "conv9/dw"
  param {
    lr_mult: 1
    decay_mult: 1
  }
  convolution_param {
    num_output: 512
    bias_term: true
    pad: 1
    kernel_size: 3
    group: 512
    weight_filler {
      type: "msra"
    }
    engine: CAFFE
  }
}
layer {
  name: "conv9/dw/relu"
  type: "ReLU"
  bottom: "conv9/dw"
  top: "conv9/dw"
}
layer {
  name: "conv9"
  type: "Convolution"
  bottom: "conv9/dw"
  top: "conv9"
  param {
    lr_mult: 1
    decay_mult: 1
  }
  convolution_param {
    num_output: 512
    bias_term: true
    kernel_size: 1
    weight_filler {
      type: "msra"
    }
  }
}
layer {
  name: "conv9/relu"
  type: "ReLU"
  bottom: "conv9"
  top: "conv9"
}
layer {
  name: "conv10/dw"
  type: "DepthwiseConvolution"
  bottom: "conv9"
  top: "conv10/dw"
  param {
    lr_mult: 1
    decay_mult: 1
  }
  convolution_param {
    num_output: 512
    bias_term: true
    pad: 1
    kernel_size: 3
    group: 512
    weight_filler {
      type: "msra"
    }
    engine: CAFFE
  }
}
layer {
  name: "conv10/dw/relu"
  type: "ReLU"
  bottom: "conv10/dw"
  top: "conv10/dw"
}
layer {
  name: "conv10"
  type: "Convolution"
  bottom: "conv10/dw"
  top: "conv10"
  param {
    lr_mult: 1
    decay_mult: 1
  }
  convolution_param {
    num_output: 512
    bias_term: true
    kernel_size: 1
    weight_filler {
      type: "msra"
    }
  }
}
layer {
  name: "conv10/relu"
  type: "ReLU"
  bottom: "conv10"
  top: "conv10"
}
layer {
  name: "conv11/dw"
  type: "DepthwiseConvolution"
  bottom: "conv10"
  top: "conv11/dw"
  param {
    lr_mult: 1
    decay_mult: 1
  }
  convolution_param {
    num_output: 512
    bias_term: true
    pad: 1
    kernel_size: 3
    group: 512
    weight_filler {
      type: "msra"
    }
    engine: CAFFE
  }
}
layer {
  name: "conv11/dw/relu"
  type: "ReLU"
  bottom: "conv11/dw"
  top: "conv11/dw"
}
layer {
  name: "conv11"
  type: "Convolution"
  bottom: "conv11/dw"
  top: "conv11"
  param {
    lr_mult: 1
    decay_mult: 1
  }
  convolution_param {
    num_output: 512
    bias_term: true
    kernel_size: 1
    weight_filler {
      type: "msra"
    }
  }
}
layer {
  name: "conv11/relu"
  type: "ReLU"
  bottom: "conv11"
  top: "conv11"
}
layer {
  name: "conv12/dw"
  type: "DepthwiseConvolution"
  bottom: "conv11"
  top: "conv12/dw"
  param {
    lr_mult: 1
    decay_mult: 1
  }
  convolution_param {
    num_output: 512
    bias_term: true
    pad: 1
    kernel_size: 3
    group: 512
    stride: 2
    weight_filler {
      type: "msra"
    }
    engine: CAFFE
  }
}
layer {
  name: "conv12/dw/relu"
  type: "ReLU"
  bottom: "conv12/dw"
  top: "conv12/dw"
}
layer {
  name: "conv12"
  type: "Convolution"
  bottom: "conv12/dw"
  top: "conv12"
  param {
    lr_mult: 1
    decay_mult: 1
  }
  convolution_param {
    num_output: 1024
    bias_term: true
    kernel_size: 1
    weight_filler {
      type: "msra"
    }
  }
}
layer {
  name: "conv12/relu"
  type: "ReLU"
  bottom: "conv12"
  top: "conv12"
}
layer {
  name: "conv13/dw"
  type: "DepthwiseConvolution"
  bottom: "conv12"
  top: "conv13/dw"
  param {
    lr_mult: 1
    decay_mult: 1
  }
  convolution_param {
    num_output: 1024
    bias_term: true
    pad: 1
    kernel_size: 3
    group: 1024
    weight_filler {
      type: "msra"
    }
    engine: CAFFE
  }
}
layer {
  name: "conv13/dw/relu"
  type: "ReLU"
  bottom: "conv13/dw"
  top: "conv13/dw"
}
layer {
  name: "conv13"
  type: "Convolution"
  bottom: "conv13/dw"
  top: "conv13"
  param {
    lr_mult: 1
    decay_mult: 1
  }
  convolution_param {
    num_output: 1024
    bias_term: true
    kernel_size: 1
    weight_filler {
      type: "msra"
    }
  }
}
layer {
  name: "conv13/relu"
  type: "ReLU"
  bottom: "conv13"
  top: "conv13"
}
layer {
  name: "conv15/dw"
  type: "DepthwiseConvolution"
  bottom: "conv13"
  top: "conv15/dw"
  param {
    lr_mult: 1
    decay_mult: 1
  }
  convolution_param {
    num_output: 1024
    bias_term: true
    pad: 1
    kernel_size: 3
    group: 1024
    weight_filler {
      type: "msra"
    }
    engine: CAFFE
  }
}
layer {
  name: "conv15/dw/relu"
  type: "ReLU"
  bottom: "conv15/dw"
  top: "conv15/dw"
}
layer {
  name: "conv15"
  type: "Convolution"
  bottom: "conv15/dw"
  top: "conv15"
  param {
    lr_mult: 1
    decay_mult: 1
  }
  convolution_param {
    num_output: 1024
    bias_term: true
    kernel_size: 1
    weight_filler {
      type: "msra"
    }
  }
}
layer {
  name: "conv15/relu"
  type: "ReLU"
  bottom: "conv15"
  top: "conv15"
}
layer {
  name: "upsample"
  type: "Deconvolution"
  bottom: "conv15"
  top: "upsample"
  param {
    lr_mult: 0
    decay_mult: 0
  }
  convolution_param {
    num_output: 512
    bias_term: false
    pad: 0
    kernel_size: 1
    group: 512
    stride: 2
    weight_filler {
      type: "constant"
      value: 1
    }
  }
}
layer {
  name: "maxpool"
  type: "Pooling"
  bottom: "upsample"
  top: "maxpool"
  pooling_param {
    pool: MAX
    kernel_size: 2
    stride: 1
    pad: 1
  }
}
layer {
  name: "conv17/dw"
  type: "DepthwiseConvolution"
  bottom: "conv11"
  top: "conv17/dw"
  param {
    lr_mult: 1
    decay_mult: 1
  }
  convolution_param {
    num_output: 512
    bias_term: true
    pad: 1
    kernel_size: 3
    group: 512
    weight_filler {
      type: "msra"
    }
    engine: CAFFE
  }
}
layer {
  name: "conv17/dw/relu"
  type: "ReLU"
  bottom: "conv17/dw"
  top: "conv17/dw"
}
layer {
  name: "conv17"
  type: "Convolution"
  bottom: "conv17/dw"
  top: "conv17"
  param {
    lr_mult: 1
    decay_mult: 1
  }
  convolution_param {
    num_output: 512
    bias_term: true
    kernel_size: 1
    weight_filler {
      type: "msra"
    }
  }
}
layer {
  name: "conv17/relu"
  type: "ReLU"
  bottom: "conv17"
  top: "conv17"
}
layer {
  name: "conv17/sum"
  type: "Eltwise"
  bottom: "maxpool"
  bottom: "conv17"
  top: "conv17/sum"
}
layer {
  name: "conv18/dw"
  type: "DepthwiseConvolution"
  bottom: "conv17/sum"
  top: "conv18/dw"
  param {
    lr_mult: 1
    decay_mult: 1
  }
  convolution_param {
    num_output: 512
    bias_term: true
    pad: 1
    kernel_size: 3
    group: 512
    weight_filler {
      type: "msra"
    }
    engine: CAFFE
  }
}
layer {
  name: "conv18/dw/relu"
  type: "ReLU"
  bottom: "conv18/dw"
  top: "conv18/dw"
}
layer {
  name: "conv18_new"
  type: "Convolution"
  bottom: "conv18/dw"
  top: "conv18_new"
  param {
    lr_mult: 1
    decay_mult: 1
  }
  convolution_param {
    num_output: 1024
    bias_term: true
    kernel_size: 1
    weight_filler {
      type: "msra"
    }
  }
}
layer {
  name: "conv18_new/relu"
  type: "ReLU"
  bottom: "conv18_new"
  top: "conv18_new"
}
layer {
  name: "conv19"
  type: "Convolution"
  bottom: "conv15"
  top: "conv19"
  param {
    lr_mult: 1
    decay_mult: 1
  }
  param {
    lr_mult: 2
    decay_mult: 0
  }
  convolution_param {
    num_output: 75
    bias_term: true
    pad: 0
    kernel_size: 1
    stride: 1
    weight_filler {
      type: "xavier"
    }
    bias_filler {
      value: 0
    }
  }
}
layer {
  name: "conv20"
  type: "Convolution"
  bottom: "conv18_new"
  top: "conv20"
  param {
    lr_mult: 1
    decay_mult: 1
  }
  param {
    lr_mult: 2
    decay_mult: 0
  }
  convolution_param {
    num_output: 75
    bias_term: true
    pad: 0
    kernel_size: 1
    stride: 1
    weight_filler {
      type: "xavier"
    }
    bias_filler {
      value: 0
    }
  }
}
I0227 16:20:07.466248 11577 layer_factory.hpp:77] Creating layer data
I0227 16:20:07.466274 11577 net.cpp:86] Creating Layer data
I0227 16:20:07.466281 11577 net.cpp:382] data -> data
I0227 16:20:07.478492 11577 net.cpp:124] Setting up data
I0227 16:20:07.478507 11577 net.cpp:131] Top shape: 1 3 320 320 (307200)
I0227 16:20:07.478530 11577 net.cpp:139] Memory required for data: 1228800
I0227 16:20:07.478538 11577 layer_factory.hpp:77] Creating layer conv0
I0227 16:20:07.478576 11577 net.cpp:86] Creating Layer conv0
I0227 16:20:07.478585 11577 net.cpp:408] conv0 <- data
I0227 16:20:07.478600 11577 net.cpp:382] conv0 -> conv0
I0227 16:20:08.883497 11577 net.cpp:124] Setting up conv0
I0227 16:20:08.883548 11577 net.cpp:131] Top shape: 1 32 160 160 (819200)
I0227 16:20:08.883572 11577 net.cpp:139] Memory required for data: 4505600
I0227 16:20:08.883625 11577 layer_factory.hpp:77] Creating layer conv0/relu
I0227 16:20:08.883677 11577 net.cpp:86] Creating Layer conv0/relu
I0227 16:20:08.883684 11577 net.cpp:408] conv0/relu <- conv0
I0227 16:20:08.883693 11577 net.cpp:369] conv0/relu -> conv0 (in-place)
I0227 16:20:08.884244 11577 net.cpp:124] Setting up conv0/relu
I0227 16:20:08.884254 11577 net.cpp:131] Top shape: 1 32 160 160 (819200)
I0227 16:20:08.884275 11577 net.cpp:139] Memory required for data: 7782400
I0227 16:20:08.884280 11577 layer_factory.hpp:77] Creating layer conv1/dw
I0227 16:20:08.884301 11577 net.cpp:86] Creating Layer conv1/dw
I0227 16:20:08.884305 11577 net.cpp:408] conv1/dw <- conv0
I0227 16:20:08.884327 11577 net.cpp:382] conv1/dw -> conv1/dw
I0227 16:20:08.884809 11577 net.cpp:124] Setting up conv1/dw
I0227 16:20:08.884816 11577 net.cpp:131] Top shape: 1 32 160 160 (819200)
I0227 16:20:08.884837 11577 net.cpp:139] Memory required for data: 11059200
I0227 16:20:08.884846 11577 layer_factory.hpp:77] Creating layer conv1/dw/relu
I0227 16:20:08.884853 11577 net.cpp:86] Creating Layer conv1/dw/relu
I0227 16:20:08.884857 11577 net.cpp:408] conv1/dw/relu <- conv1/dw
I0227 16:20:08.884861 11577 net.cpp:369] conv1/dw/relu -> conv1/dw (in-place)
I0227 16:20:08.885726 11577 net.cpp:124] Setting up conv1/dw/relu
I0227 16:20:08.885738 11577 net.cpp:131] Top shape: 1 32 160 160 (819200)
I0227 16:20:08.885804 11577 net.cpp:139] Memory required for data: 14336000
I0227 16:20:08.885809 11577 layer_factory.hpp:77] Creating layer conv1
I0227 16:20:08.885844 11577 net.cpp:86] Creating Layer conv1
I0227 16:20:08.885849 11577 net.cpp:408] conv1 <- conv1/dw
I0227 16:20:08.885857 11577 net.cpp:382] conv1 -> conv1
I0227 16:20:08.889715 11577 net.cpp:124] Setting up conv1
I0227 16:20:08.889727 11577 net.cpp:131] Top shape: 1 64 160 160 (1638400)
I0227 16:20:08.889748 11577 net.cpp:139] Memory required for data: 20889600
I0227 16:20:08.889760 11577 layer_factory.hpp:77] Creating layer conv1/relu
I0227 16:20:08.889775 11577 net.cpp:86] Creating Layer conv1/relu
I0227 16:20:08.889778 11577 net.cpp:408] conv1/relu <- conv1
I0227 16:20:08.889782 11577 net.cpp:369] conv1/relu -> conv1 (in-place)
I0227 16:20:08.890480 11577 net.cpp:124] Setting up conv1/relu
I0227 16:20:08.890487 11577 net.cpp:131] Top shape: 1 64 160 160 (1638400)
I0227 16:20:08.890508 11577 net.cpp:139] Memory required for data: 27443200
I0227 16:20:08.890511 11577 layer_factory.hpp:77] Creating layer conv2/dw
I0227 16:20:08.890523 11577 net.cpp:86] Creating Layer conv2/dw
I0227 16:20:08.890527 11577 net.cpp:408] conv2/dw <- conv1
I0227 16:20:08.890548 11577 net.cpp:382] conv2/dw -> conv2/dw
I0227 16:20:08.892156 11577 net.cpp:124] Setting up conv2/dw
I0227 16:20:08.892168 11577 net.cpp:131] Top shape: 1 64 80 80 (409600)
I0227 16:20:08.892189 11577 net.cpp:139] Memory required for data: 29081600
I0227 16:20:08.892196 11577 layer_factory.hpp:77] Creating layer conv2/dw/relu
I0227 16:20:08.892206 11577 net.cpp:86] Creating Layer conv2/dw/relu
I0227 16:20:08.892210 11577 net.cpp:408] conv2/dw/relu <- conv2/dw
I0227 16:20:08.892235 11577 net.cpp:369] conv2/dw/relu -> conv2/dw (in-place)
I0227 16:20:08.894803 11577 net.cpp:124] Setting up conv2/dw/relu
I0227 16:20:08.894815 11577 net.cpp:131] Top shape: 1 64 80 80 (409600)
I0227 16:20:08.894836 11577 net.cpp:139] Memory required for data: 30720000
I0227 16:20:08.894840 11577 layer_factory.hpp:77] Creating layer conv2
I0227 16:20:08.894855 11577 net.cpp:86] Creating Layer conv2
I0227 16:20:08.894860 11577 net.cpp:408] conv2 <- conv2/dw
I0227 16:20:08.894866 11577 net.cpp:382] conv2 -> conv2
I0227 16:20:08.897625 11577 net.cpp:124] Setting up conv2
I0227 16:20:08.897637 11577 net.cpp:131] Top shape: 1 128 80 80 (819200)
I0227 16:20:08.897658 11577 net.cpp:139] Memory required for data: 33996800
I0227 16:20:08.897672 11577 layer_factory.hpp:77] Creating layer conv2/relu
I0227 16:20:08.897680 11577 net.cpp:86] Creating Layer conv2/relu
I0227 16:20:08.897683 11577 net.cpp:408] conv2/relu <- conv2
I0227 16:20:08.897687 11577 net.cpp:369] conv2/relu -> conv2 (in-place)
I0227 16:20:08.898351 11577 net.cpp:124] Setting up conv2/relu
I0227 16:20:08.898361 11577 net.cpp:131] Top shape: 1 128 80 80 (819200)
I0227 16:20:08.898366 11577 net.cpp:139] Memory required for data: 37273600
I0227 16:20:08.898370 11577 layer_factory.hpp:77] Creating layer conv3/dw
I0227 16:20:08.898381 11577 net.cpp:86] Creating Layer conv3/dw
I0227 16:20:08.898386 11577 net.cpp:408] conv3/dw <- conv2
I0227 16:20:08.898392 11577 net.cpp:382] conv3/dw -> conv3/dw
I0227 16:20:08.898692 11577 net.cpp:124] Setting up conv3/dw
I0227 16:20:08.898699 11577 net.cpp:131] Top shape: 1 128 80 80 (819200)
I0227 16:20:08.898720 11577 net.cpp:139] Memory required for data: 40550400
I0227 16:20:08.898725 11577 layer_factory.hpp:77] Creating layer conv3/dw/relu
I0227 16:20:08.898733 11577 net.cpp:86] Creating Layer conv3/dw/relu
I0227 16:20:08.898736 11577 net.cpp:408] conv3/dw/relu <- conv3/dw
I0227 16:20:08.898743 11577 net.cpp:369] conv3/dw/relu -> conv3/dw (in-place)
I0227 16:20:08.899541 11577 net.cpp:124] Setting up conv3/dw/relu
I0227 16:20:08.899551 11577 net.cpp:131] Top shape: 1 128 80 80 (819200)
I0227 16:20:08.899556 11577 net.cpp:139] Memory required for data: 43827200
I0227 16:20:08.899577 11577 layer_factory.hpp:77] Creating layer conv3
I0227 16:20:08.899592 11577 net.cpp:86] Creating Layer conv3
I0227 16:20:08.899613 11577 net.cpp:408] conv3 <- conv3/dw
I0227 16:20:08.899621 11577 net.cpp:382] conv3 -> conv3
I0227 16:20:08.902354 11577 net.cpp:124] Setting up conv3
I0227 16:20:08.902365 11577 net.cpp:131] Top shape: 1 128 80 80 (819200)
I0227 16:20:08.902371 11577 net.cpp:139] Memory required for data: 47104000
I0227 16:20:08.902395 11577 layer_factory.hpp:77] Creating layer conv3/relu
I0227 16:20:08.902402 11577 net.cpp:86] Creating Layer conv3/relu
I0227 16:20:08.902406 11577 net.cpp:408] conv3/relu <- conv3
I0227 16:20:08.902411 11577 net.cpp:369] conv3/relu -> conv3 (in-place)
I0227 16:20:08.903028 11577 net.cpp:124] Setting up conv3/relu
I0227 16:20:08.903036 11577 net.cpp:131] Top shape: 1 128 80 80 (819200)
I0227 16:20:08.903041 11577 net.cpp:139] Memory required for data: 50380800
I0227 16:20:08.903060 11577 layer_factory.hpp:77] Creating layer conv4/dw
I0227 16:20:08.903072 11577 net.cpp:86] Creating Layer conv4/dw
I0227 16:20:08.903077 11577 net.cpp:408] conv4/dw <- conv3
I0227 16:20:08.903086 11577 net.cpp:382] conv4/dw -> conv4/dw
I0227 16:20:08.903405 11577 net.cpp:124] Setting up conv4/dw
I0227 16:20:08.903414 11577 net.cpp:131] Top shape: 1 128 40 40 (204800)
I0227 16:20:08.903417 11577 net.cpp:139] Memory required for data: 51200000
I0227 16:20:08.903441 11577 layer_factory.hpp:77] Creating layer conv4/dw/relu
I0227 16:20:08.903453 11577 net.cpp:86] Creating Layer conv4/dw/relu
I0227 16:20:08.903462 11577 net.cpp:408] conv4/dw/relu <- conv4/dw
I0227 16:20:08.903467 11577 net.cpp:369] conv4/dw/relu -> conv4/dw (in-place)
I0227 16:20:08.905864 11577 net.cpp:124] Setting up conv4/dw/relu
I0227 16:20:08.905877 11577 net.cpp:131] Top shape: 1 128 40 40 (204800)
I0227 16:20:08.905882 11577 net.cpp:139] Memory required for data: 52019200
I0227 16:20:08.905886 11577 layer_factory.hpp:77] Creating layer conv4
I0227 16:20:08.905900 11577 net.cpp:86] Creating Layer conv4
I0227 16:20:08.905905 11577 net.cpp:408] conv4 <- conv4/dw
I0227 16:20:08.905911 11577 net.cpp:382] conv4 -> conv4
I0227 16:20:08.908871 11577 net.cpp:124] Setting up conv4
I0227 16:20:08.908885 11577 net.cpp:131] Top shape: 1 256 40 40 (409600)
I0227 16:20:08.908890 11577 net.cpp:139] Memory required for data: 53657600
I0227 16:20:08.908900 11577 layer_factory.hpp:77] Creating layer conv4/relu
I0227 16:20:08.908907 11577 net.cpp:86] Creating Layer conv4/relu
I0227 16:20:08.908915 11577 net.cpp:408] conv4/relu <- conv4
I0227 16:20:08.908921 11577 net.cpp:369] conv4/relu -> conv4 (in-place)
I0227 16:20:08.909528 11577 net.cpp:124] Setting up conv4/relu
I0227 16:20:08.909538 11577 net.cpp:131] Top shape: 1 256 40 40 (409600)
I0227 16:20:08.909543 11577 net.cpp:139] Memory required for data: 55296000
I0227 16:20:08.909545 11577 layer_factory.hpp:77] Creating layer conv5/dw
I0227 16:20:08.909560 11577 net.cpp:86] Creating Layer conv5/dw
I0227 16:20:08.909565 11577 net.cpp:408] conv5/dw <- conv4
I0227 16:20:08.909571 11577 net.cpp:382] conv5/dw -> conv5/dw
I0227 16:20:08.909891 11577 net.cpp:124] Setting up conv5/dw
I0227 16:20:08.909898 11577 net.cpp:131] Top shape: 1 256 40 40 (409600)
I0227 16:20:08.909904 11577 net.cpp:139] Memory required for data: 56934400
I0227 16:20:08.909909 11577 layer_factory.hpp:77] Creating layer conv5/dw/relu
I0227 16:20:08.909915 11577 net.cpp:86] Creating Layer conv5/dw/relu
I0227 16:20:08.909919 11577 net.cpp:408] conv5/dw/relu <- conv5/dw
I0227 16:20:08.909922 11577 net.cpp:369] conv5/dw/relu -> conv5/dw (in-place)
I0227 16:20:08.910751 11577 net.cpp:124] Setting up conv5/dw/relu
I0227 16:20:08.910763 11577 net.cpp:131] Top shape: 1 256 40 40 (409600)
I0227 16:20:08.910768 11577 net.cpp:139] Memory required for data: 58572800
I0227 16:20:08.910771 11577 layer_factory.hpp:77] Creating layer conv5
I0227 16:20:08.910787 11577 net.cpp:86] Creating Layer conv5
I0227 16:20:08.910792 11577 net.cpp:408] conv5 <- conv5/dw
I0227 16:20:08.910799 11577 net.cpp:382] conv5 -> conv5
I0227 16:20:08.914089 11577 net.cpp:124] Setting up conv5
I0227 16:20:08.914103 11577 net.cpp:131] Top shape: 1 256 40 40 (409600)
I0227 16:20:08.914124 11577 net.cpp:139] Memory required for data: 60211200
I0227 16:20:08.914134 11577 layer_factory.hpp:77] Creating layer conv5/relu
I0227 16:20:08.914140 11577 net.cpp:86] Creating Layer conv5/relu
I0227 16:20:08.914144 11577 net.cpp:408] conv5/relu <- conv5
I0227 16:20:08.914151 11577 net.cpp:369] conv5/relu -> conv5 (in-place)
I0227 16:20:08.914762 11577 net.cpp:124] Setting up conv5/relu
I0227 16:20:08.914772 11577 net.cpp:131] Top shape: 1 256 40 40 (409600)
I0227 16:20:08.914777 11577 net.cpp:139] Memory required for data: 61849600
I0227 16:20:08.914782 11577 layer_factory.hpp:77] Creating layer conv6/dw
I0227 16:20:08.914798 11577 net.cpp:86] Creating Layer conv6/dw
I0227 16:20:08.914803 11577 net.cpp:408] conv6/dw <- conv5
I0227 16:20:08.914809 11577 net.cpp:382] conv6/dw -> conv6/dw
I0227 16:20:08.915163 11577 net.cpp:124] Setting up conv6/dw
I0227 16:20:08.915171 11577 net.cpp:131] Top shape: 1 256 20 20 (102400)
I0227 16:20:08.915175 11577 net.cpp:139] Memory required for data: 62259200
I0227 16:20:08.915182 11577 layer_factory.hpp:77] Creating layer conv6/dw/relu
I0227 16:20:08.915189 11577 net.cpp:86] Creating Layer conv6/dw/relu
I0227 16:20:08.915194 11577 net.cpp:408] conv6/dw/relu <- conv6/dw
I0227 16:20:08.915199 11577 net.cpp:369] conv6/dw/relu -> conv6/dw (in-place)
I0227 16:20:08.917589 11577 net.cpp:124] Setting up conv6/dw/relu
I0227 16:20:08.917603 11577 net.cpp:131] Top shape: 1 256 20 20 (102400)
I0227 16:20:08.917608 11577 net.cpp:139] Memory required for data: 62668800
I0227 16:20:08.917611 11577 layer_factory.hpp:77] Creating layer conv6
I0227 16:20:08.917626 11577 net.cpp:86] Creating Layer conv6
I0227 16:20:08.917632 11577 net.cpp:408] conv6 <- conv6/dw
I0227 16:20:08.917641 11577 net.cpp:382] conv6 -> conv6
I0227 16:20:08.922907 11577 net.cpp:124] Setting up conv6
I0227 16:20:08.922921 11577 net.cpp:131] Top shape: 1 512 20 20 (204800)
I0227 16:20:08.922926 11577 net.cpp:139] Memory required for data: 63488000
I0227 16:20:08.922936 11577 layer_factory.hpp:77] Creating layer conv6/relu
I0227 16:20:08.922943 11577 net.cpp:86] Creating Layer conv6/relu
I0227 16:20:08.922947 11577 net.cpp:408] conv6/relu <- conv6
I0227 16:20:08.922952 11577 net.cpp:369] conv6/relu -> conv6 (in-place)
I0227 16:20:08.923583 11577 net.cpp:124] Setting up conv6/relu
I0227 16:20:08.923593 11577 net.cpp:131] Top shape: 1 512 20 20 (204800)
I0227 16:20:08.923597 11577 net.cpp:139] Memory required for data: 64307200
I0227 16:20:08.923600 11577 layer_factory.hpp:77] Creating layer conv7/dw
I0227 16:20:08.923611 11577 net.cpp:86] Creating Layer conv7/dw
I0227 16:20:08.923616 11577 net.cpp:408] conv7/dw <- conv6
I0227 16:20:08.923625 11577 net.cpp:382] conv7/dw -> conv7/dw
I0227 16:20:08.923992 11577 net.cpp:124] Setting up conv7/dw
I0227 16:20:08.924000 11577 net.cpp:131] Top shape: 1 512 20 20 (204800)
I0227 16:20:08.924005 11577 net.cpp:139] Memory required for data: 65126400
I0227 16:20:08.924011 11577 layer_factory.hpp:77] Creating layer conv7/dw/relu
I0227 16:20:08.924016 11577 net.cpp:86] Creating Layer conv7/dw/relu
I0227 16:20:08.924021 11577 net.cpp:408] conv7/dw/relu <- conv7/dw
I0227 16:20:08.924024 11577 net.cpp:369] conv7/dw/relu -> conv7/dw (in-place)
I0227 16:20:08.924844 11577 net.cpp:124] Setting up conv7/dw/relu
I0227 16:20:08.924859 11577 net.cpp:131] Top shape: 1 512 20 20 (204800)
I0227 16:20:08.924880 11577 net.cpp:139] Memory required for data: 65945600
I0227 16:20:08.924883 11577 layer_factory.hpp:77] Creating layer conv7
I0227 16:20:08.924897 11577 net.cpp:86] Creating Layer conv7
I0227 16:20:08.924901 11577 net.cpp:408] conv7 <- conv7/dw
I0227 16:20:08.924911 11577 net.cpp:382] conv7 -> conv7
I0227 16:20:08.930689 11577 net.cpp:124] Setting up conv7
I0227 16:20:08.930704 11577 net.cpp:131] Top shape: 1 512 20 20 (204800)
I0227 16:20:08.930711 11577 net.cpp:139] Memory required for data: 66764800
I0227 16:20:08.930719 11577 layer_factory.hpp:77] Creating layer conv7/relu
I0227 16:20:08.930728 11577 net.cpp:86] Creating Layer conv7/relu
I0227 16:20:08.930733 11577 net.cpp:408] conv7/relu <- conv7
I0227 16:20:08.930757 11577 net.cpp:369] conv7/relu -> conv7 (in-place)
I0227 16:20:08.931659 11577 net.cpp:124] Setting up conv7/relu
I0227 16:20:08.931671 11577 net.cpp:131] Top shape: 1 512 20 20 (204800)
I0227 16:20:08.931677 11577 net.cpp:139] Memory required for data: 67584000
I0227 16:20:08.931681 11577 layer_factory.hpp:77] Creating layer conv8/dw
I0227 16:20:08.931696 11577 net.cpp:86] Creating Layer conv8/dw
I0227 16:20:08.931706 11577 net.cpp:408] conv8/dw <- conv7
I0227 16:20:08.931718 11577 net.cpp:382] conv8/dw -> conv8/dw
I0227 16:20:08.932267 11577 net.cpp:124] Setting up conv8/dw
I0227 16:20:08.932281 11577 net.cpp:131] Top shape: 1 512 20 20 (204800)
I0227 16:20:08.932289 11577 net.cpp:139] Memory required for data: 68403200
I0227 16:20:08.932301 11577 layer_factory.hpp:77] Creating layer conv8/dw/relu
I0227 16:20:08.932324 11577 net.cpp:86] Creating Layer conv8/dw/relu
I0227 16:20:08.932330 11577 net.cpp:408] conv8/dw/relu <- conv8/dw
I0227 16:20:08.932339 11577 net.cpp:369] conv8/dw/relu -> conv8/dw (in-place)
I0227 16:20:08.933255 11577 net.cpp:124] Setting up conv8/dw/relu
I0227 16:20:08.933269 11577 net.cpp:131] Top shape: 1 512 20 20 (204800)
I0227 16:20:08.933277 11577 net.cpp:139] Memory required for data: 69222400
I0227 16:20:08.933286 11577 layer_factory.hpp:77] Creating layer conv8
I0227 16:20:08.933306 11577 net.cpp:86] Creating Layer conv8
I0227 16:20:08.933315 11577 net.cpp:408] conv8 <- conv8/dw
I0227 16:20:08.933326 11577 net.cpp:382] conv8 -> conv8
I0227 16:20:08.942991 11577 net.cpp:124] Setting up conv8
I0227 16:20:08.943006 11577 net.cpp:131] Top shape: 1 512 20 20 (204800)
I0227 16:20:08.943015 11577 net.cpp:139] Memory required for data: 70041600
I0227 16:20:08.943042 11577 layer_factory.hpp:77] Creating layer conv8/relu
I0227 16:20:08.943053 11577 net.cpp:86] Creating Layer conv8/relu
I0227 16:20:08.943059 11577 net.cpp:408] conv8/relu <- conv8
I0227 16:20:08.943068 11577 net.cpp:369] conv8/relu -> conv8 (in-place)
I0227 16:20:08.943770 11577 net.cpp:124] Setting up conv8/relu
I0227 16:20:08.943783 11577 net.cpp:131] Top shape: 1 512 20 20 (204800)
I0227 16:20:08.943790 11577 net.cpp:139] Memory required for data: 70860800
I0227 16:20:08.943797 11577 layer_factory.hpp:77] Creating layer conv9/dw
I0227 16:20:08.943815 11577 net.cpp:86] Creating Layer conv9/dw
I0227 16:20:08.943822 11577 net.cpp:408] conv9/dw <- conv8
I0227 16:20:08.943835 11577 net.cpp:382] conv9/dw -> conv9/dw
I0227 16:20:08.944383 11577 net.cpp:124] Setting up conv9/dw
I0227 16:20:08.944399 11577 net.cpp:131] Top shape: 1 512 20 20 (204800)
I0227 16:20:08.944407 11577 net.cpp:139] Memory required for data: 71680000
I0227 16:20:08.944422 11577 layer_factory.hpp:77] Creating layer conv9/dw/relu
I0227 16:20:08.944435 11577 net.cpp:86] Creating Layer conv9/dw/relu
I0227 16:20:08.944443 11577 net.cpp:408] conv9/dw/relu <- conv9/dw
I0227 16:20:08.944452 11577 net.cpp:369] conv9/dw/relu -> conv9/dw (in-place)
I0227 16:20:08.945462 11577 net.cpp:124] Setting up conv9/dw/relu
I0227 16:20:08.945477 11577 net.cpp:131] Top shape: 1 512 20 20 (204800)
I0227 16:20:08.945482 11577 net.cpp:139] Memory required for data: 72499200
I0227 16:20:08.945487 11577 layer_factory.hpp:77] Creating layer conv9
I0227 16:20:08.945503 11577 net.cpp:86] Creating Layer conv9
I0227 16:20:08.945509 11577 net.cpp:408] conv9 <- conv9/dw
I0227 16:20:08.945518 11577 net.cpp:382] conv9 -> conv9
I0227 16:20:08.951480 11577 net.cpp:124] Setting up conv9
I0227 16:20:08.951494 11577 net.cpp:131] Top shape: 1 512 20 20 (204800)
I0227 16:20:08.951500 11577 net.cpp:139] Memory required for data: 73318400
I0227 16:20:08.951508 11577 layer_factory.hpp:77] Creating layer conv9/relu
I0227 16:20:08.951520 11577 net.cpp:86] Creating Layer conv9/relu
I0227 16:20:08.951525 11577 net.cpp:408] conv9/relu <- conv9
I0227 16:20:08.951530 11577 net.cpp:369] conv9/relu -> conv9 (in-place)
I0227 16:20:08.952311 11577 net.cpp:124] Setting up conv9/relu
I0227 16:20:08.952325 11577 net.cpp:131] Top shape: 1 512 20 20 (204800)
I0227 16:20:08.952335 11577 net.cpp:139] Memory required for data: 74137600
I0227 16:20:08.952363 11577 layer_factory.hpp:77] Creating layer conv10/dw
I0227 16:20:08.952388 11577 net.cpp:86] Creating Layer conv10/dw
I0227 16:20:08.952395 11577 net.cpp:408] conv10/dw <- conv9
I0227 16:20:08.952406 11577 net.cpp:382] conv10/dw -> conv10/dw
I0227 16:20:08.952965 11577 net.cpp:124] Setting up conv10/dw
I0227 16:20:08.952975 11577 net.cpp:131] Top shape: 1 512 20 20 (204800)
I0227 16:20:08.952980 11577 net.cpp:139] Memory required for data: 74956800
I0227 16:20:08.952987 11577 layer_factory.hpp:77] Creating layer conv10/dw/relu
I0227 16:20:08.952994 11577 net.cpp:86] Creating Layer conv10/dw/relu
I0227 16:20:08.952999 11577 net.cpp:408] conv10/dw/relu <- conv10/dw
I0227 16:20:08.953004 11577 net.cpp:369] conv10/dw/relu -> conv10/dw (in-place)
I0227 16:20:08.953657 11577 net.cpp:124] Setting up conv10/dw/relu
I0227 16:20:08.953667 11577 net.cpp:131] Top shape: 1 512 20 20 (204800)
I0227 16:20:08.953672 11577 net.cpp:139] Memory required for data: 75776000
I0227 16:20:08.953676 11577 layer_factory.hpp:77] Creating layer conv10
I0227 16:20:08.953688 11577 net.cpp:86] Creating Layer conv10
I0227 16:20:08.953693 11577 net.cpp:408] conv10 <- conv10/dw
I0227 16:20:08.953702 11577 net.cpp:382] conv10 -> conv10
I0227 16:20:08.963382 11577 net.cpp:124] Setting up conv10
I0227 16:20:08.963398 11577 net.cpp:131] Top shape: 1 512 20 20 (204800)
I0227 16:20:08.963404 11577 net.cpp:139] Memory required for data: 76595200
I0227 16:20:08.963413 11577 layer_factory.hpp:77] Creating layer conv10/relu
I0227 16:20:08.963423 11577 net.cpp:86] Creating Layer conv10/relu
I0227 16:20:08.963428 11577 net.cpp:408] conv10/relu <- conv10
I0227 16:20:08.963435 11577 net.cpp:369] conv10/relu -> conv10 (in-place)
I0227 16:20:08.964133 11577 net.cpp:124] Setting up conv10/relu
I0227 16:20:08.964143 11577 net.cpp:131] Top shape: 1 512 20 20 (204800)
I0227 16:20:08.964148 11577 net.cpp:139] Memory required for data: 77414400
I0227 16:20:08.964152 11577 layer_factory.hpp:77] Creating layer conv11/dw
I0227 16:20:08.964167 11577 net.cpp:86] Creating Layer conv11/dw
I0227 16:20:08.964174 11577 net.cpp:408] conv11/dw <- conv10
I0227 16:20:08.964181 11577 net.cpp:382] conv11/dw -> conv11/dw
I0227 16:20:08.964680 11577 net.cpp:124] Setting up conv11/dw
I0227 16:20:08.964694 11577 net.cpp:131] Top shape: 1 512 20 20 (204800)
I0227 16:20:08.964705 11577 net.cpp:139] Memory required for data: 78233600
I0227 16:20:08.964716 11577 layer_factory.hpp:77] Creating layer conv11/dw/relu
I0227 16:20:08.964730 11577 net.cpp:86] Creating Layer conv11/dw/relu
I0227 16:20:08.964738 11577 net.cpp:408] conv11/dw/relu <- conv11/dw
I0227 16:20:08.964746 11577 net.cpp:369] conv11/dw/relu -> conv11/dw (in-place)
I0227 16:20:08.965579 11577 net.cpp:124] Setting up conv11/dw/relu
I0227 16:20:08.965592 11577 net.cpp:131] Top shape: 1 512 20 20 (204800)
I0227 16:20:08.965600 11577 net.cpp:139] Memory required for data: 79052800
I0227 16:20:08.965605 11577 layer_factory.hpp:77] Creating layer conv11
I0227 16:20:08.965622 11577 net.cpp:86] Creating Layer conv11
I0227 16:20:08.965628 11577 net.cpp:408] conv11 <- conv11/dw
I0227 16:20:08.965636 11577 net.cpp:382] conv11 -> conv11
I0227 16:20:08.972380 11577 net.cpp:124] Setting up conv11
I0227 16:20:08.972394 11577 net.cpp:131] Top shape: 1 512 20 20 (204800)
I0227 16:20:08.972415 11577 net.cpp:139] Memory required for data: 79872000
I0227 16:20:08.972425 11577 layer_factory.hpp:77] Creating layer conv11/relu
I0227 16:20:08.972434 11577 net.cpp:86] Creating Layer conv11/relu
I0227 16:20:08.972437 11577 net.cpp:408] conv11/relu <- conv11
I0227 16:20:08.972458 11577 net.cpp:369] conv11/relu -> conv11 (in-place)
I0227 16:20:08.973212 11577 net.cpp:124] Setting up conv11/relu
I0227 16:20:08.973222 11577 net.cpp:131] Top shape: 1 512 20 20 (204800)
I0227 16:20:08.973228 11577 net.cpp:139] Memory required for data: 80691200
I0227 16:20:08.973232 11577 layer_factory.hpp:77] Creating layer conv11_conv11/relu_0_split
I0227 16:20:08.973246 11577 net.cpp:86] Creating Layer conv11_conv11/relu_0_split
I0227 16:20:08.973279 11577 net.cpp:408] conv11_conv11/relu_0_split <- conv11
I0227 16:20:08.973287 11577 net.cpp:382] conv11_conv11/relu_0_split -> conv11_conv11/relu_0_split_0
I0227 16:20:08.973299 11577 net.cpp:382] conv11_conv11/relu_0_split -> conv11_conv11/relu_0_split_1
I0227 16:20:08.973359 11577 net.cpp:124] Setting up conv11_conv11/relu_0_split
I0227 16:20:08.973366 11577 net.cpp:131] Top shape: 1 512 20 20 (204800)
I0227 16:20:08.973371 11577 net.cpp:131] Top shape: 1 512 20 20 (204800)
I0227 16:20:08.973376 11577 net.cpp:139] Memory required for data: 82329600
I0227 16:20:08.973378 11577 layer_factory.hpp:77] Creating layer conv12/dw
I0227 16:20:08.973390 11577 net.cpp:86] Creating Layer conv12/dw
I0227 16:20:08.973397 11577 net.cpp:408] conv12/dw <- conv11_conv11/relu_0_split_0
I0227 16:20:08.973414 11577 net.cpp:382] conv12/dw -> conv12/dw
I0227 16:20:08.973965 11577 net.cpp:124] Setting up conv12/dw
I0227 16:20:08.973978 11577 net.cpp:131] Top shape: 1 512 10 10 (51200)
I0227 16:20:08.973984 11577 net.cpp:139] Memory required for data: 82534400
I0227 16:20:08.973994 11577 layer_factory.hpp:77] Creating layer conv12/dw/relu
I0227 16:20:08.974004 11577 net.cpp:86] Creating Layer conv12/dw/relu
I0227 16:20:08.974009 11577 net.cpp:408] conv12/dw/relu <- conv12/dw
I0227 16:20:08.974014 11577 net.cpp:369] conv12/dw/relu -> conv12/dw (in-place)
I0227 16:20:08.974694 11577 net.cpp:124] Setting up conv12/dw/relu
I0227 16:20:08.974705 11577 net.cpp:131] Top shape: 1 512 10 10 (51200)
I0227 16:20:08.974710 11577 net.cpp:139] Memory required for data: 82739200
I0227 16:20:08.974714 11577 layer_factory.hpp:77] Creating layer conv12
I0227 16:20:08.974730 11577 net.cpp:86] Creating Layer conv12
I0227 16:20:08.974735 11577 net.cpp:408] conv12 <- conv12/dw
I0227 16:20:08.974742 11577 net.cpp:382] conv12 -> conv12
I0227 16:20:08.989557 11577 net.cpp:124] Setting up conv12
I0227 16:20:08.989572 11577 net.cpp:131] Top shape: 1 1024 10 10 (102400)
I0227 16:20:08.989596 11577 net.cpp:139] Memory required for data: 83148800
I0227 16:20:08.989607 11577 layer_factory.hpp:77] Creating layer conv12/relu
I0227 16:20:08.989634 11577 net.cpp:86] Creating Layer conv12/relu
I0227 16:20:08.989640 11577 net.cpp:408] conv12/relu <- conv12
I0227 16:20:08.989646 11577 net.cpp:369] conv12/relu -> conv12 (in-place)
I0227 16:20:08.990295 11577 net.cpp:124] Setting up conv12/relu
I0227 16:20:08.990304 11577 net.cpp:131] Top shape: 1 1024 10 10 (102400)
I0227 16:20:08.990325 11577 net.cpp:139] Memory required for data: 83558400
I0227 16:20:08.990329 11577 layer_factory.hpp:77] Creating layer conv13/dw
I0227 16:20:08.990346 11577 net.cpp:86] Creating Layer conv13/dw
I0227 16:20:08.990350 11577 net.cpp:408] conv13/dw <- conv12
I0227 16:20:08.990372 11577 net.cpp:382] conv13/dw -> conv13/dw
I0227 16:20:08.990833 11577 net.cpp:124] Setting up conv13/dw
I0227 16:20:08.990840 11577 net.cpp:131] Top shape: 1 1024 10 10 (102400)
I0227 16:20:08.990860 11577 net.cpp:139] Memory required for data: 83968000
I0227 16:20:08.990867 11577 layer_factory.hpp:77] Creating layer conv13/dw/relu
I0227 16:20:08.990872 11577 net.cpp:86] Creating Layer conv13/dw/relu
I0227 16:20:08.990878 11577 net.cpp:408] conv13/dw/relu <- conv13/dw
I0227 16:20:08.990883 11577 net.cpp:369] conv13/dw/relu -> conv13/dw (in-place)
I0227 16:20:08.991783 11577 net.cpp:124] Setting up conv13/dw/relu
I0227 16:20:08.991796 11577 net.cpp:131] Top shape: 1 1024 10 10 (102400)
I0227 16:20:08.991820 11577 net.cpp:139] Memory required for data: 84377600
I0227 16:20:08.991825 11577 layer_factory.hpp:77] Creating layer conv13
I0227 16:20:08.991858 11577 net.cpp:86] Creating Layer conv13
I0227 16:20:08.991865 11577 net.cpp:408] conv13 <- conv13/dw
I0227 16:20:08.991891 11577 net.cpp:382] conv13 -> conv13
I0227 16:20:09.011270 11577 net.cpp:124] Setting up conv13
I0227 16:20:09.011284 11577 net.cpp:131] Top shape: 1 1024 10 10 (102400)
I0227 16:20:09.011291 11577 net.cpp:139] Memory required for data: 84787200
I0227 16:20:09.011299 11577 layer_factory.hpp:77] Creating layer conv13/relu
I0227 16:20:09.011309 11577 net.cpp:86] Creating Layer conv13/relu
I0227 16:20:09.011334 11577 net.cpp:408] conv13/relu <- conv13
I0227 16:20:09.011342 11577 net.cpp:369] conv13/relu -> conv13 (in-place)
I0227 16:20:09.012171 11577 net.cpp:124] Setting up conv13/relu
I0227 16:20:09.012182 11577 net.cpp:131] Top shape: 1 1024 10 10 (102400)
I0227 16:20:09.012203 11577 net.cpp:139] Memory required for data: 85196800
I0227 16:20:09.012208 11577 layer_factory.hpp:77] Creating layer conv15/dw
I0227 16:20:09.012221 11577 net.cpp:86] Creating Layer conv15/dw
I0227 16:20:09.012225 11577 net.cpp:408] conv15/dw <- conv13
I0227 16:20:09.012233 11577 net.cpp:382] conv15/dw -> conv15/dw
I0227 16:20:09.012735 11577 net.cpp:124] Setting up conv15/dw
I0227 16:20:09.012744 11577 net.cpp:131] Top shape: 1 1024 10 10 (102400)
I0227 16:20:09.012765 11577 net.cpp:139] Memory required for data: 85606400
I0227 16:20:09.012773 11577 layer_factory.hpp:77] Creating layer conv15/dw/relu
I0227 16:20:09.012780 11577 net.cpp:86] Creating Layer conv15/dw/relu
I0227 16:20:09.012784 11577 net.cpp:408] conv15/dw/relu <- conv15/dw
I0227 16:20:09.012789 11577 net.cpp:369] conv15/dw/relu -> conv15/dw (in-place)
I0227 16:20:09.013448 11577 net.cpp:124] Setting up conv15/dw/relu
I0227 16:20:09.013458 11577 net.cpp:131] Top shape: 1 1024 10 10 (102400)
I0227 16:20:09.013478 11577 net.cpp:139] Memory required for data: 86016000
I0227 16:20:09.013481 11577 layer_factory.hpp:77] Creating layer conv15
I0227 16:20:09.013491 11577 net.cpp:86] Creating Layer conv15
I0227 16:20:09.013495 11577 net.cpp:408] conv15 <- conv15/dw
I0227 16:20:09.013504 11577 net.cpp:382] conv15 -> conv15
I0227 16:20:09.032094 11577 net.cpp:124] Setting up conv15
I0227 16:20:09.032106 11577 net.cpp:131] Top shape: 1 1024 10 10 (102400)
I0227 16:20:09.032128 11577 net.cpp:139] Memory required for data: 86425600
I0227 16:20:09.032137 11577 layer_factory.hpp:77] Creating layer conv15/relu
I0227 16:20:09.032143 11577 net.cpp:86] Creating Layer conv15/relu
I0227 16:20:09.032147 11577 net.cpp:408] conv15/relu <- conv15
I0227 16:20:09.032171 11577 net.cpp:369] conv15/relu -> conv15 (in-place)
I0227 16:20:09.032779 11577 net.cpp:124] Setting up conv15/relu
I0227 16:20:09.032788 11577 net.cpp:131] Top shape: 1 1024 10 10 (102400)
I0227 16:20:09.032807 11577 net.cpp:139] Memory required for data: 86835200
I0227 16:20:09.032811 11577 layer_factory.hpp:77] Creating layer conv15_conv15/relu_0_split
I0227 16:20:09.032822 11577 net.cpp:86] Creating Layer conv15_conv15/relu_0_split
I0227 16:20:09.032826 11577 net.cpp:408] conv15_conv15/relu_0_split <- conv15
I0227 16:20:09.032832 11577 net.cpp:382] conv15_conv15/relu_0_split -> conv15_conv15/relu_0_split_0
I0227 16:20:09.032866 11577 net.cpp:382] conv15_conv15/relu_0_split -> conv15_conv15/relu_0_split_1
I0227 16:20:09.032924 11577 net.cpp:124] Setting up conv15_conv15/relu_0_split
I0227 16:20:09.032930 11577 net.cpp:131] Top shape: 1 1024 10 10 (102400)
I0227 16:20:09.032934 11577 net.cpp:131] Top shape: 1 1024 10 10 (102400)
I0227 16:20:09.032938 11577 net.cpp:139] Memory required for data: 87654400
I0227 16:20:09.032941 11577 layer_factory.hpp:77] Creating layer upsample
I0227 16:20:09.032950 11577 net.cpp:86] Creating Layer upsample
I0227 16:20:09.032954 11577 net.cpp:408] upsample <- conv15_conv15/relu_0_split_0
I0227 16:20:09.032960 11577 net.cpp:382] upsample -> upsample
I0227 16:20:10.835214 11577 net.cpp:124] Setting up upsample
I0227 16:20:10.835264 11577 net.cpp:131] Top shape: 1 512 19 19 (184832)
I0227 16:20:10.835278 11577 net.cpp:139] Memory required for data: 88393728
I0227 16:20:10.835301 11577 layer_factory.hpp:77] Creating layer maxpool
I0227 16:20:10.835321 11577 net.cpp:86] Creating Layer maxpool
I0227 16:20:10.835335 11577 net.cpp:408] maxpool <- upsample
I0227 16:20:10.835350 11577 net.cpp:382] maxpool -> maxpool
I0227 16:20:10.835590 11577 net.cpp:124] Setting up maxpool
I0227 16:20:10.835600 11577 net.cpp:131] Top shape: 1 512 20 20 (204800)
I0227 16:20:10.835605 11577 net.cpp:139] Memory required for data: 89212928
I0227 16:20:10.835611 11577 layer_factory.hpp:77] Creating layer conv17/dw
I0227 16:20:10.837458 11577 net.cpp:86] Creating Layer conv17/dw
I0227 16:20:10.837494 11577 net.cpp:408] conv17/dw <- conv11_conv11/relu_0_split_1
I0227 16:20:10.837534 11577 net.cpp:382] conv17/dw -> conv17/dw
I0227 16:20:10.839561 11577 net.cpp:124] Setting up conv17/dw
I0227 16:20:10.839573 11577 net.cpp:131] Top shape: 1 512 20 20 (204800)
I0227 16:20:10.839581 11577 net.cpp:139] Memory required for data: 90032128
I0227 16:20:10.839588 11577 layer_factory.hpp:77] Creating layer conv17/dw/relu
I0227 16:20:10.839612 11577 net.cpp:86] Creating Layer conv17/dw/relu
I0227 16:20:10.839617 11577 net.cpp:408] conv17/dw/relu <- conv17/dw
I0227 16:20:10.839634 11577 net.cpp:369] conv17/dw/relu -> conv17/dw (in-place)
I0227 16:20:10.840512 11577 net.cpp:124] Setting up conv17/dw/relu
I0227 16:20:10.840523 11577 net.cpp:131] Top shape: 1 512 20 20 (204800)
I0227 16:20:10.840529 11577 net.cpp:139] Memory required for data: 90851328
I0227 16:20:10.840541 11577 layer_factory.hpp:77] Creating layer conv17
I0227 16:20:10.840562 11577 net.cpp:86] Creating Layer conv17
I0227 16:20:10.840567 11577 net.cpp:408] conv17 <- conv17/dw
I0227 16:20:10.840575 11577 net.cpp:382] conv17 -> conv17
I0227 16:20:10.850649 11577 net.cpp:124] Setting up conv17
I0227 16:20:10.850666 11577 net.cpp:131] Top shape: 1 512 20 20 (204800)
I0227 16:20:10.850672 11577 net.cpp:139] Memory required for data: 91670528
I0227 16:20:10.850683 11577 layer_factory.hpp:77] Creating layer conv17/relu
I0227 16:20:10.850693 11577 net.cpp:86] Creating Layer conv17/relu
I0227 16:20:10.850697 11577 net.cpp:408] conv17/relu <- conv17
I0227 16:20:10.850704 11577 net.cpp:369] conv17/relu -> conv17 (in-place)
I0227 16:20:10.851534 11577 net.cpp:124] Setting up conv17/relu
I0227 16:20:10.851547 11577 net.cpp:131] Top shape: 1 512 20 20 (204800)
I0227 16:20:10.851552 11577 net.cpp:139] Memory required for data: 92489728
I0227 16:20:10.851557 11577 layer_factory.hpp:77] Creating layer conv17/sum
I0227 16:20:10.851573 11577 net.cpp:86] Creating Layer conv17/sum
I0227 16:20:10.851578 11577 net.cpp:408] conv17/sum <- maxpool
I0227 16:20:10.851585 11577 net.cpp:408] conv17/sum <- conv17
I0227 16:20:10.851593 11577 net.cpp:382] conv17/sum -> conv17/sum
I0227 16:20:10.851716 11577 net.cpp:124] Setting up conv17/sum
I0227 16:20:10.851724 11577 net.cpp:131] Top shape: 1 512 20 20 (204800)
I0227 16:20:10.851729 11577 net.cpp:139] Memory required for data: 93308928
I0227 16:20:10.851733 11577 layer_factory.hpp:77] Creating layer conv18/dw
I0227 16:20:10.851742 11577 net.cpp:86] Creating Layer conv18/dw
I0227 16:20:10.851747 11577 net.cpp:408] conv18/dw <- conv17/sum
I0227 16:20:10.851753 11577 net.cpp:382] conv18/dw -> conv18/dw
I0227 16:20:10.853520 11577 net.cpp:124] Setting up conv18/dw
I0227 16:20:10.853530 11577 net.cpp:131] Top shape: 1 512 20 20 (204800)
I0227 16:20:10.853535 11577 net.cpp:139] Memory required for data: 94128128
I0227 16:20:10.853560 11577 layer_factory.hpp:77] Creating layer conv18/dw/relu
I0227 16:20:10.853569 11577 net.cpp:86] Creating Layer conv18/dw/relu
I0227 16:20:10.853574 11577 net.cpp:408] conv18/dw/relu <- conv18/dw
I0227 16:20:10.853579 11577 net.cpp:369] conv18/dw/relu -> conv18/dw (in-place)
I0227 16:20:10.854393 11577 net.cpp:124] Setting up conv18/dw/relu
I0227 16:20:10.854404 11577 net.cpp:131] Top shape: 1 512 20 20 (204800)
I0227 16:20:10.854410 11577 net.cpp:139] Memory required for data: 94947328
I0227 16:20:10.854414 11577 layer_factory.hpp:77] Creating layer conv18_new
I0227 16:20:10.854426 11577 net.cpp:86] Creating Layer conv18_new
I0227 16:20:10.854431 11577 net.cpp:408] conv18_new <- conv18/dw
I0227 16:20:10.854439 11577 net.cpp:382] conv18_new -> conv18_new
I0227 16:20:10.872364 11577 net.cpp:124] Setting up conv18_new
I0227 16:20:10.872392 11577 net.cpp:131] Top shape: 1 1024 20 20 (409600)
I0227 16:20:10.872401 11577 net.cpp:139] Memory required for data: 96585728
I0227 16:20:10.872416 11577 layer_factory.hpp:77] Creating layer conv18_new/relu
I0227 16:20:10.872427 11577 net.cpp:86] Creating Layer conv18_new/relu
I0227 16:20:10.872460 11577 net.cpp:408] conv18_new/relu <- conv18_new
I0227 16:20:10.872470 11577 net.cpp:369] conv18_new/relu -> conv18_new (in-place)
I0227 16:20:10.873414 11577 net.cpp:124] Setting up conv18_new/relu
I0227 16:20:10.873427 11577 net.cpp:131] Top shape: 1 1024 20 20 (409600)
I0227 16:20:10.873435 11577 net.cpp:139] Memory required for data: 98224128
I0227 16:20:10.873438 11577 layer_factory.hpp:77] Creating layer conv19
I0227 16:20:10.873461 11577 net.cpp:86] Creating Layer conv19
I0227 16:20:10.873469 11577 net.cpp:408] conv19 <- conv15_conv15/relu_0_split_1
I0227 16:20:10.873479 11577 net.cpp:382] conv19 -> conv19
I0227 16:20:10.879117 11577 net.cpp:124] Setting up conv19
I0227 16:20:10.879132 11577 net.cpp:131] Top shape: 1 75 10 10 (7500)
I0227 16:20:10.879138 11577 net.cpp:139] Memory required for data: 98254128
I0227 16:20:10.879149 11577 layer_factory.hpp:77] Creating layer conv20
I0227 16:20:10.879166 11577 net.cpp:86] Creating Layer conv20
I0227 16:20:10.879173 11577 net.cpp:408] conv20 <- conv18_new
I0227 16:20:10.879182 11577 net.cpp:382] conv20 -> conv20
I0227 16:20:10.884690 11577 net.cpp:124] Setting up conv20
I0227 16:20:10.884706 11577 net.cpp:131] Top shape: 1 75 20 20 (30000)
I0227 16:20:10.884712 11577 net.cpp:139] Memory required for data: 98374128
I0227 16:20:10.884722 11577 net.cpp:202] conv20 does not need backward computation.
I0227 16:20:10.884730 11577 net.cpp:202] conv19 does not need backward computation.
I0227 16:20:10.884734 11577 net.cpp:202] conv18_new/relu does not need backward computation.
I0227 16:20:10.884738 11577 net.cpp:202] conv18_new does not need backward computation.
…
