I0227 16:21:31.611263 34453 caffe.cpp:339] Use GPU with device ID 1
I0227 16:21:32.281388 34453 net.cpp:296] The NetState phase (0) differed from the phase (1) specified by a rule in layer detection_out
I0227 16:21:32.281455 34453 net.cpp:53] Initializing net from parameters: 
name: "remove_bn"
state {
  phase: TRAIN
  level: 0
  stage: ""
}
layer {
  name: "data"
  type: "Input"
  top: "data"
  input_param {
    shape {
      dim: 1
      dim: 3
      dim: 320
      dim: 320
    }
  }
}
layer {
  name: "conv0"
  type: "Convolution"
  bottom: "data"
  top: "conv0"
  param {
    lr_mult: 1
    decay_mult: 1
  }
  convolution_param {
    num_output: 32
    bias_term: true
    pad: 1
    kernel_size: 3
    stride: 2
    weight_filler {
      type: "msra"
    }
  }
}
layer {
  name: "conv0/relu"
  type: "ReLU"
  bottom: "conv0"
  top: "conv0"
}
layer {
  name: "conv1/dw"
  type: "DepthwiseConvolution"
  bottom: "conv0"
  top: "conv1/dw"
  param {
    lr_mult: 1
    decay_mult: 1
  }
  convolution_param {
    num_output: 32
    bias_term: true
    pad: 1
    kernel_size: 3
    group: 32
    weight_filler {
      type: "msra"
    }
    engine: CAFFE
  }
}
layer {
  name: "conv1/dw/relu"
  type: "ReLU"
  bottom: "conv1/dw"
  top: "conv1/dw"
}
layer {
  name: "conv1"
  type: "Convolution"
  bottom: "conv1/dw"
  top: "conv1"
  param {
    lr_mult: 1
    decay_mult: 1
  }
  convolution_param {
    num_output: 64
    bias_term: true
    kernel_size: 1
    weight_filler {
      type: "msra"
    }
  }
}
layer {
  name: "conv1/relu"
  type: "ReLU"
  bottom: "conv1"
  top: "conv1"
}
layer {
  name: "conv2/dw"
  type: "DepthwiseConvolution"
  bottom: "conv1"
  top: "conv2/dw"
  param {
    lr_mult: 1
    decay_mult: 1
  }
  convolution_param {
    num_output: 64
    bias_term: true
    pad: 1
    kernel_size: 3
    group: 64
    stride: 2
    weight_filler {
      type: "msra"
    }
    engine: CAFFE
  }
}
layer {
  name: "conv2/dw/relu"
  type: "ReLU"
  bottom: "conv2/dw"
  top: "conv2/dw"
}
layer {
  name: "conv2"
  type: "Convolution"
  bottom: "conv2/dw"
  top: "conv2"
  param {
    lr_mult: 1
    decay_mult: 1
  }
  convolution_param {
    num_output: 128
    bias_term: true
    kernel_size: 1
    weight_filler {
      type: "msra"
    }
  }
}
layer {
  name: "conv2/relu"
  type: "ReLU"
  bottom: "conv2"
  top: "conv2"
}
layer {
  name: "conv3/dw"
  type: "DepthwiseConvolution"
  bottom: "conv2"
  top: "conv3/dw"
  param {
    lr_mult: 1
    decay_mult: 1
  }
  convolution_param {
    num_output: 128
    bias_term: true
    pad: 1
    kernel_size: 3
    group: 128
    weight_filler {
      type: "msra"
    }
    engine: CAFFE
  }
}
layer {
  name: "conv3/dw/relu"
  type: "ReLU"
  bottom: "conv3/dw"
  top: "conv3/dw"
}
layer {
  name: "conv3"
  type: "Convolution"
  bottom: "conv3/dw"
  top: "conv3"
  param {
    lr_mult: 1
    decay_mult: 1
  }
  convolution_param {
    num_output: 128
    bias_term: true
    kernel_size: 1
    weight_filler {
      type: "msra"
    }
  }
}
layer {
  name: "conv3/relu"
  type: "ReLU"
  bottom: "conv3"
  top: "conv3"
}
layer {
  name: "conv4/dw"
  type: "DepthwiseConvolution"
  bottom: "conv3"
  top: "conv4/dw"
  param {
    lr_mult: 1
    decay_mult: 1
  }
  convolution_param {
    num_output: 128
    bias_term: true
    pad: 1
    kernel_size: 3
    group: 128
    stride: 2
    weight_filler {
      type: "msra"
    }
    engine: CAFFE
  }
}
layer {
  name: "conv4/dw/relu"
  type: "ReLU"
  bottom: "conv4/dw"
  top: "conv4/dw"
}
layer {
  name: "conv4"
  type: "Convolution"
  bottom: "conv4/dw"
  top: "conv4"
  param {
    lr_mult: 1
    decay_mult: 1
  }
  convolution_param {
    num_output: 256
    bias_term: true
    kernel_size: 1
    weight_filler {
      type: "msra"
    }
  }
}
layer {
  name: "conv4/relu"
  type: "ReLU"
  bottom: "conv4"
  top: "conv4"
}
layer {
  name: "conv5/dw"
  type: "DepthwiseConvolution"
  bottom: "conv4"
  top: "conv5/dw"
  param {
    lr_mult: 1
    decay_mult: 1
  }
  convolution_param {
    num_output: 256
    bias_term: true
    pad: 1
    kernel_size: 3
    group: 256
    weight_filler {
      type: "msra"
    }
    engine: CAFFE
  }
}
layer {
  name: "conv5/dw/relu"
  type: "ReLU"
  bottom: "conv5/dw"
  top: "conv5/dw"
}
layer {
  name: "conv5"
  type: "Convolution"
  bottom: "conv5/dw"
  top: "conv5"
  param {
    lr_mult: 1
    decay_mult: 1
  }
  convolution_param {
    num_output: 256
    bias_term: true
    kernel_size: 1
    weight_filler {
      type: "msra"
    }
  }
}
layer {
  name: "conv5/relu"
  type: "ReLU"
  bottom: "conv5"
  top: "conv5"
}
layer {
  name: "conv6/dw"
  type: "DepthwiseConvolution"
  bottom: "conv5"
  top: "conv6/dw"
  param {
    lr_mult: 1
    decay_mult: 1
  }
  convolution_param {
    num_output: 256
    bias_term: true
    pad: 1
    kernel_size: 3
    group: 256
    stride: 2
    weight_filler {
      type: "msra"
    }
    engine: CAFFE
  }
}
layer {
  name: "conv6/dw/relu"
  type: "ReLU"
  bottom: "conv6/dw"
  top: "conv6/dw"
}
layer {
  name: "conv6"
  type: "Convolution"
  bottom: "conv6/dw"
  top: "conv6"
  param {
    lr_mult: 1
    decay_mult: 1
  }
  convolution_param {
    num_output: 512
    bias_term: true
    kernel_size: 1
    weight_filler {
      type: "msra"
    }
  }
}
layer {
  name: "conv6/relu"
  type: "ReLU"
  bottom: "conv6"
  top: "conv6"
}
layer {
  name: "conv7/dw"
  type: "DepthwiseConvolution"
  bottom: "conv6"
  top: "conv7/dw"
  param {
    lr_mult: 1
    decay_mult: 1
  }
  convolution_param {
    num_output: 512
    bias_term: true
    pad: 1
    kernel_size: 3
    group: 512
    weight_filler {
      type: "msra"
    }
    engine: CAFFE
  }
}
layer {
  name: "conv7/dw/relu"
  type: "ReLU"
  bottom: "conv7/dw"
  top: "conv7/dw"
}
layer {
  name: "conv7"
  type: "Convolution"
  bottom: "conv7/dw"
  top: "conv7"
  param {
    lr_mult: 1
    decay_mult: 1
  }
  convolution_param {
    num_output: 512
    bias_term: true
    kernel_size: 1
    weight_filler {
      type: "msra"
    }
  }
}
layer {
  name: "conv7/relu"
  type: "ReLU"
  bottom: "conv7"
  top: "conv7"
}
layer {
  name: "conv8/dw"
  type: "DepthwiseConvolution"
  bottom: "conv7"
  top: "conv8/dw"
  param {
    lr_mult: 1
    decay_mult: 1
  }
  convolution_param {
    num_output: 512
    bias_term: true
    pad: 1
    kernel_size: 3
    group: 512
    weight_filler {
      type: "msra"
    }
    engine: CAFFE
  }
}
layer {
  name: "conv8/dw/relu"
  type: "ReLU"
  bottom: "conv8/dw"
  top: "conv8/dw"
}
layer {
  name: "conv8"
  type: "Convolution"
  bottom: "conv8/dw"
  top: "conv8"
  param {
    lr_mult: 1
    decay_mult: 1
  }
  convolution_param {
    num_output: 512
    bias_term: true
    kernel_size: 1
    weight_filler {
      type: "msra"
    }
  }
}
layer {
  name: "conv8/relu"
  type: "ReLU"
  bottom: "conv8"
  top: "conv8"
}
layer {
  name: "conv9/dw"
  type: "DepthwiseConvolution"
  bottom: "conv8"
  top: "conv9/dw"
  param {
    lr_mult: 1
    decay_mult: 1
  }
  convolution_param {
    num_output: 512
    bias_term: true
    pad: 1
    kernel_size: 3
    group: 512
    weight_filler {
      type: "msra"
    }
    engine: CAFFE
  }
}
layer {
  name: "conv9/dw/relu"
  type: "ReLU"
  bottom: "conv9/dw"
  top: "conv9/dw"
}
layer {
  name: "conv9"
  type: "Convolution"
  bottom: "conv9/dw"
  top: "conv9"
  param {
    lr_mult: 1
    decay_mult: 1
  }
  convolution_param {
    num_output: 512
    bias_term: true
    kernel_size: 1
    weight_filler {
      type: "msra"
    }
  }
}
layer {
  name: "conv9/relu"
  type: "ReLU"
  bottom: "conv9"
  top: "conv9"
}
layer {
  name: "conv10/dw"
  type: "DepthwiseConvolution"
  bottom: "conv9"
  top: "conv10/dw"
  param {
    lr_mult: 1
    decay_mult: 1
  }
  convolution_param {
    num_output: 512
    bias_term: true
    pad: 1
    kernel_size: 3
    group: 512
    weight_filler {
      type: "msra"
    }
    engine: CAFFE
  }
}
layer {
  name: "conv10/dw/relu"
  type: "ReLU"
  bottom: "conv10/dw"
  top: "conv10/dw"
}
layer {
  name: "conv10"
  type: "Convolution"
  bottom: "conv10/dw"
  top: "conv10"
  param {
    lr_mult: 1
    decay_mult: 1
  }
  convolution_param {
    num_output: 512
    bias_term: true
    kernel_size: 1
    weight_filler {
      type: "msra"
    }
  }
}
layer {
  name: "conv10/relu"
  type: "ReLU"
  bottom: "conv10"
  top: "conv10"
}
layer {
  name: "conv11/dw"
  type: "DepthwiseConvolution"
  bottom: "conv10"
  top: "conv11/dw"
  param {
    lr_mult: 1
    decay_mult: 1
  }
  convolution_param {
    num_output: 512
    bias_term: true
    pad: 1
    kernel_size: 3
    group: 512
    weight_filler {
      type: "msra"
    }
    engine: CAFFE
  }
}
layer {
  name: "conv11/dw/relu"
  type: "ReLU"
  bottom: "conv11/dw"
  top: "conv11/dw"
}
layer {
  name: "conv11"
  type: "Convolution"
  bottom: "conv11/dw"
  top: "conv11"
  param {
    lr_mult: 1
    decay_mult: 1
  }
  convolution_param {
    num_output: 512
    bias_term: true
    kernel_size: 1
    weight_filler {
      type: "msra"
    }
  }
}
layer {
  name: "conv11/relu"
  type: "ReLU"
  bottom: "conv11"
  top: "conv11"
}
layer {
  name: "conv12/dw"
  type: "DepthwiseConvolution"
  bottom: "conv11"
  top: "conv12/dw"
  param {
    lr_mult: 1
    decay_mult: 1
  }
  convolution_param {
    num_output: 512
    bias_term: true
    pad: 1
    kernel_size: 3
    group: 512
    stride: 2
    weight_filler {
      type: "msra"
    }
    engine: CAFFE
  }
}
layer {
  name: "conv12/dw/relu"
  type: "ReLU"
  bottom: "conv12/dw"
  top: "conv12/dw"
}
layer {
  name: "conv12"
  type: "Convolution"
  bottom: "conv12/dw"
  top: "conv12"
  param {
    lr_mult: 1
    decay_mult: 1
  }
  convolution_param {
    num_output: 1024
    bias_term: true
    kernel_size: 1
    weight_filler {
      type: "msra"
    }
  }
}
layer {
  name: "conv12/relu"
  type: "ReLU"
  bottom: "conv12"
  top: "conv12"
}
layer {
  name: "conv13/dw"
  type: "DepthwiseConvolution"
  bottom: "conv12"
  top: "conv13/dw"
  param {
    lr_mult: 1
    decay_mult: 1
  }
  convolution_param {
    num_output: 1024
    bias_term: true
    pad: 1
    kernel_size: 3
    group: 1024
    weight_filler {
      type: "msra"
    }
    engine: CAFFE
  }
}
layer {
  name: "conv13/dw/relu"
  type: "ReLU"
  bottom: "conv13/dw"
  top: "conv13/dw"
}
layer {
  name: "conv13"
  type: "Convolution"
  bottom: "conv13/dw"
  top: "conv13"
  param {
    lr_mult: 1
    decay_mult: 1
  }
  convolution_param {
    num_output: 1024
    bias_term: true
    kernel_size: 1
    weight_filler {
      type: "msra"
    }
  }
}
layer {
  name: "conv13/relu"
  type: "ReLU"
  bottom: "conv13"
  top: "conv13"
}
layer {
  name: "conv15/dw"
  type: "DepthwiseConvolution"
  bottom: "conv13"
  top: "conv15/dw"
  param {
    lr_mult: 1
    decay_mult: 1
  }
  convolution_param {
    num_output: 1024
    bias_term: true
    pad: 1
    kernel_size: 3
    group: 1024
    weight_filler {
      type: "msra"
    }
    engine: CAFFE
  }
}
layer {
  name: "conv15/dw/relu"
  type: "ReLU"
  bottom: "conv15/dw"
  top: "conv15/dw"
}
layer {
  name: "conv15"
  type: "Convolution"
  bottom: "conv15/dw"
  top: "conv15"
  param {
    lr_mult: 1
    decay_mult: 1
  }
  convolution_param {
    num_output: 1024
    bias_term: true
    kernel_size: 1
    weight_filler {
      type: "msra"
    }
  }
}
layer {
  name: "conv15/relu"
  type: "ReLU"
  bottom: "conv15"
  top: "conv15"
}
layer {
  name: "upsample"
  type: "Deconvolution"
  bottom: "conv15"
  top: "upsample"
  param {
    lr_mult: 0
    decay_mult: 0
  }
  convolution_param {
    num_output: 512
    bias_term: false
    pad: 0
    kernel_size: 1
    group: 512
    stride: 2
    weight_filler {
      type: "constant"
      value: 1
    }
  }
}
layer {
  name: "maxpool"
  type: "Pooling"
  bottom: "upsample"
  top: "maxpool"
  pooling_param {
    pool: MAX
    kernel_size: 2
    stride: 1
    pad: 1
  }
}
layer {
  name: "conv17/dw"
  type: "DepthwiseConvolution"
  bottom: "conv11"
  top: "conv17/dw"
  param {
    lr_mult: 1
    decay_mult: 1
  }
  convolution_param {
    num_output: 512
    bias_term: true
    pad: 1
    kernel_size: 3
    group: 512
    weight_filler {
      type: "msra"
    }
    engine: CAFFE
  }
}
layer {
  name: "conv17/dw/relu"
  type: "ReLU"
  bottom: "conv17/dw"
  top: "conv17/dw"
}
layer {
  name: "conv17"
  type: "Convolution"
  bottom: "conv17/dw"
  top: "conv17"
  param {
    lr_mult: 1
    decay_mult: 1
  }
  convolution_param {
    num_output: 512
    bias_term: true
    kernel_size: 1
    weight_filler {
      type: "msra"
    }
  }
}
layer {
  name: "conv17/relu"
  type: "ReLU"
  bottom: "conv17"
  top: "conv17"
}
layer {
  name: "conv17/sum"
  type: "Eltwise"
  bottom: "maxpool"
  bottom: "conv17"
  top: "conv17/sum"
}
layer {
  name: "conv18/dw"
  type: "DepthwiseConvolution"
  bottom: "conv17/sum"
  top: "conv18/dw"
  param {
    lr_mult: 1
    decay_mult: 1
  }
  convolution_param {
    num_output: 512
    bias_term: true
    pad: 1
    kernel_size: 3
    group: 512
    weight_filler {
      type: "msra"
    }
    engine: CAFFE
  }
}
layer {
  name: "conv18/dw/relu"
  type: "ReLU"
  bottom: "conv18/dw"
  top: "conv18/dw"
}
layer {
  name: "conv18_new"
  type: "Convolution"
  bottom: "conv18/dw"
  top: "conv18_new"
  param {
    lr_mult: 1
    decay_mult: 1
  }
  convolution_param {
    num_output: 1024
    bias_term: true
    kernel_size: 1
    weight_filler {
      type: "msra"
    }
  }
}
layer {
  name: "conv18_new/relu"
  type: "ReLU"
  bottom: "conv18_new"
  top: "conv18_new"
}
layer {
  name: "conv19"
  type: "Convolution"
  bottom: "conv15"
  top: "conv19"
  param {
    lr_mult: 1
    decay_mult: 1
  }
  param {
    lr_mult: 2
    decay_mult: 0
  }
  convolution_param {
    num_output: 75
    bias_term: true
    pad: 0
    kernel_size: 1
    stride: 1
    weight_filler {
      type: "xavier"
    }
    bias_filler {
      value: 0
    }
  }
}
layer {
  name: "conv20"
  type: "Convolution"
  bottom: "conv18_new"
  top: "conv20"
  param {
    lr_mult: 1
    decay_mult: 1
  }
  param {
    lr_mult: 2
    decay_mult: 0
  }
  convolution_param {
    num_output: 75
    bias_term: true
    pad: 0
    kernel_size: 1
    stride: 1
    weight_filler {
      type: "xavier"
    }
    bias_filler {
      value: 0
    }
  }
}
I0227 16:21:32.283197 34453 layer_factory.hpp:77] Creating layer data
I0227 16:21:32.283282 34453 net.cpp:86] Creating Layer data
I0227 16:21:32.283314 34453 net.cpp:382] data -> data
I0227 16:21:32.301173 34453 net.cpp:124] Setting up data
I0227 16:21:32.301256 34453 net.cpp:131] Top shape: 1 3 320 320 (307200)
I0227 16:21:32.301281 34453 net.cpp:139] Memory required for data: 1228800
I0227 16:21:32.301343 34453 layer_factory.hpp:77] Creating layer conv0
I0227 16:21:32.301463 34453 net.cpp:86] Creating Layer conv0
I0227 16:21:32.301519 34453 net.cpp:408] conv0 <- data
I0227 16:21:32.301620 34453 net.cpp:382] conv0 -> conv0
I0227 16:21:32.306288 34453 net.cpp:124] Setting up conv0
I0227 16:21:32.306316 34453 net.cpp:131] Top shape: 1 32 160 160 (819200)
I0227 16:21:32.306331 34453 net.cpp:139] Memory required for data: 4505600
I0227 16:21:32.306470 34453 layer_factory.hpp:77] Creating layer conv0/relu
I0227 16:21:32.306527 34453 net.cpp:86] Creating Layer conv0/relu
I0227 16:21:32.306546 34453 net.cpp:408] conv0/relu <- conv0
I0227 16:21:32.306581 34453 net.cpp:369] conv0/relu -> conv0 (in-place)
I0227 16:21:32.306622 34453 net.cpp:124] Setting up conv0/relu
I0227 16:21:32.306634 34453 net.cpp:131] Top shape: 1 32 160 160 (819200)
I0227 16:21:32.306645 34453 net.cpp:139] Memory required for data: 7782400
I0227 16:21:32.306656 34453 layer_factory.hpp:77] Creating layer conv1/dw
I0227 16:21:32.306706 34453 net.cpp:86] Creating Layer conv1/dw
I0227 16:21:32.306725 34453 net.cpp:408] conv1/dw <- conv0
I0227 16:21:32.306767 34453 net.cpp:382] conv1/dw -> conv1/dw
I0227 16:21:32.307483 34453 net.cpp:124] Setting up conv1/dw
I0227 16:21:32.307508 34453 net.cpp:131] Top shape: 1 32 160 160 (819200)
I0227 16:21:32.307524 34453 net.cpp:139] Memory required for data: 11059200
I0227 16:21:32.307571 34453 layer_factory.hpp:77] Creating layer conv1/dw/relu
I0227 16:21:32.307615 34453 net.cpp:86] Creating Layer conv1/dw/relu
I0227 16:21:32.307633 34453 net.cpp:408] conv1/dw/relu <- conv1/dw
I0227 16:21:32.307667 34453 net.cpp:369] conv1/dw/relu -> conv1/dw (in-place)
I0227 16:21:32.307701 34453 net.cpp:124] Setting up conv1/dw/relu
I0227 16:21:32.307714 34453 net.cpp:131] Top shape: 1 32 160 160 (819200)
I0227 16:21:32.307760 34453 net.cpp:139] Memory required for data: 14336000
I0227 16:21:32.307775 34453 layer_factory.hpp:77] Creating layer conv1
I0227 16:21:32.307818 34453 net.cpp:86] Creating Layer conv1
I0227 16:21:32.307837 34453 net.cpp:408] conv1 <- conv1/dw
I0227 16:21:32.307879 34453 net.cpp:382] conv1 -> conv1
I0227 16:21:32.310850 34453 net.cpp:124] Setting up conv1
I0227 16:21:32.310899 34453 net.cpp:131] Top shape: 1 64 160 160 (1638400)
I0227 16:21:32.310917 34453 net.cpp:139] Memory required for data: 20889600
I0227 16:21:32.310973 34453 layer_factory.hpp:77] Creating layer conv1/relu
I0227 16:21:32.311007 34453 net.cpp:86] Creating Layer conv1/relu
I0227 16:21:32.311024 34453 net.cpp:408] conv1/relu <- conv1
I0227 16:21:32.311058 34453 net.cpp:369] conv1/relu -> conv1 (in-place)
I0227 16:21:32.311091 34453 net.cpp:124] Setting up conv1/relu
I0227 16:21:32.311103 34453 net.cpp:131] Top shape: 1 64 160 160 (1638400)
I0227 16:21:32.311116 34453 net.cpp:139] Memory required for data: 27443200
I0227 16:21:32.311127 34453 layer_factory.hpp:77] Creating layer conv2/dw
I0227 16:21:32.311170 34453 net.cpp:86] Creating Layer conv2/dw
I0227 16:21:32.311188 34453 net.cpp:408] conv2/dw <- conv1
I0227 16:21:32.311239 34453 net.cpp:382] conv2/dw -> conv2/dw
I0227 16:21:32.313685 34453 net.cpp:124] Setting up conv2/dw
I0227 16:21:32.313712 34453 net.cpp:131] Top shape: 1 64 80 80 (409600)
I0227 16:21:32.313729 34453 net.cpp:139] Memory required for data: 29081600
I0227 16:21:32.313758 34453 layer_factory.hpp:77] Creating layer conv2/dw/relu
I0227 16:21:32.313809 34453 net.cpp:86] Creating Layer conv2/dw/relu
I0227 16:21:32.313829 34453 net.cpp:408] conv2/dw/relu <- conv2/dw
I0227 16:21:32.313864 34453 net.cpp:369] conv2/dw/relu -> conv2/dw (in-place)
I0227 16:21:32.313899 34453 net.cpp:124] Setting up conv2/dw/relu
I0227 16:21:32.313911 34453 net.cpp:131] Top shape: 1 64 80 80 (409600)
I0227 16:21:32.313925 34453 net.cpp:139] Memory required for data: 30720000
I0227 16:21:32.313935 34453 layer_factory.hpp:77] Creating layer conv2
I0227 16:21:32.313973 34453 net.cpp:86] Creating Layer conv2
I0227 16:21:32.313992 34453 net.cpp:408] conv2 <- conv2/dw
I0227 16:21:32.314033 34453 net.cpp:382] conv2 -> conv2
I0227 16:21:32.316896 34453 net.cpp:124] Setting up conv2
I0227 16:21:32.316916 34453 net.cpp:131] Top shape: 1 128 80 80 (819200)
I0227 16:21:32.316928 34453 net.cpp:139] Memory required for data: 33996800
I0227 16:21:32.316962 34453 layer_factory.hpp:77] Creating layer conv2/relu
I0227 16:21:32.316987 34453 net.cpp:86] Creating Layer conv2/relu
I0227 16:21:32.316999 34453 net.cpp:408] conv2/relu <- conv2
I0227 16:21:32.317018 34453 net.cpp:369] conv2/relu -> conv2 (in-place)
I0227 16:21:32.317039 34453 net.cpp:124] Setting up conv2/relu
I0227 16:21:32.317045 34453 net.cpp:131] Top shape: 1 128 80 80 (819200)
I0227 16:21:32.317052 34453 net.cpp:139] Memory required for data: 37273600
I0227 16:21:32.317059 34453 layer_factory.hpp:77] Creating layer conv3/dw
I0227 16:21:32.317083 34453 net.cpp:86] Creating Layer conv3/dw
I0227 16:21:32.317093 34453 net.cpp:408] conv3/dw <- conv2
I0227 16:21:32.317114 34453 net.cpp:382] conv3/dw -> conv3/dw
I0227 16:21:32.317703 34453 net.cpp:124] Setting up conv3/dw
I0227 16:21:32.317720 34453 net.cpp:131] Top shape: 1 128 80 80 (819200)
I0227 16:21:32.317728 34453 net.cpp:139] Memory required for data: 40550400
I0227 16:21:32.317745 34453 layer_factory.hpp:77] Creating layer conv3/dw/relu
I0227 16:21:32.317772 34453 net.cpp:86] Creating Layer conv3/dw/relu
I0227 16:21:32.317783 34453 net.cpp:408] conv3/dw/relu <- conv3/dw
I0227 16:21:32.317802 34453 net.cpp:369] conv3/dw/relu -> conv3/dw (in-place)
I0227 16:21:32.317822 34453 net.cpp:124] Setting up conv3/dw/relu
I0227 16:21:32.317828 34453 net.cpp:131] Top shape: 1 128 80 80 (819200)
I0227 16:21:32.317834 34453 net.cpp:139] Memory required for data: 43827200
I0227 16:21:32.317840 34453 layer_factory.hpp:77] Creating layer conv3
I0227 16:21:32.317862 34453 net.cpp:86] Creating Layer conv3
I0227 16:21:32.317890 34453 net.cpp:408] conv3 <- conv3/dw
I0227 16:21:32.317914 34453 net.cpp:382] conv3 -> conv3
I0227 16:21:32.321703 34453 net.cpp:124] Setting up conv3
I0227 16:21:32.321720 34453 net.cpp:131] Top shape: 1 128 80 80 (819200)
I0227 16:21:32.321732 34453 net.cpp:139] Memory required for data: 47104000
I0227 16:21:32.321749 34453 layer_factory.hpp:77] Creating layer conv3/relu
I0227 16:21:32.321772 34453 net.cpp:86] Creating Layer conv3/relu
I0227 16:21:32.321784 34453 net.cpp:408] conv3/relu <- conv3
I0227 16:21:32.321802 34453 net.cpp:369] conv3/relu -> conv3 (in-place)
I0227 16:21:32.321821 34453 net.cpp:124] Setting up conv3/relu
I0227 16:21:32.321828 34453 net.cpp:131] Top shape: 1 128 80 80 (819200)
I0227 16:21:32.321835 34453 net.cpp:139] Memory required for data: 50380800
I0227 16:21:32.321841 34453 layer_factory.hpp:77] Creating layer conv4/dw
I0227 16:21:32.321861 34453 net.cpp:86] Creating Layer conv4/dw
I0227 16:21:32.321871 34453 net.cpp:408] conv4/dw <- conv3
I0227 16:21:32.321894 34453 net.cpp:382] conv4/dw -> conv4/dw
I0227 16:21:32.322458 34453 net.cpp:124] Setting up conv4/dw
I0227 16:21:32.322474 34453 net.cpp:131] Top shape: 1 128 40 40 (204800)
I0227 16:21:32.322484 34453 net.cpp:139] Memory required for data: 51200000
I0227 16:21:32.322501 34453 layer_factory.hpp:77] Creating layer conv4/dw/relu
I0227 16:21:32.322533 34453 net.cpp:86] Creating Layer conv4/dw/relu
I0227 16:21:32.322544 34453 net.cpp:408] conv4/dw/relu <- conv4/dw
I0227 16:21:32.322564 34453 net.cpp:369] conv4/dw/relu -> conv4/dw (in-place)
I0227 16:21:32.322583 34453 net.cpp:124] Setting up conv4/dw/relu
I0227 16:21:32.322590 34453 net.cpp:131] Top shape: 1 128 40 40 (204800)
I0227 16:21:32.322597 34453 net.cpp:139] Memory required for data: 52019200
I0227 16:21:32.322602 34453 layer_factory.hpp:77] Creating layer conv4
I0227 16:21:32.322628 34453 net.cpp:86] Creating Layer conv4
I0227 16:21:32.322638 34453 net.cpp:408] conv4 <- conv4/dw
I0227 16:21:32.322657 34453 net.cpp:382] conv4 -> conv4
I0227 16:21:32.329900 34453 net.cpp:124] Setting up conv4
I0227 16:21:32.329917 34453 net.cpp:131] Top shape: 1 256 40 40 (409600)
I0227 16:21:32.329926 34453 net.cpp:139] Memory required for data: 53657600
I0227 16:21:32.329962 34453 layer_factory.hpp:77] Creating layer conv4/relu
I0227 16:21:32.329982 34453 net.cpp:86] Creating Layer conv4/relu
I0227 16:21:32.329993 34453 net.cpp:408] conv4/relu <- conv4
I0227 16:21:32.330010 34453 net.cpp:369] conv4/relu -> conv4 (in-place)
I0227 16:21:32.330029 34453 net.cpp:124] Setting up conv4/relu
I0227 16:21:32.330036 34453 net.cpp:131] Top shape: 1 256 40 40 (409600)
I0227 16:21:32.330042 34453 net.cpp:139] Memory required for data: 55296000
I0227 16:21:32.330049 34453 layer_factory.hpp:77] Creating layer conv5/dw
I0227 16:21:32.330075 34453 net.cpp:86] Creating Layer conv5/dw
I0227 16:21:32.330086 34453 net.cpp:408] conv5/dw <- conv4
I0227 16:21:32.330113 34453 net.cpp:382] conv5/dw -> conv5/dw
I0227 16:21:32.330937 34453 net.cpp:124] Setting up conv5/dw
I0227 16:21:32.330955 34453 net.cpp:131] Top shape: 1 256 40 40 (409600)
I0227 16:21:32.330963 34453 net.cpp:139] Memory required for data: 56934400
I0227 16:21:32.330987 34453 layer_factory.hpp:77] Creating layer conv5/dw/relu
I0227 16:21:32.331013 34453 net.cpp:86] Creating Layer conv5/dw/relu
I0227 16:21:32.331025 34453 net.cpp:408] conv5/dw/relu <- conv5/dw
I0227 16:21:32.331048 34453 net.cpp:369] conv5/dw/relu -> conv5/dw (in-place)
I0227 16:21:32.331069 34453 net.cpp:124] Setting up conv5/dw/relu
I0227 16:21:32.331079 34453 net.cpp:131] Top shape: 1 256 40 40 (409600)
I0227 16:21:32.331085 34453 net.cpp:139] Memory required for data: 58572800
I0227 16:21:32.331092 34453 layer_factory.hpp:77] Creating layer conv5
I0227 16:21:32.331118 34453 net.cpp:86] Creating Layer conv5
I0227 16:21:32.331128 34453 net.cpp:408] conv5 <- conv5/dw
I0227 16:21:32.331149 34453 net.cpp:382] conv5 -> conv5
I0227 16:21:32.345324 34453 net.cpp:124] Setting up conv5
I0227 16:21:32.345345 34453 net.cpp:131] Top shape: 1 256 40 40 (409600)
I0227 16:21:32.345381 34453 net.cpp:139] Memory required for data: 60211200
I0227 16:21:32.345409 34453 layer_factory.hpp:77] Creating layer conv5/relu
I0227 16:21:32.345438 34453 net.cpp:86] Creating Layer conv5/relu
I0227 16:21:32.345450 34453 net.cpp:408] conv5/relu <- conv5
I0227 16:21:32.345489 34453 net.cpp:369] conv5/relu -> conv5 (in-place)
I0227 16:21:32.345523 34453 net.cpp:124] Setting up conv5/relu
I0227 16:21:32.345531 34453 net.cpp:131] Top shape: 1 256 40 40 (409600)
I0227 16:21:32.345541 34453 net.cpp:139] Memory required for data: 61849600
I0227 16:21:32.345551 34453 layer_factory.hpp:77] Creating layer conv6/dw
I0227 16:21:32.345583 34453 net.cpp:86] Creating Layer conv6/dw
I0227 16:21:32.345597 34453 net.cpp:408] conv6/dw <- conv5
I0227 16:21:32.345628 34453 net.cpp:382] conv6/dw -> conv6/dw
I0227 16:21:32.346468 34453 net.cpp:124] Setting up conv6/dw
I0227 16:21:32.346487 34453 net.cpp:131] Top shape: 1 256 20 20 (102400)
I0227 16:21:32.346498 34453 net.cpp:139] Memory required for data: 62259200
I0227 16:21:32.346523 34453 layer_factory.hpp:77] Creating layer conv6/dw/relu
I0227 16:21:32.346555 34453 net.cpp:86] Creating Layer conv6/dw/relu
I0227 16:21:32.346568 34453 net.cpp:408] conv6/dw/relu <- conv6/dw
I0227 16:21:32.346597 34453 net.cpp:369] conv6/dw/relu -> conv6/dw (in-place)
I0227 16:21:32.346623 34453 net.cpp:124] Setting up conv6/dw/relu
I0227 16:21:32.346632 34453 net.cpp:131] Top shape: 1 256 20 20 (102400)
I0227 16:21:32.346640 34453 net.cpp:139] Memory required for data: 62668800
I0227 16:21:32.346649 34453 layer_factory.hpp:77] Creating layer conv6
I0227 16:21:32.346678 34453 net.cpp:86] Creating Layer conv6
I0227 16:21:32.346691 34453 net.cpp:408] conv6 <- conv6/dw
I0227 16:21:32.346719 34453 net.cpp:382] conv6 -> conv6
I0227 16:21:32.375973 34453 net.cpp:124] Setting up conv6
I0227 16:21:32.375995 34453 net.cpp:131] Top shape: 1 512 20 20 (204800)
I0227 16:21:32.376008 34453 net.cpp:139] Memory required for data: 63488000
I0227 16:21:32.376034 34453 layer_factory.hpp:77] Creating layer conv6/relu
I0227 16:21:32.376060 34453 net.cpp:86] Creating Layer conv6/relu
I0227 16:21:32.376073 34453 net.cpp:408] conv6/relu <- conv6
I0227 16:21:32.376101 34453 net.cpp:369] conv6/relu -> conv6 (in-place)
I0227 16:21:32.376127 34453 net.cpp:124] Setting up conv6/relu
I0227 16:21:32.376135 34453 net.cpp:131] Top shape: 1 512 20 20 (204800)
I0227 16:21:32.376145 34453 net.cpp:139] Memory required for data: 64307200
I0227 16:21:32.376154 34453 layer_factory.hpp:77] Creating layer conv7/dw
I0227 16:21:32.376186 34453 net.cpp:86] Creating Layer conv7/dw
I0227 16:21:32.376199 34453 net.cpp:408] conv7/dw <- conv6
I0227 16:21:32.376241 34453 net.cpp:382] conv7/dw -> conv7/dw
I0227 16:21:32.377946 34453 net.cpp:124] Setting up conv7/dw
I0227 16:21:32.377965 34453 net.cpp:131] Top shape: 1 512 20 20 (204800)
I0227 16:21:32.377976 34453 net.cpp:139] Memory required for data: 65126400
I0227 16:21:32.378002 34453 layer_factory.hpp:77] Creating layer conv7/dw/relu
I0227 16:21:32.378031 34453 net.cpp:86] Creating Layer conv7/dw/relu
I0227 16:21:32.378046 34453 net.cpp:408] conv7/dw/relu <- conv7/dw
I0227 16:21:32.378073 34453 net.cpp:369] conv7/dw/relu -> conv7/dw (in-place)
I0227 16:21:32.378099 34453 net.cpp:124] Setting up conv7/dw/relu
I0227 16:21:32.378108 34453 net.cpp:131] Top shape: 1 512 20 20 (204800)
I0227 16:21:32.378118 34453 net.cpp:139] Memory required for data: 65945600
I0227 16:21:32.378126 34453 layer_factory.hpp:77] Creating layer conv7
I0227 16:21:32.378155 34453 net.cpp:86] Creating Layer conv7
I0227 16:21:32.378167 34453 net.cpp:408] conv7 <- conv7/dw
I0227 16:21:32.378196 34453 net.cpp:382] conv7 -> conv7
I0227 16:21:32.429522 34453 net.cpp:124] Setting up conv7
I0227 16:21:32.429538 34453 net.cpp:131] Top shape: 1 512 20 20 (204800)
I0227 16:21:32.429563 34453 net.cpp:139] Memory required for data: 66764800
I0227 16:21:32.429581 34453 layer_factory.hpp:77] Creating layer conv7/relu
I0227 16:21:32.429603 34453 net.cpp:86] Creating Layer conv7/relu
I0227 16:21:32.429615 34453 net.cpp:408] conv7/relu <- conv7
I0227 16:21:32.429654 34453 net.cpp:369] conv7/relu -> conv7 (in-place)
I0227 16:21:32.429677 34453 net.cpp:124] Setting up conv7/relu
I0227 16:21:32.429683 34453 net.cpp:131] Top shape: 1 512 20 20 (204800)
I0227 16:21:32.429692 34453 net.cpp:139] Memory required for data: 67584000
I0227 16:21:32.429698 34453 layer_factory.hpp:77] Creating layer conv8/dw
I0227 16:21:32.429723 34453 net.cpp:86] Creating Layer conv8/dw
I0227 16:21:32.429733 34453 net.cpp:408] conv8/dw <- conv7
I0227 16:21:32.429757 34453 net.cpp:382] conv8/dw -> conv8/dw
I0227 16:21:32.431030 34453 net.cpp:124] Setting up conv8/dw
I0227 16:21:32.431046 34453 net.cpp:131] Top shape: 1 512 20 20 (204800)
I0227 16:21:32.431056 34453 net.cpp:139] Memory required for data: 68403200
I0227 16:21:32.431078 34453 layer_factory.hpp:77] Creating layer conv8/dw/relu
I0227 16:21:32.431118 34453 net.cpp:86] Creating Layer conv8/dw/relu
I0227 16:21:32.431134 34453 net.cpp:408] conv8/dw/relu <- conv8/dw
I0227 16:21:32.431159 34453 net.cpp:369] conv8/dw/relu -> conv8/dw (in-place)
I0227 16:21:32.431183 34453 net.cpp:124] Setting up conv8/dw/relu
I0227 16:21:32.431191 34453 net.cpp:131] Top shape: 1 512 20 20 (204800)
I0227 16:21:32.431200 34453 net.cpp:139] Memory required for data: 69222400
I0227 16:21:32.431208 34453 layer_factory.hpp:77] Creating layer conv8
I0227 16:21:32.431246 34453 net.cpp:86] Creating Layer conv8
I0227 16:21:32.431257 34453 net.cpp:408] conv8 <- conv8/dw
I0227 16:21:32.431283 34453 net.cpp:382] conv8 -> conv8
I0227 16:21:32.480190 34453 net.cpp:124] Setting up conv8
I0227 16:21:32.480208 34453 net.cpp:131] Top shape: 1 512 20 20 (204800)
I0227 16:21:32.480218 34453 net.cpp:139] Memory required for data: 70041600
I0227 16:21:32.480278 34453 layer_factory.hpp:77] Creating layer conv8/relu
I0227 16:21:32.480302 34453 net.cpp:86] Creating Layer conv8/relu
I0227 16:21:32.480314 34453 net.cpp:408] conv8/relu <- conv8
I0227 16:21:32.480337 34453 net.cpp:369] conv8/relu -> conv8 (in-place)
I0227 16:21:32.480360 34453 net.cpp:124] Setting up conv8/relu
I0227 16:21:32.480366 34453 net.cpp:131] Top shape: 1 512 20 20 (204800)
I0227 16:21:32.480374 34453 net.cpp:139] Memory required for data: 70860800
I0227 16:21:32.480382 34453 layer_factory.hpp:77] Creating layer conv9/dw
I0227 16:21:32.480407 34453 net.cpp:86] Creating Layer conv9/dw
I0227 16:21:32.480417 34453 net.cpp:408] conv9/dw <- conv8
I0227 16:21:32.480458 34453 net.cpp:382] conv9/dw -> conv9/dw
I0227 16:21:32.481520 34453 net.cpp:124] Setting up conv9/dw
I0227 16:21:32.481535 34453 net.cpp:131] Top shape: 1 512 20 20 (204800)
I0227 16:21:32.481544 34453 net.cpp:139] Memory required for data: 71680000
I0227 16:21:32.481565 34453 layer_factory.hpp:77] Creating layer conv9/dw/relu
I0227 16:21:32.481587 34453 net.cpp:86] Creating Layer conv9/dw/relu
I0227 16:21:32.481598 34453 net.cpp:408] conv9/dw/relu <- conv9/dw
I0227 16:21:32.481623 34453 net.cpp:369] conv9/dw/relu -> conv9/dw (in-place)
I0227 16:21:32.481644 34453 net.cpp:124] Setting up conv9/dw/relu
I0227 16:21:32.481667 34453 net.cpp:131] Top shape: 1 512 20 20 (204800)
I0227 16:21:32.481674 34453 net.cpp:139] Memory required for data: 72499200
I0227 16:21:32.481683 34453 layer_factory.hpp:77] Creating layer conv9
I0227 16:21:32.481706 34453 net.cpp:86] Creating Layer conv9
I0227 16:21:32.481717 34453 net.cpp:408] conv9 <- conv9/dw
I0227 16:21:32.481741 34453 net.cpp:382] conv9 -> conv9
I0227 16:21:32.527628 34453 net.cpp:124] Setting up conv9
I0227 16:21:32.527644 34453 net.cpp:131] Top shape: 1 512 20 20 (204800)
I0227 16:21:32.527653 34453 net.cpp:139] Memory required for data: 73318400
I0227 16:21:32.527674 34453 layer_factory.hpp:77] Creating layer conv9/relu
I0227 16:21:32.527696 34453 net.cpp:86] Creating Layer conv9/relu
I0227 16:21:32.527707 34453 net.cpp:408] conv9/relu <- conv9
I0227 16:21:32.527727 34453 net.cpp:369] conv9/relu -> conv9 (in-place)
I0227 16:21:32.527748 34453 net.cpp:124] Setting up conv9/relu
I0227 16:21:32.527755 34453 net.cpp:131] Top shape: 1 512 20 20 (204800)
I0227 16:21:32.527762 34453 net.cpp:139] Memory required for data: 74137600
I0227 16:21:32.527786 34453 layer_factory.hpp:77] Creating layer conv10/dw
I0227 16:21:32.527810 34453 net.cpp:86] Creating Layer conv10/dw
I0227 16:21:32.527820 34453 net.cpp:408] conv10/dw <- conv9
I0227 16:21:32.527846 34453 net.cpp:382] conv10/dw -> conv10/dw
I0227 16:21:32.528920 34453 net.cpp:124] Setting up conv10/dw
I0227 16:21:32.528935 34453 net.cpp:131] Top shape: 1 512 20 20 (204800)
I0227 16:21:32.528944 34453 net.cpp:139] Memory required for data: 74956800
I0227 16:21:32.528964 34453 layer_factory.hpp:77] Creating layer conv10/dw/relu
I0227 16:21:32.528987 34453 net.cpp:86] Creating Layer conv10/dw/relu
I0227 16:21:32.528998 34453 net.cpp:408] conv10/dw/relu <- conv10/dw
I0227 16:21:32.529019 34453 net.cpp:369] conv10/dw/relu -> conv10/dw (in-place)
I0227 16:21:32.529042 34453 net.cpp:124] Setting up conv10/dw/relu
I0227 16:21:32.529049 34453 net.cpp:131] Top shape: 1 512 20 20 (204800)
I0227 16:21:32.529057 34453 net.cpp:139] Memory required for data: 75776000
I0227 16:21:32.529064 34453 layer_factory.hpp:77] Creating layer conv10
I0227 16:21:32.529104 34453 net.cpp:86] Creating Layer conv10
I0227 16:21:32.529114 34453 net.cpp:408] conv10 <- conv10/dw
I0227 16:21:32.529137 34453 net.cpp:382] conv10 -> conv10
I0227 16:21:32.580505 34453 net.cpp:124] Setting up conv10
I0227 16:21:32.580530 34453 net.cpp:131] Top shape: 1 512 20 20 (204800)
I0227 16:21:32.580543 34453 net.cpp:139] Memory required for data: 76595200
I0227 16:21:32.580569 34453 layer_factory.hpp:77] Creating layer conv10/relu
I0227 16:21:32.580598 34453 net.cpp:86] Creating Layer conv10/relu
I0227 16:21:32.580612 34453 net.cpp:408] conv10/relu <- conv10
I0227 16:21:32.580639 34453 net.cpp:369] conv10/relu -> conv10 (in-place)
I0227 16:21:32.580664 34453 net.cpp:124] Setting up conv10/relu
I0227 16:21:32.580672 34453 net.cpp:131] Top shape: 1 512 20 20 (204800)
I0227 16:21:32.580682 34453 net.cpp:139] Memory required for data: 77414400
I0227 16:21:32.580689 34453 layer_factory.hpp:77] Creating layer conv11/dw
I0227 16:21:32.580718 34453 net.cpp:86] Creating Layer conv11/dw
I0227 16:21:32.580729 34453 net.cpp:408] conv11/dw <- conv10
I0227 16:21:32.580756 34453 net.cpp:382] conv11/dw -> conv11/dw
I0227 16:21:32.581981 34453 net.cpp:124] Setting up conv11/dw
I0227 16:21:32.581998 34453 net.cpp:131] Top shape: 1 512 20 20 (204800)
I0227 16:21:32.582008 34453 net.cpp:139] Memory required for data: 78233600
I0227 16:21:32.582031 34453 layer_factory.hpp:77] Creating layer conv11/dw/relu
I0227 16:21:32.582056 34453 net.cpp:86] Creating Layer conv11/dw/relu
I0227 16:21:32.582069 34453 net.cpp:408] conv11/dw/relu <- conv11/dw
I0227 16:21:32.582094 34453 net.cpp:369] conv11/dw/relu -> conv11/dw (in-place)
I0227 16:21:32.582118 34453 net.cpp:124] Setting up conv11/dw/relu
I0227 16:21:32.582124 34453 net.cpp:131] Top shape: 1 512 20 20 (204800)
I0227 16:21:32.582134 34453 net.cpp:139] Memory required for data: 79052800
I0227 16:21:32.582142 34453 layer_factory.hpp:77] Creating layer conv11
I0227 16:21:32.582170 34453 net.cpp:86] Creating Layer conv11
I0227 16:21:32.582180 34453 net.cpp:408] conv11 <- conv11/dw
I0227 16:21:32.582209 34453 net.cpp:382] conv11 -> conv11
I0227 16:21:32.628986 34453 net.cpp:124] Setting up conv11
I0227 16:21:32.629004 34453 net.cpp:131] Top shape: 1 512 20 20 (204800)
I0227 16:21:32.629021 34453 net.cpp:139] Memory required for data: 79872000
I0227 16:21:32.629045 34453 layer_factory.hpp:77] Creating layer conv11/relu
I0227 16:21:32.629068 34453 net.cpp:86] Creating Layer conv11/relu
I0227 16:21:32.629081 34453 net.cpp:408] conv11/relu <- conv11
I0227 16:21:32.629108 34453 net.cpp:369] conv11/relu -> conv11 (in-place)
I0227 16:21:32.629132 34453 net.cpp:124] Setting up conv11/relu
I0227 16:21:32.629139 34453 net.cpp:131] Top shape: 1 512 20 20 (204800)
I0227 16:21:32.629148 34453 net.cpp:139] Memory required for data: 80691200
I0227 16:21:32.629156 34453 layer_factory.hpp:77] Creating layer conv11_conv11/relu_0_split
I0227 16:21:32.629197 34453 net.cpp:86] Creating Layer conv11_conv11/relu_0_split
I0227 16:21:32.629242 34453 net.cpp:408] conv11_conv11/relu_0_split <- conv11
I0227 16:21:32.629269 34453 net.cpp:382] conv11_conv11/relu_0_split -> conv11_conv11/relu_0_split_0
I0227 16:21:32.629300 34453 net.cpp:382] conv11_conv11/relu_0_split -> conv11_conv11/relu_0_split_1
I0227 16:21:32.629370 34453 net.cpp:124] Setting up conv11_conv11/relu_0_split
I0227 16:21:32.629382 34453 net.cpp:131] Top shape: 1 512 20 20 (204800)
I0227 16:21:32.629395 34453 net.cpp:131] Top shape: 1 512 20 20 (204800)
I0227 16:21:32.629403 34453 net.cpp:139] Memory required for data: 82329600
I0227 16:21:32.629412 34453 layer_factory.hpp:77] Creating layer conv12/dw
I0227 16:21:32.629439 34453 net.cpp:86] Creating Layer conv12/dw
I0227 16:21:32.629451 34453 net.cpp:408] conv12/dw <- conv11_conv11/relu_0_split_0
I0227 16:21:32.629498 34453 net.cpp:382] conv12/dw -> conv12/dw
I0227 16:21:32.630728 34453 net.cpp:124] Setting up conv12/dw
I0227 16:21:32.630743 34453 net.cpp:131] Top shape: 1 512 10 10 (51200)
I0227 16:21:32.630751 34453 net.cpp:139] Memory required for data: 82534400
I0227 16:21:32.630771 34453 layer_factory.hpp:77] Creating layer conv12/dw/relu
I0227 16:21:32.630796 34453 net.cpp:86] Creating Layer conv12/dw/relu
I0227 16:21:32.630808 34453 net.cpp:408] conv12/dw/relu <- conv12/dw
I0227 16:21:32.630848 34453 net.cpp:369] conv12/dw/relu -> conv12/dw (in-place)
I0227 16:21:32.630870 34453 net.cpp:124] Setting up conv12/dw/relu
I0227 16:21:32.630877 34453 net.cpp:131] Top shape: 1 512 10 10 (51200)
I0227 16:21:32.630885 34453 net.cpp:139] Memory required for data: 82739200
I0227 16:21:32.630893 34453 layer_factory.hpp:77] Creating layer conv12
I0227 16:21:32.630919 34453 net.cpp:86] Creating Layer conv12
I0227 16:21:32.630929 34453 net.cpp:408] conv12 <- conv12/dw
I0227 16:21:32.630952 34453 net.cpp:382] conv12 -> conv12
I0227 16:21:32.724901 34453 net.cpp:124] Setting up conv12
I0227 16:21:32.724921 34453 net.cpp:131] Top shape: 1 1024 10 10 (102400)
I0227 16:21:32.724932 34453 net.cpp:139] Memory required for data: 83148800
I0227 16:21:32.724957 34453 layer_factory.hpp:77] Creating layer conv12/relu
I0227 16:21:32.724984 34453 net.cpp:86] Creating Layer conv12/relu
I0227 16:21:32.724997 34453 net.cpp:408] conv12/relu <- conv12
I0227 16:21:32.725023 34453 net.cpp:369] conv12/relu -> conv12 (in-place)
I0227 16:21:32.725049 34453 net.cpp:124] Setting up conv12/relu
I0227 16:21:32.725056 34453 net.cpp:131] Top shape: 1 1024 10 10 (102400)
I0227 16:21:32.725065 34453 net.cpp:139] Memory required for data: 83558400
I0227 16:21:32.725073 34453 layer_factory.hpp:77] Creating layer conv13/dw
I0227 16:21:32.725105 34453 net.cpp:86] Creating Layer conv13/dw
I0227 16:21:32.725116 34453 net.cpp:408] conv13/dw <- conv12
I0227 16:21:32.725143 34453 net.cpp:382] conv13/dw -> conv13/dw
I0227 16:21:32.727249 34453 net.cpp:124] Setting up conv13/dw
I0227 16:21:32.727265 34453 net.cpp:131] Top shape: 1 1024 10 10 (102400)
I0227 16:21:32.727275 34453 net.cpp:139] Memory required for data: 83968000
I0227 16:21:32.727298 34453 layer_factory.hpp:77] Creating layer conv13/dw/relu
I0227 16:21:32.727324 34453 net.cpp:86] Creating Layer conv13/dw/relu
I0227 16:21:32.727336 34453 net.cpp:408] conv13/dw/relu <- conv13/dw
I0227 16:21:32.727361 34453 net.cpp:369] conv13/dw/relu -> conv13/dw (in-place)
I0227 16:21:32.727385 34453 net.cpp:124] Setting up conv13/dw/relu
I0227 16:21:32.727392 34453 net.cpp:131] Top shape: 1 1024 10 10 (102400)
I0227 16:21:32.727401 34453 net.cpp:139] Memory required for data: 84377600
I0227 16:21:32.727409 34453 layer_factory.hpp:77] Creating layer conv13
I0227 16:21:32.727465 34453 net.cpp:86] Creating Layer conv13
I0227 16:21:32.727476 34453 net.cpp:408] conv13 <- conv13/dw
I0227 16:21:32.727520 34453 net.cpp:382] conv13 -> conv13
I0227 16:21:32.923920 34453 net.cpp:124] Setting up conv13
I0227 16:21:32.923955 34453 net.cpp:131] Top shape: 1 1024 10 10 (102400)
I0227 16:21:32.923985 34453 net.cpp:139] Memory required for data: 84787200
I0227 16:21:32.924021 34453 layer_factory.hpp:77] Creating layer conv13/relu
I0227 16:21:32.924067 34453 net.cpp:86] Creating Layer conv13/relu
I0227 16:21:32.924108 34453 net.cpp:408] conv13/relu <- conv13
I0227 16:21:32.924141 34453 net.cpp:369] conv13/relu -> conv13 (in-place)
I0227 16:21:32.924170 34453 net.cpp:124] Setting up conv13/relu
I0227 16:21:32.924192 34453 net.cpp:131] Top shape: 1 1024 10 10 (102400)
I0227 16:21:32.924201 34453 net.cpp:139] Memory required for data: 85196800
I0227 16:21:32.924208 34453 layer_factory.hpp:77] Creating layer conv15/dw
I0227 16:21:32.924243 34453 net.cpp:86] Creating Layer conv15/dw
I0227 16:21:32.924254 34453 net.cpp:408] conv15/dw <- conv13
I0227 16:21:32.924283 34453 net.cpp:382] conv15/dw -> conv15/dw
I0227 16:21:32.926199 34453 net.cpp:124] Setting up conv15/dw
I0227 16:21:32.926214 34453 net.cpp:131] Top shape: 1 1024 10 10 (102400)
I0227 16:21:32.926223 34453 net.cpp:139] Memory required for data: 85606400
I0227 16:21:32.926259 34453 layer_factory.hpp:77] Creating layer conv15/dw/relu
I0227 16:21:32.926290 34453 net.cpp:86] Creating Layer conv15/dw/relu
I0227 16:21:32.926302 34453 net.cpp:408] conv15/dw/relu <- conv15/dw
I0227 16:21:32.926326 34453 net.cpp:369] conv15/dw/relu -> conv15/dw (in-place)
I0227 16:21:32.926348 34453 net.cpp:124] Setting up conv15/dw/relu
I0227 16:21:32.926354 34453 net.cpp:131] Top shape: 1 1024 10 10 (102400)
I0227 16:21:32.926362 34453 net.cpp:139] Memory required for data: 86016000
I0227 16:21:32.926370 34453 layer_factory.hpp:77] Creating layer conv15
I0227 16:21:32.926399 34453 net.cpp:86] Creating Layer conv15
I0227 16:21:32.926409 34453 net.cpp:408] conv15 <- conv15/dw
I0227 16:21:32.926434 34453 net.cpp:382] conv15 -> conv15
I0227 16:21:33.113983 34453 net.cpp:124] Setting up conv15
I0227 16:21:33.114045 34453 net.cpp:131] Top shape: 1 1024 10 10 (102400)
I0227 16:21:33.114076 34453 net.cpp:139] Memory required for data: 86425600
I0227 16:21:33.114152 34453 layer_factory.hpp:77] Creating layer conv15/relu
I0227 16:21:33.114214 34453 net.cpp:86] Creating Layer conv15/relu
I0227 16:21:33.114243 34453 net.cpp:408] conv15/relu <- conv15
I0227 16:21:33.114279 34453 net.cpp:369] conv15/relu -> conv15 (in-place)
I0227 16:21:33.114311 34453 net.cpp:124] Setting up conv15/relu
I0227 16:21:33.114318 34453 net.cpp:131] Top shape: 1 1024 10 10 (102400)
I0227 16:21:33.114326 34453 net.cpp:139] Memory required for data: 86835200
I0227 16:21:33.114334 34453 layer_factory.hpp:77] Creating layer conv15_conv15/relu_0_split
I0227 16:21:33.114377 34453 net.cpp:86] Creating Layer conv15_conv15/relu_0_split
I0227 16:21:33.114387 34453 net.cpp:408] conv15_conv15/relu_0_split <- conv15
I0227 16:21:33.114409 34453 net.cpp:382] conv15_conv15/relu_0_split -> conv15_conv15/relu_0_split_0
I0227 16:21:33.114456 34453 net.cpp:382] conv15_conv15/relu_0_split -> conv15_conv15/relu_0_split_1
I0227 16:21:33.114537 34453 net.cpp:124] Setting up conv15_conv15/relu_0_split
I0227 16:21:33.114549 34453 net.cpp:131] Top shape: 1 1024 10 10 (102400)
I0227 16:21:33.114562 34453 net.cpp:131] Top shape: 1 1024 10 10 (102400)
I0227 16:21:33.114570 34453 net.cpp:139] Memory required for data: 87654400
I0227 16:21:33.114581 34453 layer_factory.hpp:77] Creating layer upsample
I0227 16:21:33.114648 34453 net.cpp:86] Creating Layer upsample
I0227 16:21:33.114661 34453 net.cpp:408] upsample <- conv15_conv15/relu_0_split_0
I0227 16:21:33.114691 34453 net.cpp:382] upsample -> upsample
I0227 16:21:33.114956 34453 net.cpp:124] Setting up upsample
I0227 16:21:33.114970 34453 net.cpp:131] Top shape: 1 512 19 19 (184832)
I0227 16:21:33.114980 34453 net.cpp:139] Memory required for data: 88393728
I0227 16:21:33.114997 34453 layer_factory.hpp:77] Creating layer maxpool
I0227 16:21:33.115051 34453 net.cpp:86] Creating Layer maxpool
I0227 16:21:33.115062 34453 net.cpp:408] maxpool <- upsample
I0227 16:21:33.115088 34453 net.cpp:382] maxpool -> maxpool
I0227 16:21:33.115177 34453 net.cpp:124] Setting up maxpool
I0227 16:21:33.115190 34453 net.cpp:131] Top shape: 1 512 20 20 (204800)
I0227 16:21:33.115201 34453 net.cpp:139] Memory required for data: 89212928
I0227 16:21:33.115211 34453 layer_factory.hpp:77] Creating layer conv17/dw
I0227 16:21:33.115262 34453 net.cpp:86] Creating Layer conv17/dw
I0227 16:21:33.115278 34453 net.cpp:408] conv17/dw <- conv11_conv11/relu_0_split_1
I0227 16:21:33.115309 34453 net.cpp:382] conv17/dw -> conv17/dw
I0227 16:21:33.116480 34453 net.cpp:124] Setting up conv17/dw
I0227 16:21:33.116495 34453 net.cpp:131] Top shape: 1 512 20 20 (204800)
I0227 16:21:33.116504 34453 net.cpp:139] Memory required for data: 90032128
I0227 16:21:33.116525 34453 layer_factory.hpp:77] Creating layer conv17/dw/relu
I0227 16:21:33.116569 34453 net.cpp:86] Creating Layer conv17/dw/relu
I0227 16:21:33.116580 34453 net.cpp:408] conv17/dw/relu <- conv17/dw
I0227 16:21:33.116605 34453 net.cpp:369] conv17/dw/relu -> conv17/dw (in-place)
I0227 16:21:33.116627 34453 net.cpp:124] Setting up conv17/dw/relu
I0227 16:21:33.116633 34453 net.cpp:131] Top shape: 1 512 20 20 (204800)
I0227 16:21:33.116641 34453 net.cpp:139] Memory required for data: 90851328
I0227 16:21:33.116652 34453 layer_factory.hpp:77] Creating layer conv17
I0227 16:21:33.116679 34453 net.cpp:86] Creating Layer conv17
I0227 16:21:33.116689 34453 net.cpp:408] conv17 <- conv17/dw
I0227 16:21:33.116713 34453 net.cpp:382] conv17 -> conv17
I0227 16:21:33.169569 34453 net.cpp:124] Setting up conv17
I0227 16:21:33.169585 34453 net.cpp:131] Top shape: 1 512 20 20 (204800)
I0227 16:21:33.169595 34453 net.cpp:139] Memory required for data: 91670528
I0227 16:21:33.169631 34453 layer_factory.hpp:77] Creating layer conv17/relu
I0227 16:21:33.169659 34453 net.cpp:86] Creating Layer conv17/relu
I0227 16:21:33.169672 34453 net.cpp:408] conv17/relu <- conv17
I0227 16:21:33.169693 34453 net.cpp:369] conv17/relu -> conv17 (in-place)
I0227 16:21:33.169715 34453 net.cpp:124] Setting up conv17/relu
I0227 16:21:33.169723 34453 net.cpp:131] Top shape: 1 512 20 20 (204800)
I0227 16:21:33.169729 34453 net.cpp:139] Memory required for data: 92489728
I0227 16:21:33.169737 34453 layer_factory.hpp:77] Creating layer conv17/sum
I0227 16:21:33.169786 34453 net.cpp:86] Creating Layer conv17/sum
I0227 16:21:33.169796 34453 net.cpp:408] conv17/sum <- maxpool
I0227 16:21:33.169814 34453 net.cpp:408] conv17/sum <- conv17
I0227 16:21:33.169831 34453 net.cpp:382] conv17/sum -> conv17/sum
I0227 16:21:33.169914 34453 net.cpp:124] Setting up conv17/sum
I0227 16:21:33.169926 34453 net.cpp:131] Top shape: 1 512 20 20 (204800)
I0227 16:21:33.169934 34453 net.cpp:139] Memory required for data: 93308928
I0227 16:21:33.169945 34453 layer_factory.hpp:77] Creating layer conv18/dw
I0227 16:21:33.169972 34453 net.cpp:86] Creating Layer conv18/dw
I0227 16:21:33.169983 34453 net.cpp:408] conv18/dw <- conv17/sum
I0227 16:21:33.170008 34453 net.cpp:382] conv18/dw -> conv18/dw
I0227 16:21:33.171041 34453 net.cpp:124] Setting up conv18/dw
I0227 16:21:33.171054 34453 net.cpp:131] Top shape: 1 512 20 20 (204800)
I0227 16:21:33.171063 34453 net.cpp:139] Memory required for data: 94128128
I0227 16:21:33.171113 34453 layer_factory.hpp:77] Creating layer conv18/dw/relu
I0227 16:21:33.171135 34453 net.cpp:86] Creating Layer conv18/dw/relu
I0227 16:21:33.171146 34453 net.cpp:408] conv18/dw/relu <- conv18/dw
I0227 16:21:33.171166 34453 net.cpp:369] conv18/dw/relu -> conv18/dw (in-place)
I0227 16:21:33.171186 34453 net.cpp:124] Setting up conv18/dw/relu
I0227 16:21:33.171193 34453 net.cpp:131] Top shape: 1 512 20 20 (204800)
I0227 16:21:33.171200 34453 net.cpp:139] Memory required for data: 94947328
I0227 16:21:33.171207 34453 layer_factory.hpp:77] Creating layer conv18_new
I0227 16:21:33.171232 34453 net.cpp:86] Creating Layer conv18_new
I0227 16:21:33.171242 34453 net.cpp:408] conv18_new <- conv18/dw
I0227 16:21:33.171264 34453 net.cpp:382] conv18_new -> conv18_new
I0227 16:21:33.259505 34453 net.cpp:124] Setting up conv18_new
I0227 16:21:33.259522 34453 net.cpp:131] Top shape: 1 1024 20 20 (409600)
I0227 16:21:33.259531 34453 net.cpp:139] Memory required for data: 96585728
I0227 16:21:33.259552 34453 layer_factory.hpp:77] Creating layer conv18_new/relu
I0227 16:21:33.259577 34453 net.cpp:86] Creating Layer conv18_new/relu
I0227 16:21:33.259603 34453 net.cpp:408] conv18_new/relu <- conv18_new
I0227 16:21:33.259627 34453 net.cpp:369] conv18_new/relu -> conv18_new (in-place)
I0227 16:21:33.259649 34453 net.cpp:124] Setting up conv18_new/relu
I0227 16:21:33.259655 34453 net.cpp:131] Top shape: 1 1024 20 20 (409600)
I0227 16:21:33.259663 34453 net.cpp:139] Memory required for data: 98224128
I0227 16:21:33.259670 34453 layer_factory.hpp:77] Creating layer conv19
I0227 16:21:33.259711 34453 net.cpp:86] Creating Layer conv19
I0227 16:21:33.259721 34453 net.cpp:408] conv19 <- conv15_conv15/relu_0_split_1
I0227 16:21:33.259748 34453 net.cpp:382] conv19 -> conv19
I0227 16:21:33.264577 34453 net.cpp:124] Setting up conv19
I0227 16:21:33.264592 34453 net.cpp:131] Top shape: 1 75 10 10 (7500)
I0227 16:21:33.264601 34453 net.cpp:139] Memory required for data: 98254128
I0227 16:21:33.264622 34453 layer_factory.hpp:77] Creating layer conv20
I0227 16:21:33.264654 34453 net.cpp:86] Creating Layer conv20
I0227 16:21:33.264667 34453 net.cpp:408] conv20 <- conv18_new
I0227 16:21:33.264695 34453 net.cpp:382] conv20 -> conv20
I0227 16:21:33.269410 34453 net.cpp:124] Setting up conv20
I0227 16:21:33.269425 34453 net.cpp:131] Top shape: 1 75 20 20 (30000)
I0227 16:21:33.269433 34453 net.cpp:139] Memory required for data: 98374128
I0227 16:21:33.269455 34453 net.cpp:202] conv20 does not need backward computation.
I0227 16:21:33.269466 34453 net.cpp:202] conv19 does not need backward computation.
I0227 16:21:33.269474 34453 net.cpp:202] conv18_new/relu does not need backward computation.
I0227 16:21:33.269484 34453 net.cpp:202] conv18_new does not need backward computation.
…
