I0227 15:04:58.684926 34540 caffe.cpp:339] Use GPU with device ID 1
I0227 15:04:59.502197 34540 net.cpp:296] The NetState phase (0) differed from the phase (1) specified by a rule in layer detection_out
I0227 15:04:59.502243 34540 net.cpp:53] Initializing net from parameters: 
name: "remove_bn"
state {
  phase: TRAIN
  level: 0
  stage: ""
}
layer {
  name: "data"
  type: "Input"
  top: "data"
  input_param {
    shape {
      dim: 1
      dim: 3
      dim: 320
      dim: 320
    }
  }
}
layer {
  name: "conv0"
  type: "Convolution"
  bottom: "data"
  top: "conv0"
  param {
    lr_mult: 1
    decay_mult: 1
  }
  convolution_param {
    num_output: 32
    bias_term: true
    pad: 1
    kernel_size: 3
    stride: 2
    weight_filler {
      type: "msra"
    }
  }
}
layer {
  name: "conv0/relu"
  type: "ReLU"
  bottom: "conv0"
  top: "conv0"
}
layer {
  name: "conv1/dw"
  type: "DepthwiseConvolution"
  bottom: "conv0"
  top: "conv1/dw"
  param {
    lr_mult: 1
    decay_mult: 1
  }
  convolution_param {
    num_output: 32
    bias_term: true
    pad: 1
    kernel_size: 3
    group: 32
    weight_filler {
      type: "msra"
    }
    engine: CAFFE
  }
}
layer {
  name: "conv1/dw/relu"
  type: "ReLU"
  bottom: "conv1/dw"
  top: "conv1/dw"
}
layer {
  name: "conv1"
  type: "Convolution"
  bottom: "conv1/dw"
  top: "conv1"
  param {
    lr_mult: 1
    decay_mult: 1
  }
  convolution_param {
    num_output: 64
    bias_term: true
    kernel_size: 1
    weight_filler {
      type: "msra"
    }
  }
}
layer {
  name: "conv1/relu"
  type: "ReLU"
  bottom: "conv1"
  top: "conv1"
}
layer {
  name: "conv2/dw"
  type: "DepthwiseConvolution"
  bottom: "conv1"
  top: "conv2/dw"
  param {
    lr_mult: 1
    decay_mult: 1
  }
  convolution_param {
    num_output: 64
    bias_term: true
    pad: 1
    kernel_size: 3
    group: 64
    stride: 2
    weight_filler {
      type: "msra"
    }
    engine: CAFFE
  }
}
layer {
  name: "conv2/dw/relu"
  type: "ReLU"
  bottom: "conv2/dw"
  top: "conv2/dw"
}
layer {
  name: "conv2"
  type: "Convolution"
  bottom: "conv2/dw"
  top: "conv2"
  param {
    lr_mult: 1
    decay_mult: 1
  }
  convolution_param {
    num_output: 128
    bias_term: true
    kernel_size: 1
    weight_filler {
      type: "msra"
    }
  }
}
layer {
  name: "conv2/relu"
  type: "ReLU"
  bottom: "conv2"
  top: "conv2"
}
layer {
  name: "conv3/dw"
  type: "DepthwiseConvolution"
  bottom: "conv2"
  top: "conv3/dw"
  param {
    lr_mult: 1
    decay_mult: 1
  }
  convolution_param {
    num_output: 128
    bias_term: true
    pad: 1
    kernel_size: 3
    group: 128
    weight_filler {
      type: "msra"
    }
    engine: CAFFE
  }
}
layer {
  name: "conv3/dw/relu"
  type: "ReLU"
  bottom: "conv3/dw"
  top: "conv3/dw"
}
layer {
  name: "conv3"
  type: "Convolution"
  bottom: "conv3/dw"
  top: "conv3"
  param {
    lr_mult: 1
    decay_mult: 1
  }
  convolution_param {
    num_output: 128
    bias_term: true
    kernel_size: 1
    weight_filler {
      type: "msra"
    }
  }
}
layer {
  name: "conv3/relu"
  type: "ReLU"
  bottom: "conv3"
  top: "conv3"
}
layer {
  name: "conv4/dw"
  type: "DepthwiseConvolution"
  bottom: "conv3"
  top: "conv4/dw"
  param {
    lr_mult: 1
    decay_mult: 1
  }
  convolution_param {
    num_output: 128
    bias_term: true
    pad: 1
    kernel_size: 3
    group: 128
    stride: 2
    weight_filler {
      type: "msra"
    }
    engine: CAFFE
  }
}
layer {
  name: "conv4/dw/relu"
  type: "ReLU"
  bottom: "conv4/dw"
  top: "conv4/dw"
}
layer {
  name: "conv4"
  type: "Convolution"
  bottom: "conv4/dw"
  top: "conv4"
  param {
    lr_mult: 1
    decay_mult: 1
  }
  convolution_param {
    num_output: 256
    bias_term: true
    kernel_size: 1
    weight_filler {
      type: "msra"
    }
  }
}
layer {
  name: "conv4/relu"
  type: "ReLU"
  bottom: "conv4"
  top: "conv4"
}
layer {
  name: "conv5/dw"
  type: "DepthwiseConvolution"
  bottom: "conv4"
  top: "conv5/dw"
  param {
    lr_mult: 1
    decay_mult: 1
  }
  convolution_param {
    num_output: 256
    bias_term: true
    pad: 1
    kernel_size: 3
    group: 256
    weight_filler {
      type: "msra"
    }
    engine: CAFFE
  }
}
layer {
  name: "conv5/dw/relu"
  type: "ReLU"
  bottom: "conv5/dw"
  top: "conv5/dw"
}
layer {
  name: "conv5"
  type: "Convolution"
  bottom: "conv5/dw"
  top: "conv5"
  param {
    lr_mult: 1
    decay_mult: 1
  }
  convolution_param {
    num_output: 256
    bias_term: true
    kernel_size: 1
    weight_filler {
      type: "msra"
    }
  }
}
layer {
  name: "conv5/relu"
  type: "ReLU"
  bottom: "conv5"
  top: "conv5"
}
layer {
  name: "conv6/dw"
  type: "DepthwiseConvolution"
  bottom: "conv5"
  top: "conv6/dw"
  param {
    lr_mult: 1
    decay_mult: 1
  }
  convolution_param {
    num_output: 256
    bias_term: true
    pad: 1
    kernel_size: 3
    group: 256
    stride: 2
    weight_filler {
      type: "msra"
    }
    engine: CAFFE
  }
}
layer {
  name: "conv6/dw/relu"
  type: "ReLU"
  bottom: "conv6/dw"
  top: "conv6/dw"
}
layer {
  name: "conv6"
  type: "Convolution"
  bottom: "conv6/dw"
  top: "conv6"
  param {
    lr_mult: 1
    decay_mult: 1
  }
  convolution_param {
    num_output: 512
    bias_term: true
    kernel_size: 1
    weight_filler {
      type: "msra"
    }
  }
}
layer {
  name: "conv6/relu"
  type: "ReLU"
  bottom: "conv6"
  top: "conv6"
}
layer {
  name: "conv7/dw"
  type: "DepthwiseConvolution"
  bottom: "conv6"
  top: "conv7/dw"
  param {
    lr_mult: 1
    decay_mult: 1
  }
  convolution_param {
    num_output: 512
    bias_term: true
    pad: 1
    kernel_size: 3
    group: 512
    weight_filler {
      type: "msra"
    }
    engine: CAFFE
  }
}
layer {
  name: "conv7/dw/relu"
  type: "ReLU"
  bottom: "conv7/dw"
  top: "conv7/dw"
}
layer {
  name: "conv7"
  type: "Convolution"
  bottom: "conv7/dw"
  top: "conv7"
  param {
    lr_mult: 1
    decay_mult: 1
  }
  convolution_param {
    num_output: 512
    bias_term: true
    kernel_size: 1
    weight_filler {
      type: "msra"
    }
  }
}
layer {
  name: "conv7/relu"
  type: "ReLU"
  bottom: "conv7"
  top: "conv7"
}
layer {
  name: "conv8/dw"
  type: "DepthwiseConvolution"
  bottom: "conv7"
  top: "conv8/dw"
  param {
    lr_mult: 1
    decay_mult: 1
  }
  convolution_param {
    num_output: 512
    bias_term: true
    pad: 1
    kernel_size: 3
    group: 512
    weight_filler {
      type: "msra"
    }
    engine: CAFFE
  }
}
layer {
  name: "conv8/dw/relu"
  type: "ReLU"
  bottom: "conv8/dw"
  top: "conv8/dw"
}
layer {
  name: "conv8"
  type: "Convolution"
  bottom: "conv8/dw"
  top: "conv8"
  param {
    lr_mult: 1
    decay_mult: 1
  }
  convolution_param {
    num_output: 512
    bias_term: true
    kernel_size: 1
    weight_filler {
      type: "msra"
    }
  }
}
layer {
  name: "conv8/relu"
  type: "ReLU"
  bottom: "conv8"
  top: "conv8"
}
layer {
  name: "conv9/dw"
  type: "DepthwiseConvolution"
  bottom: "conv8"
  top: "conv9/dw"
  param {
    lr_mult: 1
    decay_mult: 1
  }
  convolution_param {
    num_output: 512
    bias_term: true
    pad: 1
    kernel_size: 3
    group: 512
    weight_filler {
      type: "msra"
    }
    engine: CAFFE
  }
}
layer {
  name: "conv9/dw/relu"
  type: "ReLU"
  bottom: "conv9/dw"
  top: "conv9/dw"
}
layer {
  name: "conv9"
  type: "Convolution"
  bottom: "conv9/dw"
  top: "conv9"
  param {
    lr_mult: 1
    decay_mult: 1
  }
  convolution_param {
    num_output: 512
    bias_term: true
    kernel_size: 1
    weight_filler {
      type: "msra"
    }
  }
}
layer {
  name: "conv9/relu"
  type: "ReLU"
  bottom: "conv9"
  top: "conv9"
}
layer {
  name: "conv10/dw"
  type: "DepthwiseConvolution"
  bottom: "conv9"
  top: "conv10/dw"
  param {
    lr_mult: 1
    decay_mult: 1
  }
  convolution_param {
    num_output: 512
    bias_term: true
    pad: 1
    kernel_size: 3
    group: 512
    weight_filler {
      type: "msra"
    }
    engine: CAFFE
  }
}
layer {
  name: "conv10/dw/relu"
  type: "ReLU"
  bottom: "conv10/dw"
  top: "conv10/dw"
}
layer {
  name: "conv10"
  type: "Convolution"
  bottom: "conv10/dw"
  top: "conv10"
  param {
    lr_mult: 1
    decay_mult: 1
  }
  convolution_param {
    num_output: 512
    bias_term: true
    kernel_size: 1
    weight_filler {
      type: "msra"
    }
  }
}
layer {
  name: "conv10/relu"
  type: "ReLU"
  bottom: "conv10"
  top: "conv10"
}
layer {
  name: "conv11/dw"
  type: "DepthwiseConvolution"
  bottom: "conv10"
  top: "conv11/dw"
  param {
    lr_mult: 1
    decay_mult: 1
  }
  convolution_param {
    num_output: 512
    bias_term: true
    pad: 1
    kernel_size: 3
    group: 512
    weight_filler {
      type: "msra"
    }
    engine: CAFFE
  }
}
layer {
  name: "conv11/dw/relu"
  type: "ReLU"
  bottom: "conv11/dw"
  top: "conv11/dw"
}
layer {
  name: "conv11"
  type: "Convolution"
  bottom: "conv11/dw"
  top: "conv11"
  param {
    lr_mult: 1
    decay_mult: 1
  }
  convolution_param {
    num_output: 512
    bias_term: true
    kernel_size: 1
    weight_filler {
      type: "msra"
    }
  }
}
layer {
  name: "conv11/relu"
  type: "ReLU"
  bottom: "conv11"
  top: "conv11"
}
layer {
  name: "conv12/dw"
  type: "DepthwiseConvolution"
  bottom: "conv11"
  top: "conv12/dw"
  param {
    lr_mult: 1
    decay_mult: 1
  }
  convolution_param {
    num_output: 512
    bias_term: true
    pad: 1
    kernel_size: 3
    group: 512
    stride: 2
    weight_filler {
      type: "msra"
    }
    engine: CAFFE
  }
}
layer {
  name: "conv12/dw/relu"
  type: "ReLU"
  bottom: "conv12/dw"
  top: "conv12/dw"
}
layer {
  name: "conv12"
  type: "Convolution"
  bottom: "conv12/dw"
  top: "conv12"
  param {
    lr_mult: 1
    decay_mult: 1
  }
  convolution_param {
    num_output: 1024
    bias_term: true
    kernel_size: 1
    weight_filler {
      type: "msra"
    }
  }
}
layer {
  name: "conv12/relu"
  type: "ReLU"
  bottom: "conv12"
  top: "conv12"
}
layer {
  name: "conv13/dw"
  type: "DepthwiseConvolution"
  bottom: "conv12"
  top: "conv13/dw"
  param {
    lr_mult: 1
    decay_mult: 1
  }
  convolution_param {
    num_output: 1024
    bias_term: true
    pad: 1
    kernel_size: 3
    group: 1024
    weight_filler {
      type: "msra"
    }
    engine: CAFFE
  }
}
layer {
  name: "conv13/dw/relu"
  type: "ReLU"
  bottom: "conv13/dw"
  top: "conv13/dw"
}
layer {
  name: "conv13"
  type: "Convolution"
  bottom: "conv13/dw"
  top: "conv13"
  param {
    lr_mult: 1
    decay_mult: 1
  }
  convolution_param {
    num_output: 1024
    bias_term: true
    kernel_size: 1
    weight_filler {
      type: "msra"
    }
  }
}
layer {
  name: "conv13/relu"
  type: "ReLU"
  bottom: "conv13"
  top: "conv13"
}
layer {
  name: "conv15/dw"
  type: "DepthwiseConvolution"
  bottom: "conv13"
  top: "conv15/dw"
  param {
    lr_mult: 1
    decay_mult: 1
  }
  convolution_param {
    num_output: 1024
    bias_term: true
    pad: 1
    kernel_size: 3
    group: 1024
    weight_filler {
      type: "msra"
    }
    engine: CAFFE
  }
}
layer {
  name: "conv15/dw/relu"
  type: "ReLU"
  bottom: "conv15/dw"
  top: "conv15/dw"
}
layer {
  name: "conv15"
  type: "Convolution"
  bottom: "conv15/dw"
  top: "conv15"
  param {
    lr_mult: 1
    decay_mult: 1
  }
  convolution_param {
    num_output: 1024
    bias_term: true
    kernel_size: 1
    weight_filler {
      type: "msra"
    }
  }
}
layer {
  name: "conv15/relu"
  type: "ReLU"
  bottom: "conv15"
  top: "conv15"
}
layer {
  name: "upsample"
  type: "Deconvolution"
  bottom: "conv15"
  top: "upsample"
  param {
    lr_mult: 0
    decay_mult: 0
  }
  convolution_param {
    num_output: 512
    bias_term: false
    pad: 0
    kernel_size: 1
    group: 512
    stride: 2
    weight_filler {
      type: "constant"
      value: 1
    }
  }
}
layer {
  name: "maxpool"
  type: "Pooling"
  bottom: "upsample"
  top: "maxpool"
  pooling_param {
    pool: MAX
    kernel_size: 2
    stride: 1
    pad: 1
  }
}
layer {
  name: "conv17/dw"
  type: "DepthwiseConvolution"
  bottom: "conv11"
  top: "conv17/dw"
  param {
    lr_mult: 1
    decay_mult: 1
  }
  convolution_param {
    num_output: 512
    bias_term: true
    pad: 1
    kernel_size: 3
    group: 512
    weight_filler {
      type: "msra"
    }
    engine: CAFFE
  }
}
layer {
  name: "conv17/dw/relu"
  type: "ReLU"
  bottom: "conv17/dw"
  top: "conv17/dw"
}
layer {
  name: "conv17"
  type: "Convolution"
  bottom: "conv17/dw"
  top: "conv17"
  param {
    lr_mult: 1
    decay_mult: 1
  }
  convolution_param {
    num_output: 512
    bias_term: true
    kernel_size: 1
    weight_filler {
      type: "msra"
    }
  }
}
layer {
  name: "conv17/relu"
  type: "ReLU"
  bottom: "conv17"
  top: "conv17"
}
layer {
  name: "conv17/sum"
  type: "Eltwise"
  bottom: "maxpool"
  bottom: "conv17"
  top: "conv17/sum"
}
layer {
  name: "conv18/dw"
  type: "DepthwiseConvolution"
  bottom: "conv17/sum"
  top: "conv18/dw"
  param {
    lr_mult: 1
    decay_mult: 1
  }
  convolution_param {
    num_output: 512
    bias_term: true
    pad: 1
    kernel_size: 3
    group: 512
    weight_filler {
      type: "msra"
    }
    engine: CAFFE
  }
}
layer {
  name: "conv18/dw/relu"
  type: "ReLU"
  bottom: "conv18/dw"
  top: "conv18/dw"
}
layer {
  name: "conv18_new"
  type: "Convolution"
  bottom: "conv18/dw"
  top: "conv18_new"
  param {
    lr_mult: 1
    decay_mult: 1
  }
  convolution_param {
    num_output: 1024
    bias_term: true
    kernel_size: 1
    weight_filler {
      type: "msra"
    }
  }
}
layer {
  name: "conv18_new/relu"
  type: "ReLU"
  bottom: "conv18_new"
  top: "conv18_new"
}
layer {
  name: "conv19"
  type: "Convolution"
  bottom: "conv15"
  top: "conv19"
  param {
    lr_mult: 1
    decay_mult: 1
  }
  param {
    lr_mult: 2
    decay_mult: 0
  }
  convolution_param {
    num_output: 75
    bias_term: true
    pad: 0
    kernel_size: 1
    stride: 1
    weight_filler {
      type: "xavier"
    }
    bias_filler {
      value: 0
    }
  }
}
layer {
  name: "conv20"
  type: "Convolution"
  bottom: "conv18_new"
  top: "conv20"
  param {
    lr_mult: 1
    decay_mult: 1
  }
  param {
    lr_mult: 2
    decay_mult: 0
  }
  convolution_param {
    num_output: 75
    bias_term: true
    pad: 0
    kernel_size: 1
    stride: 1
    weight_filler {
      type: "xavier"
    }
    bias_filler {
      value: 0
    }
  }
}
I0227 15:04:59.503688 34540 layer_factory.hpp:77] Creating layer data
I0227 15:04:59.503749 34540 net.cpp:86] Creating Layer data
I0227 15:04:59.503773 34540 net.cpp:382] data -> data
I0227 15:04:59.515800 34540 net.cpp:124] Setting up data
I0227 15:04:59.515836 34540 net.cpp:131] Top shape: 1 3 320 320 (307200)
I0227 15:04:59.515847 34540 net.cpp:139] Memory required for data: 1228800
I0227 15:04:59.515866 34540 layer_factory.hpp:77] Creating layer conv0
I0227 15:04:59.515915 34540 net.cpp:86] Creating Layer conv0
I0227 15:04:59.515942 34540 net.cpp:408] conv0 <- data
I0227 15:04:59.515986 34540 net.cpp:382] conv0 -> conv0
I0227 15:04:59.519238 34540 net.cpp:124] Setting up conv0
I0227 15:04:59.519256 34540 net.cpp:131] Top shape: 1 32 160 160 (819200)
I0227 15:04:59.519265 34540 net.cpp:139] Memory required for data: 4505600
I0227 15:04:59.519378 34540 layer_factory.hpp:77] Creating layer conv0/relu
I0227 15:04:59.519413 34540 net.cpp:86] Creating Layer conv0/relu
I0227 15:04:59.519425 34540 net.cpp:408] conv0/relu <- conv0
I0227 15:04:59.519443 34540 net.cpp:369] conv0/relu -> conv0 (in-place)
I0227 15:04:59.519464 34540 net.cpp:124] Setting up conv0/relu
I0227 15:04:59.519471 34540 net.cpp:131] Top shape: 1 32 160 160 (819200)
I0227 15:04:59.519477 34540 net.cpp:139] Memory required for data: 7782400
I0227 15:04:59.519484 34540 layer_factory.hpp:77] Creating layer conv1/dw
I0227 15:04:59.519510 34540 net.cpp:86] Creating Layer conv1/dw
I0227 15:04:59.519520 34540 net.cpp:408] conv1/dw <- conv0
I0227 15:04:59.519542 34540 net.cpp:382] conv1/dw -> conv1/dw
I0227 15:04:59.519981 34540 net.cpp:124] Setting up conv1/dw
I0227 15:04:59.519995 34540 net.cpp:131] Top shape: 1 32 160 160 (819200)
I0227 15:04:59.520002 34540 net.cpp:139] Memory required for data: 11059200
I0227 15:04:59.520030 34540 layer_factory.hpp:77] Creating layer conv1/dw/relu
I0227 15:04:59.520056 34540 net.cpp:86] Creating Layer conv1/dw/relu
I0227 15:04:59.520066 34540 net.cpp:408] conv1/dw/relu <- conv1/dw
I0227 15:04:59.520082 34540 net.cpp:369] conv1/dw/relu -> conv1/dw (in-place)
I0227 15:04:59.520114 34540 net.cpp:124] Setting up conv1/dw/relu
I0227 15:04:59.520121 34540 net.cpp:131] Top shape: 1 32 160 160 (819200)
I0227 15:04:59.520154 34540 net.cpp:139] Memory required for data: 14336000
I0227 15:04:59.520165 34540 layer_factory.hpp:77] Creating layer conv1
I0227 15:04:59.520193 34540 net.cpp:86] Creating Layer conv1
I0227 15:04:59.520208 34540 net.cpp:408] conv1 <- conv1/dw
I0227 15:04:59.520241 34540 net.cpp:382] conv1 -> conv1
I0227 15:04:59.522224 34540 net.cpp:124] Setting up conv1
I0227 15:04:59.522254 34540 net.cpp:131] Top shape: 1 64 160 160 (1638400)
I0227 15:04:59.522264 34540 net.cpp:139] Memory required for data: 20889600
I0227 15:04:59.522301 34540 layer_factory.hpp:77] Creating layer conv1/relu
I0227 15:04:59.522321 34540 net.cpp:86] Creating Layer conv1/relu
I0227 15:04:59.522332 34540 net.cpp:408] conv1/relu <- conv1
I0227 15:04:59.522348 34540 net.cpp:369] conv1/relu -> conv1 (in-place)
I0227 15:04:59.522382 34540 net.cpp:124] Setting up conv1/relu
I0227 15:04:59.522388 34540 net.cpp:131] Top shape: 1 64 160 160 (1638400)
I0227 15:04:59.522394 34540 net.cpp:139] Memory required for data: 27443200
I0227 15:04:59.522400 34540 layer_factory.hpp:77] Creating layer conv2/dw
I0227 15:04:59.522423 34540 net.cpp:86] Creating Layer conv2/dw
I0227 15:04:59.522433 34540 net.cpp:408] conv2/dw <- conv1
I0227 15:04:59.522452 34540 net.cpp:382] conv2/dw -> conv2/dw
I0227 15:04:59.524163 34540 net.cpp:124] Setting up conv2/dw
I0227 15:04:59.524180 34540 net.cpp:131] Top shape: 1 64 80 80 (409600)
I0227 15:04:59.524188 34540 net.cpp:139] Memory required for data: 29081600
I0227 15:04:59.524207 34540 layer_factory.hpp:77] Creating layer conv2/dw/relu
I0227 15:04:59.524236 34540 net.cpp:86] Creating Layer conv2/dw/relu
I0227 15:04:59.524262 34540 net.cpp:408] conv2/dw/relu <- conv2/dw
I0227 15:04:59.524286 34540 net.cpp:369] conv2/dw/relu -> conv2/dw (in-place)
I0227 15:04:59.524304 34540 net.cpp:124] Setting up conv2/dw/relu
I0227 15:04:59.524310 34540 net.cpp:131] Top shape: 1 64 80 80 (409600)
I0227 15:04:59.524317 34540 net.cpp:139] Memory required for data: 30720000
I0227 15:04:59.524322 34540 layer_factory.hpp:77] Creating layer conv2
I0227 15:04:59.524343 34540 net.cpp:86] Creating Layer conv2
I0227 15:04:59.524351 34540 net.cpp:408] conv2 <- conv2/dw
I0227 15:04:59.524369 34540 net.cpp:382] conv2 -> conv2
I0227 15:04:59.526302 34540 net.cpp:124] Setting up conv2
I0227 15:04:59.526319 34540 net.cpp:131] Top shape: 1 128 80 80 (819200)
I0227 15:04:59.526327 34540 net.cpp:139] Memory required for data: 33996800
I0227 15:04:59.526357 34540 layer_factory.hpp:77] Creating layer conv2/relu
I0227 15:04:59.526381 34540 net.cpp:86] Creating Layer conv2/relu
I0227 15:04:59.526391 34540 net.cpp:408] conv2/relu <- conv2
I0227 15:04:59.526407 34540 net.cpp:369] conv2/relu -> conv2 (in-place)
I0227 15:04:59.526424 34540 net.cpp:124] Setting up conv2/relu
I0227 15:04:59.526432 34540 net.cpp:131] Top shape: 1 128 80 80 (819200)
I0227 15:04:59.526437 34540 net.cpp:139] Memory required for data: 37273600
I0227 15:04:59.526443 34540 layer_factory.hpp:77] Creating layer conv3/dw
I0227 15:04:59.526465 34540 net.cpp:86] Creating Layer conv3/dw
I0227 15:04:59.526474 34540 net.cpp:408] conv3/dw <- conv2
I0227 15:04:59.526494 34540 net.cpp:382] conv3/dw -> conv3/dw
I0227 15:04:59.527194 34540 net.cpp:124] Setting up conv3/dw
I0227 15:04:59.527207 34540 net.cpp:131] Top shape: 1 128 80 80 (819200)
I0227 15:04:59.527213 34540 net.cpp:139] Memory required for data: 40550400
I0227 15:04:59.527242 34540 layer_factory.hpp:77] Creating layer conv3/dw/relu
I0227 15:04:59.527259 34540 net.cpp:86] Creating Layer conv3/dw/relu
I0227 15:04:59.527268 34540 net.cpp:408] conv3/dw/relu <- conv3/dw
I0227 15:04:59.527283 34540 net.cpp:369] conv3/dw/relu -> conv3/dw (in-place)
I0227 15:04:59.527298 34540 net.cpp:124] Setting up conv3/dw/relu
I0227 15:04:59.527304 34540 net.cpp:131] Top shape: 1 128 80 80 (819200)
I0227 15:04:59.527309 34540 net.cpp:139] Memory required for data: 43827200
I0227 15:04:59.527314 34540 layer_factory.hpp:77] Creating layer conv3
I0227 15:04:59.527333 34540 net.cpp:86] Creating Layer conv3
I0227 15:04:59.527359 34540 net.cpp:408] conv3 <- conv3/dw
I0227 15:04:59.527379 34540 net.cpp:382] conv3 -> conv3
I0227 15:04:59.530575 34540 net.cpp:124] Setting up conv3
I0227 15:04:59.530588 34540 net.cpp:131] Top shape: 1 128 80 80 (819200)
I0227 15:04:59.530594 34540 net.cpp:139] Memory required for data: 47104000
I0227 15:04:59.530609 34540 layer_factory.hpp:77] Creating layer conv3/relu
I0227 15:04:59.530632 34540 net.cpp:86] Creating Layer conv3/relu
I0227 15:04:59.530642 34540 net.cpp:408] conv3/relu <- conv3
I0227 15:04:59.530658 34540 net.cpp:369] conv3/relu -> conv3 (in-place)
I0227 15:04:59.530689 34540 net.cpp:124] Setting up conv3/relu
I0227 15:04:59.530695 34540 net.cpp:131] Top shape: 1 128 80 80 (819200)
I0227 15:04:59.530700 34540 net.cpp:139] Memory required for data: 50380800
I0227 15:04:59.530706 34540 layer_factory.hpp:77] Creating layer conv4/dw
I0227 15:04:59.530724 34540 net.cpp:86] Creating Layer conv4/dw
I0227 15:04:59.530731 34540 net.cpp:408] conv4/dw <- conv3
I0227 15:04:59.530748 34540 net.cpp:382] conv4/dw -> conv4/dw
I0227 15:04:59.531289 34540 net.cpp:124] Setting up conv4/dw
I0227 15:04:59.531301 34540 net.cpp:131] Top shape: 1 128 40 40 (204800)
I0227 15:04:59.531307 34540 net.cpp:139] Memory required for data: 51200000
I0227 15:04:59.531338 34540 layer_factory.hpp:77] Creating layer conv4/dw/relu
I0227 15:04:59.531363 34540 net.cpp:86] Creating Layer conv4/dw/relu
I0227 15:04:59.531373 34540 net.cpp:408] conv4/dw/relu <- conv4/dw
I0227 15:04:59.531388 34540 net.cpp:369] conv4/dw/relu -> conv4/dw (in-place)
I0227 15:04:59.531404 34540 net.cpp:124] Setting up conv4/dw/relu
I0227 15:04:59.531410 34540 net.cpp:131] Top shape: 1 128 40 40 (204800)
I0227 15:04:59.531416 34540 net.cpp:139] Memory required for data: 52019200
I0227 15:04:59.531421 34540 layer_factory.hpp:77] Creating layer conv4
I0227 15:04:59.531442 34540 net.cpp:86] Creating Layer conv4
I0227 15:04:59.531450 34540 net.cpp:408] conv4 <- conv4/dw
I0227 15:04:59.531468 34540 net.cpp:382] conv4 -> conv4
I0227 15:04:59.537849 34540 net.cpp:124] Setting up conv4
I0227 15:04:59.537863 34540 net.cpp:131] Top shape: 1 256 40 40 (409600)
I0227 15:04:59.537868 34540 net.cpp:139] Memory required for data: 53657600
I0227 15:04:59.537930 34540 layer_factory.hpp:77] Creating layer conv4/relu
I0227 15:04:59.537946 34540 net.cpp:86] Creating Layer conv4/relu
I0227 15:04:59.537955 34540 net.cpp:408] conv4/relu <- conv4
I0227 15:04:59.537971 34540 net.cpp:369] conv4/relu -> conv4 (in-place)
I0227 15:04:59.537986 34540 net.cpp:124] Setting up conv4/relu
I0227 15:04:59.537992 34540 net.cpp:131] Top shape: 1 256 40 40 (409600)
I0227 15:04:59.538012 34540 net.cpp:139] Memory required for data: 55296000
I0227 15:04:59.538017 34540 layer_factory.hpp:77] Creating layer conv5/dw
I0227 15:04:59.538034 34540 net.cpp:86] Creating Layer conv5/dw
I0227 15:04:59.538044 34540 net.cpp:408] conv5/dw <- conv4
I0227 15:04:59.538084 34540 net.cpp:382] conv5/dw -> conv5/dw
I0227 15:04:59.538853 34540 net.cpp:124] Setting up conv5/dw
I0227 15:04:59.538866 34540 net.cpp:131] Top shape: 1 256 40 40 (409600)
I0227 15:04:59.538872 34540 net.cpp:139] Memory required for data: 56934400
I0227 15:04:59.538900 34540 layer_factory.hpp:77] Creating layer conv5/dw/relu
I0227 15:04:59.538934 34540 net.cpp:86] Creating Layer conv5/dw/relu
I0227 15:04:59.538959 34540 net.cpp:408] conv5/dw/relu <- conv5/dw
I0227 15:04:59.538980 34540 net.cpp:369] conv5/dw/relu -> conv5/dw (in-place)
I0227 15:04:59.538997 34540 net.cpp:124] Setting up conv5/dw/relu
I0227 15:04:59.539003 34540 net.cpp:131] Top shape: 1 256 40 40 (409600)
I0227 15:04:59.539008 34540 net.cpp:139] Memory required for data: 58572800
I0227 15:04:59.539013 34540 layer_factory.hpp:77] Creating layer conv5
I0227 15:04:59.539031 34540 net.cpp:86] Creating Layer conv5
I0227 15:04:59.539039 34540 net.cpp:408] conv5 <- conv5/dw
I0227 15:04:59.539057 34540 net.cpp:382] conv5 -> conv5
I0227 15:04:59.551301 34540 net.cpp:124] Setting up conv5
I0227 15:04:59.551331 34540 net.cpp:131] Top shape: 1 256 40 40 (409600)
I0227 15:04:59.551352 34540 net.cpp:139] Memory required for data: 60211200
I0227 15:04:59.551369 34540 layer_factory.hpp:77] Creating layer conv5/relu
I0227 15:04:59.551409 34540 net.cpp:86] Creating Layer conv5/relu
I0227 15:04:59.551422 34540 net.cpp:408] conv5/relu <- conv5
I0227 15:04:59.551440 34540 net.cpp:369] conv5/relu -> conv5 (in-place)
I0227 15:04:59.551458 34540 net.cpp:124] Setting up conv5/relu
I0227 15:04:59.551465 34540 net.cpp:131] Top shape: 1 256 40 40 (409600)
I0227 15:04:59.551470 34540 net.cpp:139] Memory required for data: 61849600
I0227 15:04:59.551493 34540 layer_factory.hpp:77] Creating layer conv6/dw
I0227 15:04:59.551512 34540 net.cpp:86] Creating Layer conv6/dw
I0227 15:04:59.551520 34540 net.cpp:408] conv6/dw <- conv5
I0227 15:04:59.551542 34540 net.cpp:382] conv6/dw -> conv6/dw
I0227 15:04:59.552276 34540 net.cpp:124] Setting up conv6/dw
I0227 15:04:59.552289 34540 net.cpp:131] Top shape: 1 256 20 20 (102400)
I0227 15:04:59.552311 34540 net.cpp:139] Memory required for data: 62259200
I0227 15:04:59.552326 34540 layer_factory.hpp:77] Creating layer conv6/dw/relu
I0227 15:04:59.552346 34540 net.cpp:86] Creating Layer conv6/dw/relu
I0227 15:04:59.552371 34540 net.cpp:408] conv6/dw/relu <- conv6/dw
I0227 15:04:59.552387 34540 net.cpp:369] conv6/dw/relu -> conv6/dw (in-place)
I0227 15:04:59.552408 34540 net.cpp:124] Setting up conv6/dw/relu
I0227 15:04:59.552415 34540 net.cpp:131] Top shape: 1 256 20 20 (102400)
I0227 15:04:59.552420 34540 net.cpp:139] Memory required for data: 62668800
I0227 15:04:59.552426 34540 layer_factory.hpp:77] Creating layer conv6
I0227 15:04:59.552445 34540 net.cpp:86] Creating Layer conv6
I0227 15:04:59.552454 34540 net.cpp:408] conv6 <- conv6/dw
I0227 15:04:59.552472 34540 net.cpp:382] conv6 -> conv6
I0227 15:04:59.578375 34540 net.cpp:124] Setting up conv6
I0227 15:04:59.578421 34540 net.cpp:131] Top shape: 1 512 20 20 (204800)
I0227 15:04:59.578431 34540 net.cpp:139] Memory required for data: 63488000
I0227 15:04:59.578459 34540 layer_factory.hpp:77] Creating layer conv6/relu
I0227 15:04:59.578528 34540 net.cpp:86] Creating Layer conv6/relu
I0227 15:04:59.578546 34540 net.cpp:408] conv6/relu <- conv6
I0227 15:04:59.578572 34540 net.cpp:369] conv6/relu -> conv6 (in-place)
I0227 15:04:59.578595 34540 net.cpp:124] Setting up conv6/relu
I0227 15:04:59.578601 34540 net.cpp:131] Top shape: 1 512 20 20 (204800)
I0227 15:04:59.578606 34540 net.cpp:139] Memory required for data: 64307200
I0227 15:04:59.578611 34540 layer_factory.hpp:77] Creating layer conv7/dw
I0227 15:04:59.578637 34540 net.cpp:86] Creating Layer conv7/dw
I0227 15:04:59.578646 34540 net.cpp:408] conv7/dw <- conv6
I0227 15:04:59.578670 34540 net.cpp:382] conv7/dw -> conv7/dw
I0227 15:04:59.579861 34540 net.cpp:124] Setting up conv7/dw
I0227 15:04:59.579875 34540 net.cpp:131] Top shape: 1 512 20 20 (204800)
I0227 15:04:59.579881 34540 net.cpp:139] Memory required for data: 65126400
I0227 15:04:59.579897 34540 layer_factory.hpp:77] Creating layer conv7/dw/relu
I0227 15:04:59.579915 34540 net.cpp:86] Creating Layer conv7/dw/relu
I0227 15:04:59.579926 34540 net.cpp:408] conv7/dw/relu <- conv7/dw
I0227 15:04:59.579942 34540 net.cpp:369] conv7/dw/relu -> conv7/dw (in-place)
I0227 15:04:59.579962 34540 net.cpp:124] Setting up conv7/dw/relu
I0227 15:04:59.579983 34540 net.cpp:131] Top shape: 1 512 20 20 (204800)
I0227 15:04:59.579989 34540 net.cpp:139] Memory required for data: 65945600
I0227 15:04:59.579995 34540 layer_factory.hpp:77] Creating layer conv7
I0227 15:04:59.580044 34540 net.cpp:86] Creating Layer conv7
I0227 15:04:59.580052 34540 net.cpp:408] conv7 <- conv7/dw
I0227 15:04:59.580086 34540 net.cpp:382] conv7 -> conv7
I0227 15:04:59.629745 34540 net.cpp:124] Setting up conv7
I0227 15:04:59.629892 34540 net.cpp:131] Top shape: 1 512 20 20 (204800)
I0227 15:04:59.629931 34540 net.cpp:139] Memory required for data: 66764800
I0227 15:04:59.630013 34540 layer_factory.hpp:77] Creating layer conv7/relu
I0227 15:04:59.630134 34540 net.cpp:86] Creating Layer conv7/relu
I0227 15:04:59.630169 34540 net.cpp:408] conv7/relu <- conv7
I0227 15:04:59.630283 34540 net.cpp:369] conv7/relu -> conv7 (in-place)
I0227 15:04:59.630331 34540 net.cpp:124] Setting up conv7/relu
I0227 15:04:59.630342 34540 net.cpp:131] Top shape: 1 512 20 20 (204800)
I0227 15:04:59.630352 34540 net.cpp:139] Memory required for data: 67584000
I0227 15:04:59.630362 34540 layer_factory.hpp:77] Creating layer conv8/dw
I0227 15:04:59.630403 34540 net.cpp:86] Creating Layer conv8/dw
I0227 15:04:59.630416 34540 net.cpp:408] conv8/dw <- conv7
I0227 15:04:59.630450 34540 net.cpp:382] conv8/dw -> conv8/dw
I0227 15:04:59.631966 34540 net.cpp:124] Setting up conv8/dw
I0227 15:04:59.631984 34540 net.cpp:131] Top shape: 1 512 20 20 (204800)
I0227 15:04:59.631995 34540 net.cpp:139] Memory required for data: 68403200
I0227 15:04:59.632014 34540 layer_factory.hpp:77] Creating layer conv8/dw/relu
I0227 15:04:59.632067 34540 net.cpp:86] Creating Layer conv8/dw/relu
I0227 15:04:59.632081 34540 net.cpp:408] conv8/dw/relu <- conv8/dw
I0227 15:04:59.632102 34540 net.cpp:369] conv8/dw/relu -> conv8/dw (in-place)
I0227 15:04:59.632120 34540 net.cpp:124] Setting up conv8/dw/relu
I0227 15:04:59.632127 34540 net.cpp:131] Top shape: 1 512 20 20 (204800)
I0227 15:04:59.632133 34540 net.cpp:139] Memory required for data: 69222400
I0227 15:04:59.632138 34540 layer_factory.hpp:77] Creating layer conv8
I0227 15:04:59.632166 34540 net.cpp:86] Creating Layer conv8
I0227 15:04:59.632175 34540 net.cpp:408] conv8 <- conv8/dw
I0227 15:04:59.632195 34540 net.cpp:382] conv8 -> conv8
I0227 15:04:59.680443 34540 net.cpp:124] Setting up conv8
I0227 15:04:59.680492 34540 net.cpp:131] Top shape: 1 512 20 20 (204800)
I0227 15:04:59.680502 34540 net.cpp:139] Memory required for data: 70041600
I0227 15:04:59.680568 34540 layer_factory.hpp:77] Creating layer conv8/relu
I0227 15:04:59.680603 34540 net.cpp:86] Creating Layer conv8/relu
I0227 15:04:59.680619 34540 net.cpp:408] conv8/relu <- conv8
I0227 15:04:59.680640 34540 net.cpp:369] conv8/relu -> conv8 (in-place)
I0227 15:04:59.680663 34540 net.cpp:124] Setting up conv8/relu
I0227 15:04:59.680670 34540 net.cpp:131] Top shape: 1 512 20 20 (204800)
I0227 15:04:59.680676 34540 net.cpp:139] Memory required for data: 70860800
I0227 15:04:59.680681 34540 layer_factory.hpp:77] Creating layer conv9/dw
I0227 15:04:59.680707 34540 net.cpp:86] Creating Layer conv9/dw
I0227 15:04:59.680716 34540 net.cpp:408] conv9/dw <- conv8
I0227 15:04:59.680742 34540 net.cpp:382] conv9/dw -> conv9/dw
I0227 15:04:59.681896 34540 net.cpp:124] Setting up conv9/dw
I0227 15:04:59.681910 34540 net.cpp:131] Top shape: 1 512 20 20 (204800)
I0227 15:04:59.681916 34540 net.cpp:139] Memory required for data: 71680000
I0227 15:04:59.681946 34540 layer_factory.hpp:77] Creating layer conv9/dw/relu
I0227 15:04:59.681964 34540 net.cpp:86] Creating Layer conv9/dw/relu
I0227 15:04:59.681991 34540 net.cpp:408] conv9/dw/relu <- conv9/dw
I0227 15:04:59.682009 34540 net.cpp:369] conv9/dw/relu -> conv9/dw (in-place)
I0227 15:04:59.682026 34540 net.cpp:124] Setting up conv9/dw/relu
I0227 15:04:59.682032 34540 net.cpp:131] Top shape: 1 512 20 20 (204800)
I0227 15:04:59.682039 34540 net.cpp:139] Memory required for data: 72499200
I0227 15:04:59.682044 34540 layer_factory.hpp:77] Creating layer conv9
I0227 15:04:59.682065 34540 net.cpp:86] Creating Layer conv9
I0227 15:04:59.682075 34540 net.cpp:408] conv9 <- conv9/dw
I0227 15:04:59.682091 34540 net.cpp:382] conv9 -> conv9
I0227 15:04:59.731129 34540 net.cpp:124] Setting up conv9
I0227 15:04:59.731173 34540 net.cpp:131] Top shape: 1 512 20 20 (204800)
I0227 15:04:59.731184 34540 net.cpp:139] Memory required for data: 73318400
I0227 15:04:59.731211 34540 layer_factory.hpp:77] Creating layer conv9/relu
I0227 15:04:59.731303 34540 net.cpp:86] Creating Layer conv9/relu
I0227 15:04:59.731320 34540 net.cpp:408] conv9/relu <- conv9
I0227 15:04:59.731348 34540 net.cpp:369] conv9/relu -> conv9 (in-place)
I0227 15:04:59.731372 34540 net.cpp:124] Setting up conv9/relu
I0227 15:04:59.731379 34540 net.cpp:131] Top shape: 1 512 20 20 (204800)
I0227 15:04:59.731384 34540 net.cpp:139] Memory required for data: 74137600
I0227 15:04:59.731417 34540 layer_factory.hpp:77] Creating layer conv10/dw
I0227 15:04:59.731446 34540 net.cpp:86] Creating Layer conv10/dw
I0227 15:04:59.731456 34540 net.cpp:408] conv10/dw <- conv9
I0227 15:04:59.731477 34540 net.cpp:382] conv10/dw -> conv10/dw
I0227 15:04:59.732677 34540 net.cpp:124] Setting up conv10/dw
I0227 15:04:59.732692 34540 net.cpp:131] Top shape: 1 512 20 20 (204800)
I0227 15:04:59.732698 34540 net.cpp:139] Memory required for data: 74956800
I0227 15:04:59.732729 34540 layer_factory.hpp:77] Creating layer conv10/dw/relu
I0227 15:04:59.732749 34540 net.cpp:86] Creating Layer conv10/dw/relu
I0227 15:04:59.732759 34540 net.cpp:408] conv10/dw/relu <- conv10/dw
I0227 15:04:59.732775 34540 net.cpp:369] conv10/dw/relu -> conv10/dw (in-place)
I0227 15:04:59.732792 34540 net.cpp:124] Setting up conv10/dw/relu
I0227 15:04:59.732798 34540 net.cpp:131] Top shape: 1 512 20 20 (204800)
I0227 15:04:59.732803 34540 net.cpp:139] Memory required for data: 75776000
I0227 15:04:59.732810 34540 layer_factory.hpp:77] Creating layer conv10
I0227 15:04:59.732831 34540 net.cpp:86] Creating Layer conv10
I0227 15:04:59.732854 34540 net.cpp:408] conv10 <- conv10/dw
I0227 15:04:59.732872 34540 net.cpp:382] conv10 -> conv10
I0227 15:04:59.784126 34540 net.cpp:124] Setting up conv10
I0227 15:04:59.784193 34540 net.cpp:131] Top shape: 1 512 20 20 (204800)
I0227 15:04:59.784206 34540 net.cpp:139] Memory required for data: 76595200
I0227 15:04:59.784256 34540 layer_factory.hpp:77] Creating layer conv10/relu
I0227 15:04:59.784296 34540 net.cpp:86] Creating Layer conv10/relu
I0227 15:04:59.784313 34540 net.cpp:408] conv10/relu <- conv10
I0227 15:04:59.784343 34540 net.cpp:369] conv10/relu -> conv10 (in-place)
I0227 15:04:59.784368 34540 net.cpp:124] Setting up conv10/relu
I0227 15:04:59.784375 34540 net.cpp:131] Top shape: 1 512 20 20 (204800)
I0227 15:04:59.784381 34540 net.cpp:139] Memory required for data: 77414400
I0227 15:04:59.784387 34540 layer_factory.hpp:77] Creating layer conv11/dw
I0227 15:04:59.784418 34540 net.cpp:86] Creating Layer conv11/dw
I0227 15:04:59.784428 34540 net.cpp:408] conv11/dw <- conv10
I0227 15:04:59.784448 34540 net.cpp:382] conv11/dw -> conv11/dw
I0227 15:04:59.785784 34540 net.cpp:124] Setting up conv11/dw
I0227 15:04:59.785802 34540 net.cpp:131] Top shape: 1 512 20 20 (204800)
I0227 15:04:59.785810 34540 net.cpp:139] Memory required for data: 78233600
I0227 15:04:59.785828 34540 layer_factory.hpp:77] Creating layer conv11/dw/relu
I0227 15:04:59.785851 34540 net.cpp:86] Creating Layer conv11/dw/relu
I0227 15:04:59.785861 34540 net.cpp:408] conv11/dw/relu <- conv11/dw
I0227 15:04:59.785879 34540 net.cpp:369] conv11/dw/relu -> conv11/dw (in-place)
I0227 15:04:59.785897 34540 net.cpp:124] Setting up conv11/dw/relu
I0227 15:04:59.785904 34540 net.cpp:131] Top shape: 1 512 20 20 (204800)
I0227 15:04:59.785910 34540 net.cpp:139] Memory required for data: 79052800
I0227 15:04:59.785915 34540 layer_factory.hpp:77] Creating layer conv11
I0227 15:04:59.785936 34540 net.cpp:86] Creating Layer conv11
I0227 15:04:59.785945 34540 net.cpp:408] conv11 <- conv11/dw
I0227 15:04:59.785964 34540 net.cpp:382] conv11 -> conv11
I0227 15:04:59.833772 34540 net.cpp:124] Setting up conv11
I0227 15:04:59.833823 34540 net.cpp:131] Top shape: 1 512 20 20 (204800)
I0227 15:04:59.833833 34540 net.cpp:139] Memory required for data: 79872000
I0227 15:04:59.833890 34540 layer_factory.hpp:77] Creating layer conv11/relu
I0227 15:04:59.833938 34540 net.cpp:86] Creating Layer conv11/relu
I0227 15:04:59.833956 34540 net.cpp:408] conv11/relu <- conv11
I0227 15:04:59.833983 34540 net.cpp:369] conv11/relu -> conv11 (in-place)
I0227 15:04:59.834007 34540 net.cpp:124] Setting up conv11/relu
I0227 15:04:59.834013 34540 net.cpp:131] Top shape: 1 512 20 20 (204800)
I0227 15:04:59.834019 34540 net.cpp:139] Memory required for data: 80691200
I0227 15:04:59.834024 34540 layer_factory.hpp:77] Creating layer conv11_conv11/relu_0_split
I0227 15:04:59.834045 34540 net.cpp:86] Creating Layer conv11_conv11/relu_0_split
I0227 15:04:59.834097 34540 net.cpp:408] conv11_conv11/relu_0_split <- conv11
I0227 15:04:59.834117 34540 net.cpp:382] conv11_conv11/relu_0_split -> conv11_conv11/relu_0_split_0
I0227 15:04:59.834141 34540 net.cpp:382] conv11_conv11/relu_0_split -> conv11_conv11/relu_0_split_1
I0227 15:04:59.834203 34540 net.cpp:124] Setting up conv11_conv11/relu_0_split
I0227 15:04:59.834214 34540 net.cpp:131] Top shape: 1 512 20 20 (204800)
I0227 15:04:59.834221 34540 net.cpp:131] Top shape: 1 512 20 20 (204800)
I0227 15:04:59.834225 34540 net.cpp:139] Memory required for data: 82329600
I0227 15:04:59.834233 34540 layer_factory.hpp:77] Creating layer conv12/dw
I0227 15:04:59.834280 34540 net.cpp:86] Creating Layer conv12/dw
I0227 15:04:59.834290 34540 net.cpp:408] conv12/dw <- conv11_conv11/relu_0_split_0
I0227 15:04:59.834321 34540 net.cpp:382] conv12/dw -> conv12/dw
I0227 15:04:59.835566 34540 net.cpp:124] Setting up conv12/dw
I0227 15:04:59.835579 34540 net.cpp:131] Top shape: 1 512 10 10 (51200)
I0227 15:04:59.835587 34540 net.cpp:139] Memory required for data: 82534400
I0227 15:04:59.835618 34540 layer_factory.hpp:77] Creating layer conv12/dw/relu
I0227 15:04:59.835638 34540 net.cpp:86] Creating Layer conv12/dw/relu
I0227 15:04:59.835650 34540 net.cpp:408] conv12/dw/relu <- conv12/dw
I0227 15:04:59.835666 34540 net.cpp:369] conv12/dw/relu -> conv12/dw (in-place)
I0227 15:04:59.835685 34540 net.cpp:124] Setting up conv12/dw/relu
I0227 15:04:59.835690 34540 net.cpp:131] Top shape: 1 512 10 10 (51200)
I0227 15:04:59.835695 34540 net.cpp:139] Memory required for data: 82739200
I0227 15:04:59.835701 34540 layer_factory.hpp:77] Creating layer conv12
I0227 15:04:59.835726 34540 net.cpp:86] Creating Layer conv12
I0227 15:04:59.835734 34540 net.cpp:408] conv12 <- conv12/dw
I0227 15:04:59.835752 34540 net.cpp:382] conv12 -> conv12
I0227 15:04:59.930248 34540 net.cpp:124] Setting up conv12
I0227 15:04:59.930282 34540 net.cpp:131] Top shape: 1 1024 10 10 (102400)
I0227 15:04:59.930294 34540 net.cpp:139] Memory required for data: 83148800
I0227 15:04:59.930321 34540 layer_factory.hpp:77] Creating layer conv12/relu
I0227 15:04:59.930371 34540 net.cpp:86] Creating Layer conv12/relu
I0227 15:04:59.930419 34540 net.cpp:408] conv12/relu <- conv12
I0227 15:04:59.930447 34540 net.cpp:369] conv12/relu -> conv12 (in-place)
I0227 15:04:59.930470 34540 net.cpp:124] Setting up conv12/relu
I0227 15:04:59.930477 34540 net.cpp:131] Top shape: 1 1024 10 10 (102400)
I0227 15:04:59.930482 34540 net.cpp:139] Memory required for data: 83558400
I0227 15:04:59.930487 34540 layer_factory.hpp:77] Creating layer conv13/dw
I0227 15:04:59.930516 34540 net.cpp:86] Creating Layer conv13/dw
I0227 15:04:59.930526 34540 net.cpp:408] conv13/dw <- conv12
I0227 15:04:59.930543 34540 net.cpp:382] conv13/dw -> conv13/dw
I0227 15:04:59.932276 34540 net.cpp:124] Setting up conv13/dw
I0227 15:04:59.932287 34540 net.cpp:131] Top shape: 1 1024 10 10 (102400)
I0227 15:04:59.932308 34540 net.cpp:139] Memory required for data: 83968000
I0227 15:04:59.932322 34540 layer_factory.hpp:77] Creating layer conv13/dw/relu
I0227 15:04:59.932340 34540 net.cpp:86] Creating Layer conv13/dw/relu
I0227 15:04:59.932363 34540 net.cpp:408] conv13/dw/relu <- conv13/dw
I0227 15:04:59.932379 34540 net.cpp:369] conv13/dw/relu -> conv13/dw (in-place)
I0227 15:04:59.932425 34540 net.cpp:124] Setting up conv13/dw/relu
I0227 15:04:59.932430 34540 net.cpp:131] Top shape: 1 1024 10 10 (102400)
I0227 15:04:59.932435 34540 net.cpp:139] Memory required for data: 84377600
I0227 15:04:59.932440 34540 layer_factory.hpp:77] Creating layer conv13
I0227 15:04:59.932458 34540 net.cpp:86] Creating Layer conv13
I0227 15:04:59.932466 34540 net.cpp:408] conv13 <- conv13/dw
I0227 15:04:59.932483 34540 net.cpp:382] conv13 -> conv13
I0227 15:05:00.115036 34540 net.cpp:124] Setting up conv13
I0227 15:05:00.115085 34540 net.cpp:131] Top shape: 1 1024 10 10 (102400)
I0227 15:05:00.115097 34540 net.cpp:139] Memory required for data: 84787200
I0227 15:05:00.115128 34540 layer_factory.hpp:77] Creating layer conv13/relu
I0227 15:05:00.115188 34540 net.cpp:86] Creating Layer conv13/relu
I0227 15:05:00.115248 34540 net.cpp:408] conv13/relu <- conv13
I0227 15:05:00.115278 34540 net.cpp:369] conv13/relu -> conv13 (in-place)
I0227 15:05:00.115303 34540 net.cpp:124] Setting up conv13/relu
I0227 15:05:00.115309 34540 net.cpp:131] Top shape: 1 1024 10 10 (102400)
I0227 15:05:00.115315 34540 net.cpp:139] Memory required for data: 85196800
I0227 15:05:00.115320 34540 layer_factory.hpp:77] Creating layer conv15/dw
I0227 15:05:00.115363 34540 net.cpp:86] Creating Layer conv15/dw
I0227 15:05:00.115372 34540 net.cpp:408] conv15/dw <- conv13
I0227 15:05:00.115391 34540 net.cpp:382] conv15/dw -> conv15/dw
I0227 15:05:00.117384 34540 net.cpp:124] Setting up conv15/dw
I0227 15:05:00.117413 34540 net.cpp:131] Top shape: 1 1024 10 10 (102400)
I0227 15:05:00.117420 34540 net.cpp:139] Memory required for data: 85606400
I0227 15:05:00.117442 34540 layer_factory.hpp:77] Creating layer conv15/dw/relu
I0227 15:05:00.117482 34540 net.cpp:86] Creating Layer conv15/dw/relu
I0227 15:05:00.117493 34540 net.cpp:408] conv15/dw/relu <- conv15/dw
I0227 15:05:00.117511 34540 net.cpp:369] conv15/dw/relu -> conv15/dw (in-place)
I0227 15:05:00.117525 34540 net.cpp:124] Setting up conv15/dw/relu
I0227 15:05:00.117547 34540 net.cpp:131] Top shape: 1 1024 10 10 (102400)
I0227 15:05:00.117569 34540 net.cpp:139] Memory required for data: 86016000
I0227 15:05:00.117590 34540 layer_factory.hpp:77] Creating layer conv15
I0227 15:05:00.117617 34540 net.cpp:86] Creating Layer conv15
I0227 15:05:00.117626 34540 net.cpp:408] conv15 <- conv15/dw
I0227 15:05:00.117660 34540 net.cpp:382] conv15 -> conv15
I0227 15:05:00.299170 34540 net.cpp:124] Setting up conv15
I0227 15:05:00.299222 34540 net.cpp:131] Top shape: 1 1024 10 10 (102400)
I0227 15:05:00.299234 34540 net.cpp:139] Memory required for data: 86425600
I0227 15:05:00.299268 34540 layer_factory.hpp:77] Creating layer conv15/relu
I0227 15:05:00.299320 34540 net.cpp:86] Creating Layer conv15/relu
I0227 15:05:00.299341 34540 net.cpp:408] conv15/relu <- conv15
I0227 15:05:00.299386 34540 net.cpp:369] conv15/relu -> conv15 (in-place)
I0227 15:05:00.299409 34540 net.cpp:124] Setting up conv15/relu
I0227 15:05:00.299417 34540 net.cpp:131] Top shape: 1 1024 10 10 (102400)
I0227 15:05:00.299439 34540 net.cpp:139] Memory required for data: 86835200
I0227 15:05:00.299444 34540 layer_factory.hpp:77] Creating layer conv15_conv15/relu_0_split
I0227 15:05:00.299458 34540 net.cpp:86] Creating Layer conv15_conv15/relu_0_split
I0227 15:05:00.299464 34540 net.cpp:408] conv15_conv15/relu_0_split <- conv15
I0227 15:05:00.299482 34540 net.cpp:382] conv15_conv15/relu_0_split -> conv15_conv15/relu_0_split_0
I0227 15:05:00.299515 34540 net.cpp:382] conv15_conv15/relu_0_split -> conv15_conv15/relu_0_split_1
I0227 15:05:00.299583 34540 net.cpp:124] Setting up conv15_conv15/relu_0_split
I0227 15:05:00.299594 34540 net.cpp:131] Top shape: 1 1024 10 10 (102400)
I0227 15:05:00.299602 34540 net.cpp:131] Top shape: 1 1024 10 10 (102400)
I0227 15:05:00.299607 34540 net.cpp:139] Memory required for data: 87654400
I0227 15:05:00.299614 34540 layer_factory.hpp:77] Creating layer upsample
I0227 15:05:00.299656 34540 net.cpp:86] Creating Layer upsample
I0227 15:05:00.299667 34540 net.cpp:408] upsample <- conv15_conv15/relu_0_split_0
I0227 15:05:00.299690 34540 net.cpp:382] upsample -> upsample
I0227 15:05:00.299962 34540 net.cpp:124] Setting up upsample
I0227 15:05:00.299974 34540 net.cpp:131] Top shape: 1 512 19 19 (184832)
I0227 15:05:00.299994 34540 net.cpp:139] Memory required for data: 88393728
I0227 15:05:00.300022 34540 layer_factory.hpp:77] Creating layer maxpool
I0227 15:05:00.300051 34540 net.cpp:86] Creating Layer maxpool
I0227 15:05:00.300076 34540 net.cpp:408] maxpool <- upsample
I0227 15:05:00.300093 34540 net.cpp:382] maxpool -> maxpool
I0227 15:05:00.300166 34540 net.cpp:124] Setting up maxpool
I0227 15:05:00.300179 34540 net.cpp:131] Top shape: 1 512 20 20 (204800)
I0227 15:05:00.300184 34540 net.cpp:139] Memory required for data: 89212928
I0227 15:05:00.300190 34540 layer_factory.hpp:77] Creating layer conv17/dw
I0227 15:05:00.300253 34540 net.cpp:86] Creating Layer conv17/dw
I0227 15:05:00.300267 34540 net.cpp:408] conv17/dw <- conv11_conv11/relu_0_split_1
I0227 15:05:00.300292 34540 net.cpp:382] conv17/dw -> conv17/dw
I0227 15:05:00.301566 34540 net.cpp:124] Setting up conv17/dw
I0227 15:05:00.301579 34540 net.cpp:131] Top shape: 1 512 20 20 (204800)
I0227 15:05:00.301602 34540 net.cpp:139] Memory required for data: 90032128
I0227 15:05:00.301650 34540 layer_factory.hpp:77] Creating layer conv17/dw/relu
I0227 15:05:00.301690 34540 net.cpp:86] Creating Layer conv17/dw/relu
I0227 15:05:00.301702 34540 net.cpp:408] conv17/dw/relu <- conv17/dw
I0227 15:05:00.301718 34540 net.cpp:369] conv17/dw/relu -> conv17/dw (in-place)
I0227 15:05:00.301736 34540 net.cpp:124] Setting up conv17/dw/relu
I0227 15:05:00.301743 34540 net.cpp:131] Top shape: 1 512 20 20 (204800)
I0227 15:05:00.301748 34540 net.cpp:139] Memory required for data: 90851328
I0227 15:05:00.301754 34540 layer_factory.hpp:77] Creating layer conv17
I0227 15:05:00.301774 34540 net.cpp:86] Creating Layer conv17
I0227 15:05:00.301782 34540 net.cpp:408] conv17 <- conv17/dw
I0227 15:05:00.301811 34540 net.cpp:382] conv17 -> conv17
I0227 15:05:00.348968 34540 net.cpp:124] Setting up conv17
I0227 15:05:00.348989 34540 net.cpp:131] Top shape: 1 512 20 20 (204800)
I0227 15:05:00.348997 34540 net.cpp:139] Memory required for data: 91670528
I0227 15:05:00.349017 34540 layer_factory.hpp:77] Creating layer conv17/relu
I0227 15:05:00.349038 34540 net.cpp:86] Creating Layer conv17/relu
I0227 15:05:00.349050 34540 net.cpp:408] conv17/relu <- conv17
I0227 15:05:00.349082 34540 net.cpp:369] conv17/relu -> conv17 (in-place)
I0227 15:05:00.349099 34540 net.cpp:124] Setting up conv17/relu
I0227 15:05:00.349119 34540 net.cpp:131] Top shape: 1 512 20 20 (204800)
I0227 15:05:00.349124 34540 net.cpp:139] Memory required for data: 92489728
I0227 15:05:00.349129 34540 layer_factory.hpp:77] Creating layer conv17/sum
I0227 15:05:00.349150 34540 net.cpp:86] Creating Layer conv17/sum
I0227 15:05:00.349172 34540 net.cpp:408] conv17/sum <- maxpool
I0227 15:05:00.349223 34540 net.cpp:408] conv17/sum <- conv17
I0227 15:05:00.349241 34540 net.cpp:382] conv17/sum -> conv17/sum
I0227 15:05:00.349313 34540 net.cpp:124] Setting up conv17/sum
I0227 15:05:00.349326 34540 net.cpp:131] Top shape: 1 512 20 20 (204800)
I0227 15:05:00.349333 34540 net.cpp:139] Memory required for data: 93308928
I0227 15:05:00.349341 34540 layer_factory.hpp:77] Creating layer conv18/dw
I0227 15:05:00.349367 34540 net.cpp:86] Creating Layer conv18/dw
I0227 15:05:00.349380 34540 net.cpp:408] conv18/dw <- conv17/sum
I0227 15:05:00.349401 34540 net.cpp:382] conv18/dw -> conv18/dw
I0227 15:05:00.350533 34540 net.cpp:124] Setting up conv18/dw
I0227 15:05:00.350545 34540 net.cpp:131] Top shape: 1 512 20 20 (204800)
I0227 15:05:00.350551 34540 net.cpp:139] Memory required for data: 94128128
I0227 15:05:00.350594 34540 layer_factory.hpp:77] Creating layer conv18/dw/relu
I0227 15:05:00.350612 34540 net.cpp:86] Creating Layer conv18/dw/relu
I0227 15:05:00.350620 34540 net.cpp:408] conv18/dw/relu <- conv18/dw
I0227 15:05:00.350636 34540 net.cpp:369] conv18/dw/relu -> conv18/dw (in-place)
I0227 15:05:00.350667 34540 net.cpp:124] Setting up conv18/dw/relu
I0227 15:05:00.350673 34540 net.cpp:131] Top shape: 1 512 20 20 (204800)
I0227 15:05:00.350678 34540 net.cpp:139] Memory required for data: 94947328
I0227 15:05:00.350683 34540 layer_factory.hpp:77] Creating layer conv18_new
I0227 15:05:00.350751 34540 net.cpp:86] Creating Layer conv18_new
I0227 15:05:00.350764 34540 net.cpp:408] conv18_new <- conv18/dw
I0227 15:05:00.350793 34540 net.cpp:382] conv18_new -> conv18_new
I0227 15:05:00.442864 34540 net.cpp:124] Setting up conv18_new
I0227 15:05:00.442915 34540 net.cpp:131] Top shape: 1 1024 20 20 (409600)
I0227 15:05:00.442925 34540 net.cpp:139] Memory required for data: 96585728
I0227 15:05:00.442971 34540 layer_factory.hpp:77] Creating layer conv18_new/relu
I0227 15:05:00.443011 34540 net.cpp:86] Creating Layer conv18_new/relu
I0227 15:05:00.443053 34540 net.cpp:408] conv18_new/relu <- conv18_new
I0227 15:05:00.443080 34540 net.cpp:369] conv18_new/relu -> conv18_new (in-place)
I0227 15:05:00.443102 34540 net.cpp:124] Setting up conv18_new/relu
I0227 15:05:00.443106 34540 net.cpp:131] Top shape: 1 1024 20 20 (409600)
I0227 15:05:00.443112 34540 net.cpp:139] Memory required for data: 98224128
I0227 15:05:00.443117 34540 layer_factory.hpp:77] Creating layer conv19
I0227 15:05:00.443146 34540 net.cpp:86] Creating Layer conv19
I0227 15:05:00.443154 34540 net.cpp:408] conv19 <- conv15_conv15/relu_0_split_1
I0227 15:05:00.443172 34540 net.cpp:382] conv19 -> conv19
I0227 15:05:00.447643 34540 net.cpp:124] Setting up conv19
I0227 15:05:00.447656 34540 net.cpp:131] Top shape: 1 75 10 10 (7500)
I0227 15:05:00.447662 34540 net.cpp:139] Memory required for data: 98254128
I0227 15:05:00.447675 34540 layer_factory.hpp:77] Creating layer conv20
I0227 15:05:00.447724 34540 net.cpp:86] Creating Layer conv20
I0227 15:05:00.447739 34540 net.cpp:408] conv20 <- conv18_new
I0227 15:05:00.447777 34540 net.cpp:382] conv20 -> conv20
I0227 15:05:00.452318 34540 net.cpp:124] Setting up conv20
I0227 15:05:00.452333 34540 net.cpp:131] Top shape: 1 75 20 20 (30000)
I0227 15:05:00.452340 34540 net.cpp:139] Memory required for data: 98374128
I0227 15:05:00.452358 34540 net.cpp:202] conv20 does not need backward computation.
I0227 15:05:00.452366 34540 net.cpp:202] conv19 does not need backward computation.
I0227 15:05:00.452373 34540 net.cpp:202] conv18_new/relu does not need backward computation.
I0227 15:05:00.452378 34540 net.cpp:202] conv18_new does not need backward computation.
…
