I0227 15:00:48.812598 29267 caffe.cpp:339] Use GPU with device ID 1
I0227 15:00:49.713142 29267 net.cpp:296] The NetState phase (0) differed from the phase (1) specified by a rule in layer detection_out
I0227 15:00:49.713174 29267 net.cpp:53] Initializing net from parameters: 
name: "remove_bn"
state {
  phase: TRAIN
  level: 0
  stage: ""
}
layer {
  name: "data"
  type: "Input"
  top: "data"
  input_param {
    shape {
      dim: 1
      dim: 3
      dim: 320
      dim: 320
    }
  }
}
layer {
  name: "conv0"
  type: "Convolution"
  bottom: "data"
  top: "conv0"
  param {
    lr_mult: 1
    decay_mult: 1
  }
  convolution_param {
    num_output: 32
    bias_term: true
    pad: 1
    kernel_size: 3
    stride: 2
    weight_filler {
      type: "msra"
    }
  }
}
layer {
  name: "conv0/relu"
  type: "ReLU"
  bottom: "conv0"
  top: "conv0"
}
layer {
  name: "conv1/dw"
  type: "DepthwiseConvolution"
  bottom: "conv0"
  top: "conv1/dw"
  param {
    lr_mult: 1
    decay_mult: 1
  }
  convolution_param {
    num_output: 32
    bias_term: true
    pad: 1
    kernel_size: 3
    group: 32
    weight_filler {
      type: "msra"
    }
    engine: CAFFE
  }
}
layer {
  name: "conv1/dw/relu"
  type: "ReLU"
  bottom: "conv1/dw"
  top: "conv1/dw"
}
layer {
  name: "conv1"
  type: "Convolution"
  bottom: "conv1/dw"
  top: "conv1"
  param {
    lr_mult: 1
    decay_mult: 1
  }
  convolution_param {
    num_output: 64
    bias_term: true
    kernel_size: 1
    weight_filler {
      type: "msra"
    }
  }
}
layer {
  name: "conv1/relu"
  type: "ReLU"
  bottom: "conv1"
  top: "conv1"
}
layer {
  name: "conv2/dw"
  type: "DepthwiseConvolution"
  bottom: "conv1"
  top: "conv2/dw"
  param {
    lr_mult: 1
    decay_mult: 1
  }
  convolution_param {
    num_output: 64
    bias_term: true
    pad: 1
    kernel_size: 3
    group: 64
    stride: 2
    weight_filler {
      type: "msra"
    }
    engine: CAFFE
  }
}
layer {
  name: "conv2/dw/relu"
  type: "ReLU"
  bottom: "conv2/dw"
  top: "conv2/dw"
}
layer {
  name: "conv2"
  type: "Convolution"
  bottom: "conv2/dw"
  top: "conv2"
  param {
    lr_mult: 1
    decay_mult: 1
  }
  convolution_param {
    num_output: 128
    bias_term: true
    kernel_size: 1
    weight_filler {
      type: "msra"
    }
  }
}
layer {
  name: "conv2/relu"
  type: "ReLU"
  bottom: "conv2"
  top: "conv2"
}
layer {
  name: "conv3/dw"
  type: "DepthwiseConvolution"
  bottom: "conv2"
  top: "conv3/dw"
  param {
    lr_mult: 1
    decay_mult: 1
  }
  convolution_param {
    num_output: 128
    bias_term: true
    pad: 1
    kernel_size: 3
    group: 128
    weight_filler {
      type: "msra"
    }
    engine: CAFFE
  }
}
layer {
  name: "conv3/dw/relu"
  type: "ReLU"
  bottom: "conv3/dw"
  top: "conv3/dw"
}
layer {
  name: "conv3"
  type: "Convolution"
  bottom: "conv3/dw"
  top: "conv3"
  param {
    lr_mult: 1
    decay_mult: 1
  }
  convolution_param {
    num_output: 128
    bias_term: true
    kernel_size: 1
    weight_filler {
      type: "msra"
    }
  }
}
layer {
  name: "conv3/relu"
  type: "ReLU"
  bottom: "conv3"
  top: "conv3"
}
layer {
  name: "conv4/dw"
  type: "DepthwiseConvolution"
  bottom: "conv3"
  top: "conv4/dw"
  param {
    lr_mult: 1
    decay_mult: 1
  }
  convolution_param {
    num_output: 128
    bias_term: true
    pad: 1
    kernel_size: 3
    group: 128
    stride: 2
    weight_filler {
      type: "msra"
    }
    engine: CAFFE
  }
}
layer {
  name: "conv4/dw/relu"
  type: "ReLU"
  bottom: "conv4/dw"
  top: "conv4/dw"
}
layer {
  name: "conv4"
  type: "Convolution"
  bottom: "conv4/dw"
  top: "conv4"
  param {
    lr_mult: 1
    decay_mult: 1
  }
  convolution_param {
    num_output: 256
    bias_term: true
    kernel_size: 1
    weight_filler {
      type: "msra"
    }
  }
}
layer {
  name: "conv4/relu"
  type: "ReLU"
  bottom: "conv4"
  top: "conv4"
}
layer {
  name: "conv5/dw"
  type: "DepthwiseConvolution"
  bottom: "conv4"
  top: "conv5/dw"
  param {
    lr_mult: 1
    decay_mult: 1
  }
  convolution_param {
    num_output: 256
    bias_term: true
    pad: 1
    kernel_size: 3
    group: 256
    weight_filler {
      type: "msra"
    }
    engine: CAFFE
  }
}
layer {
  name: "conv5/dw/relu"
  type: "ReLU"
  bottom: "conv5/dw"
  top: "conv5/dw"
}
layer {
  name: "conv5"
  type: "Convolution"
  bottom: "conv5/dw"
  top: "conv5"
  param {
    lr_mult: 1
    decay_mult: 1
  }
  convolution_param {
    num_output: 256
    bias_term: true
    kernel_size: 1
    weight_filler {
      type: "msra"
    }
  }
}
layer {
  name: "conv5/relu"
  type: "ReLU"
  bottom: "conv5"
  top: "conv5"
}
layer {
  name: "conv6/dw"
  type: "DepthwiseConvolution"
  bottom: "conv5"
  top: "conv6/dw"
  param {
    lr_mult: 1
    decay_mult: 1
  }
  convolution_param {
    num_output: 256
    bias_term: true
    pad: 1
    kernel_size: 3
    group: 256
    stride: 2
    weight_filler {
      type: "msra"
    }
    engine: CAFFE
  }
}
layer {
  name: "conv6/dw/relu"
  type: "ReLU"
  bottom: "conv6/dw"
  top: "conv6/dw"
}
layer {
  name: "conv6"
  type: "Convolution"
  bottom: "conv6/dw"
  top: "conv6"
  param {
    lr_mult: 1
    decay_mult: 1
  }
  convolution_param {
    num_output: 512
    bias_term: true
    kernel_size: 1
    weight_filler {
      type: "msra"
    }
  }
}
layer {
  name: "conv6/relu"
  type: "ReLU"
  bottom: "conv6"
  top: "conv6"
}
layer {
  name: "conv7/dw"
  type: "DepthwiseConvolution"
  bottom: "conv6"
  top: "conv7/dw"
  param {
    lr_mult: 1
    decay_mult: 1
  }
  convolution_param {
    num_output: 512
    bias_term: true
    pad: 1
    kernel_size: 3
    group: 512
    weight_filler {
      type: "msra"
    }
    engine: CAFFE
  }
}
layer {
  name: "conv7/dw/relu"
  type: "ReLU"
  bottom: "conv7/dw"
  top: "conv7/dw"
}
layer {
  name: "conv7"
  type: "Convolution"
  bottom: "conv7/dw"
  top: "conv7"
  param {
    lr_mult: 1
    decay_mult: 1
  }
  convolution_param {
    num_output: 512
    bias_term: true
    kernel_size: 1
    weight_filler {
      type: "msra"
    }
  }
}
layer {
  name: "conv7/relu"
  type: "ReLU"
  bottom: "conv7"
  top: "conv7"
}
layer {
  name: "conv8/dw"
  type: "DepthwiseConvolution"
  bottom: "conv7"
  top: "conv8/dw"
  param {
    lr_mult: 1
    decay_mult: 1
  }
  convolution_param {
    num_output: 512
    bias_term: true
    pad: 1
    kernel_size: 3
    group: 512
    weight_filler {
      type: "msra"
    }
    engine: CAFFE
  }
}
layer {
  name: "conv8/dw/relu"
  type: "ReLU"
  bottom: "conv8/dw"
  top: "conv8/dw"
}
layer {
  name: "conv8"
  type: "Convolution"
  bottom: "conv8/dw"
  top: "conv8"
  param {
    lr_mult: 1
    decay_mult: 1
  }
  convolution_param {
    num_output: 512
    bias_term: true
    kernel_size: 1
    weight_filler {
      type: "msra"
    }
  }
}
layer {
  name: "conv8/relu"
  type: "ReLU"
  bottom: "conv8"
  top: "conv8"
}
layer {
  name: "conv9/dw"
  type: "DepthwiseConvolution"
  bottom: "conv8"
  top: "conv9/dw"
  param {
    lr_mult: 1
    decay_mult: 1
  }
  convolution_param {
    num_output: 512
    bias_term: true
    pad: 1
    kernel_size: 3
    group: 512
    weight_filler {
      type: "msra"
    }
    engine: CAFFE
  }
}
layer {
  name: "conv9/dw/relu"
  type: "ReLU"
  bottom: "conv9/dw"
  top: "conv9/dw"
}
layer {
  name: "conv9"
  type: "Convolution"
  bottom: "conv9/dw"
  top: "conv9"
  param {
    lr_mult: 1
    decay_mult: 1
  }
  convolution_param {
    num_output: 512
    bias_term: true
    kernel_size: 1
    weight_filler {
      type: "msra"
    }
  }
}
layer {
  name: "conv9/relu"
  type: "ReLU"
  bottom: "conv9"
  top: "conv9"
}
layer {
  name: "conv10/dw"
  type: "DepthwiseConvolution"
  bottom: "conv9"
  top: "conv10/dw"
  param {
    lr_mult: 1
    decay_mult: 1
  }
  convolution_param {
    num_output: 512
    bias_term: true
    pad: 1
    kernel_size: 3
    group: 512
    weight_filler {
      type: "msra"
    }
    engine: CAFFE
  }
}
layer {
  name: "conv10/dw/relu"
  type: "ReLU"
  bottom: "conv10/dw"
  top: "conv10/dw"
}
layer {
  name: "conv10"
  type: "Convolution"
  bottom: "conv10/dw"
  top: "conv10"
  param {
    lr_mult: 1
    decay_mult: 1
  }
  convolution_param {
    num_output: 512
    bias_term: true
    kernel_size: 1
    weight_filler {
      type: "msra"
    }
  }
}
layer {
  name: "conv10/relu"
  type: "ReLU"
  bottom: "conv10"
  top: "conv10"
}
layer {
  name: "conv11/dw"
  type: "DepthwiseConvolution"
  bottom: "conv10"
  top: "conv11/dw"
  param {
    lr_mult: 1
    decay_mult: 1
  }
  convolution_param {
    num_output: 512
    bias_term: true
    pad: 1
    kernel_size: 3
    group: 512
    weight_filler {
      type: "msra"
    }
    engine: CAFFE
  }
}
layer {
  name: "conv11/dw/relu"
  type: "ReLU"
  bottom: "conv11/dw"
  top: "conv11/dw"
}
layer {
  name: "conv11"
  type: "Convolution"
  bottom: "conv11/dw"
  top: "conv11"
  param {
    lr_mult: 1
    decay_mult: 1
  }
  convolution_param {
    num_output: 512
    bias_term: true
    kernel_size: 1
    weight_filler {
      type: "msra"
    }
  }
}
layer {
  name: "conv11/relu"
  type: "ReLU"
  bottom: "conv11"
  top: "conv11"
}
layer {
  name: "conv12/dw"
  type: "DepthwiseConvolution"
  bottom: "conv11"
  top: "conv12/dw"
  param {
    lr_mult: 1
    decay_mult: 1
  }
  convolution_param {
    num_output: 512
    bias_term: true
    pad: 1
    kernel_size: 3
    group: 512
    stride: 2
    weight_filler {
      type: "msra"
    }
    engine: CAFFE
  }
}
layer {
  name: "conv12/dw/relu"
  type: "ReLU"
  bottom: "conv12/dw"
  top: "conv12/dw"
}
layer {
  name: "conv12"
  type: "Convolution"
  bottom: "conv12/dw"
  top: "conv12"
  param {
    lr_mult: 1
    decay_mult: 1
  }
  convolution_param {
    num_output: 1024
    bias_term: true
    kernel_size: 1
    weight_filler {
      type: "msra"
    }
  }
}
layer {
  name: "conv12/relu"
  type: "ReLU"
  bottom: "conv12"
  top: "conv12"
}
layer {
  name: "conv13/dw"
  type: "DepthwiseConvolution"
  bottom: "conv12"
  top: "conv13/dw"
  param {
    lr_mult: 1
    decay_mult: 1
  }
  convolution_param {
    num_output: 1024
    bias_term: true
    pad: 1
    kernel_size: 3
    group: 1024
    weight_filler {
      type: "msra"
    }
    engine: CAFFE
  }
}
layer {
  name: "conv13/dw/relu"
  type: "ReLU"
  bottom: "conv13/dw"
  top: "conv13/dw"
}
layer {
  name: "conv13"
  type: "Convolution"
  bottom: "conv13/dw"
  top: "conv13"
  param {
    lr_mult: 1
    decay_mult: 1
  }
  convolution_param {
    num_output: 1024
    bias_term: true
    kernel_size: 1
    weight_filler {
      type: "msra"
    }
  }
}
layer {
  name: "conv13/relu"
  type: "ReLU"
  bottom: "conv13"
  top: "conv13"
}
layer {
  name: "conv15/dw"
  type: "DepthwiseConvolution"
  bottom: "conv13"
  top: "conv15/dw"
  param {
    lr_mult: 1
    decay_mult: 1
  }
  convolution_param {
    num_output: 1024
    bias_term: true
    pad: 1
    kernel_size: 3
    group: 1024
    weight_filler {
      type: "msra"
    }
    engine: CAFFE
  }
}
layer {
  name: "conv15/dw/relu"
  type: "ReLU"
  bottom: "conv15/dw"
  top: "conv15/dw"
}
layer {
  name: "conv15"
  type: "Convolution"
  bottom: "conv15/dw"
  top: "conv15"
  param {
    lr_mult: 1
    decay_mult: 1
  }
  convolution_param {
    num_output: 1024
    bias_term: true
    kernel_size: 1
    weight_filler {
      type: "msra"
    }
  }
}
layer {
  name: "conv15/relu"
  type: "ReLU"
  bottom: "conv15"
  top: "conv15"
}
layer {
  name: "upsample"
  type: "Deconvolution"
  bottom: "conv15"
  top: "upsample"
  param {
    lr_mult: 0
    decay_mult: 0
  }
  convolution_param {
    num_output: 512
    bias_term: false
    pad: 0
    kernel_size: 1
    group: 512
    stride: 2
    weight_filler {
      type: "constant"
      value: 1
    }
  }
}
layer {
  name: "maxpool"
  type: "Pooling"
  bottom: "upsample"
  top: "maxpool"
  pooling_param {
    pool: MAX
    kernel_size: 2
    stride: 1
    pad: 1
  }
}
layer {
  name: "conv17/dw"
  type: "DepthwiseConvolution"
  bottom: "conv11"
  top: "conv17/dw"
  param {
    lr_mult: 1
    decay_mult: 1
  }
  convolution_param {
    num_output: 512
    bias_term: true
    pad: 1
    kernel_size: 3
    group: 512
    weight_filler {
      type: "msra"
    }
    engine: CAFFE
  }
}
layer {
  name: "conv17/dw/relu"
  type: "ReLU"
  bottom: "conv17/dw"
  top: "conv17/dw"
}
layer {
  name: "conv17"
  type: "Convolution"
  bottom: "conv17/dw"
  top: "conv17"
  param {
    lr_mult: 1
    decay_mult: 1
  }
  convolution_param {
    num_output: 512
    bias_term: true
    kernel_size: 1
    weight_filler {
      type: "msra"
    }
  }
}
layer {
  name: "conv17/relu"
  type: "ReLU"
  bottom: "conv17"
  top: "conv17"
}
layer {
  name: "conv17/sum"
  type: "Eltwise"
  bottom: "maxpool"
  bottom: "conv17"
  top: "conv17/sum"
}
layer {
  name: "conv18/dw"
  type: "DepthwiseConvolution"
  bottom: "conv17/sum"
  top: "conv18/dw"
  param {
    lr_mult: 1
    decay_mult: 1
  }
  convolution_param {
    num_output: 512
    bias_term: true
    pad: 1
    kernel_size: 3
    group: 512
    weight_filler {
      type: "msra"
    }
    engine: CAFFE
  }
}
layer {
  name: "conv18/dw/relu"
  type: "ReLU"
  bottom: "conv18/dw"
  top: "conv18/dw"
}
layer {
  name: "conv18_new"
  type: "Convolution"
  bottom: "conv18/dw"
  top: "conv18_new"
  param {
    lr_mult: 1
    decay_mult: 1
  }
  convolution_param {
    num_output: 1024
    bias_term: true
    kernel_size: 1
    weight_filler {
      type: "msra"
    }
  }
}
layer {
  name: "conv18_new/relu"
  type: "ReLU"
  bottom: "conv18_new"
  top: "conv18_new"
}
layer {
  name: "conv19"
  type: "Convolution"
  bottom: "conv15"
  top: "conv19"
  param {
    lr_mult: 1
    decay_mult: 1
  }
  param {
    lr_mult: 2
    decay_mult: 0
  }
  convolution_param {
    num_output: 75
    bias_term: true
    pad: 0
    kernel_size: 1
    stride: 1
    weight_filler {
      type: "xavier"
    }
    bias_filler {
      value: 0
    }
  }
}
layer {
  name: "conv20"
  type: "Convolution"
  bottom: "conv18_new"
  top: "conv20"
  param {
    lr_mult: 1
    decay_mult: 1
  }
  param {
    lr_mult: 2
    decay_mult: 0
  }
  convolution_param {
    num_output: 75
    bias_term: true
    pad: 0
    kernel_size: 1
    stride: 1
    weight_filler {
      type: "xavier"
    }
    bias_filler {
      value: 0
    }
  }
}
I0227 15:00:49.713945 29267 layer_factory.hpp:77] Creating layer data
I0227 15:00:49.713968 29267 net.cpp:86] Creating Layer data
I0227 15:00:49.713975 29267 net.cpp:382] data -> data
I0227 15:00:49.726958 29267 net.cpp:124] Setting up data
I0227 15:00:49.726984 29267 net.cpp:131] Top shape: 1 3 320 320 (307200)
I0227 15:00:49.727001 29267 net.cpp:139] Memory required for data: 1228800
I0227 15:00:49.727025 29267 layer_factory.hpp:77] Creating layer conv0
I0227 15:00:49.727059 29267 net.cpp:86] Creating Layer conv0
I0227 15:00:49.727068 29267 net.cpp:408] conv0 <- data
I0227 15:00:49.727082 29267 net.cpp:382] conv0 -> conv0
I0227 15:00:51.012845 29267 net.cpp:124] Setting up conv0
I0227 15:00:51.012878 29267 net.cpp:131] Top shape: 1 32 160 160 (819200)
I0227 15:00:51.012889 29267 net.cpp:139] Memory required for data: 4505600
I0227 15:00:51.012925 29267 layer_factory.hpp:77] Creating layer conv0/relu
I0227 15:00:51.012945 29267 net.cpp:86] Creating Layer conv0/relu
I0227 15:00:51.012951 29267 net.cpp:408] conv0/relu <- conv0
I0227 15:00:51.012959 29267 net.cpp:369] conv0/relu -> conv0 (in-place)
I0227 15:00:51.013561 29267 net.cpp:124] Setting up conv0/relu
I0227 15:00:51.013572 29267 net.cpp:131] Top shape: 1 32 160 160 (819200)
I0227 15:00:51.013578 29267 net.cpp:139] Memory required for data: 7782400
I0227 15:00:51.013582 29267 layer_factory.hpp:77] Creating layer conv1/dw
I0227 15:00:51.013594 29267 net.cpp:86] Creating Layer conv1/dw
I0227 15:00:51.013598 29267 net.cpp:408] conv1/dw <- conv0
I0227 15:00:51.013607 29267 net.cpp:382] conv1/dw -> conv1/dw
I0227 15:00:51.014030 29267 net.cpp:124] Setting up conv1/dw
I0227 15:00:51.014040 29267 net.cpp:131] Top shape: 1 32 160 160 (819200)
I0227 15:00:51.014061 29267 net.cpp:139] Memory required for data: 11059200
I0227 15:00:51.014072 29267 layer_factory.hpp:77] Creating layer conv1/dw/relu
I0227 15:00:51.014081 29267 net.cpp:86] Creating Layer conv1/dw/relu
I0227 15:00:51.014086 29267 net.cpp:408] conv1/dw/relu <- conv1/dw
I0227 15:00:51.014091 29267 net.cpp:369] conv1/dw/relu -> conv1/dw (in-place)
I0227 15:00:51.014842 29267 net.cpp:124] Setting up conv1/dw/relu
I0227 15:00:51.014855 29267 net.cpp:131] Top shape: 1 32 160 160 (819200)
I0227 15:00:51.014904 29267 net.cpp:139] Memory required for data: 14336000
I0227 15:00:51.014909 29267 layer_factory.hpp:77] Creating layer conv1
I0227 15:00:51.014920 29267 net.cpp:86] Creating Layer conv1
I0227 15:00:51.014925 29267 net.cpp:408] conv1 <- conv1/dw
I0227 15:00:51.014933 29267 net.cpp:382] conv1 -> conv1
I0227 15:00:51.018633 29267 net.cpp:124] Setting up conv1
I0227 15:00:51.018648 29267 net.cpp:131] Top shape: 1 64 160 160 (1638400)
I0227 15:00:51.018656 29267 net.cpp:139] Memory required for data: 20889600
I0227 15:00:51.018668 29267 layer_factory.hpp:77] Creating layer conv1/relu
I0227 15:00:51.018677 29267 net.cpp:86] Creating Layer conv1/relu
I0227 15:00:51.018682 29267 net.cpp:408] conv1/relu <- conv1
I0227 15:00:51.018688 29267 net.cpp:369] conv1/relu -> conv1 (in-place)
I0227 15:00:51.019244 29267 net.cpp:124] Setting up conv1/relu
I0227 15:00:51.019255 29267 net.cpp:131] Top shape: 1 64 160 160 (1638400)
I0227 15:00:51.019261 29267 net.cpp:139] Memory required for data: 27443200
I0227 15:00:51.019264 29267 layer_factory.hpp:77] Creating layer conv2/dw
I0227 15:00:51.019274 29267 net.cpp:86] Creating Layer conv2/dw
I0227 15:00:51.019279 29267 net.cpp:408] conv2/dw <- conv1
I0227 15:00:51.019285 29267 net.cpp:382] conv2/dw -> conv2/dw
I0227 15:00:51.020937 29267 net.cpp:124] Setting up conv2/dw
I0227 15:00:51.020951 29267 net.cpp:131] Top shape: 1 64 80 80 (409600)
I0227 15:00:51.020957 29267 net.cpp:139] Memory required for data: 29081600
I0227 15:00:51.020968 29267 layer_factory.hpp:77] Creating layer conv2/dw/relu
I0227 15:00:51.020979 29267 net.cpp:86] Creating Layer conv2/dw/relu
I0227 15:00:51.020984 29267 net.cpp:408] conv2/dw/relu <- conv2/dw
I0227 15:00:51.020990 29267 net.cpp:369] conv2/dw/relu -> conv2/dw (in-place)
I0227 15:00:51.027791 29267 net.cpp:124] Setting up conv2/dw/relu
I0227 15:00:51.027807 29267 net.cpp:131] Top shape: 1 64 80 80 (409600)
I0227 15:00:51.027815 29267 net.cpp:139] Memory required for data: 30720000
I0227 15:00:51.027819 29267 layer_factory.hpp:77] Creating layer conv2
I0227 15:00:51.027848 29267 net.cpp:86] Creating Layer conv2
I0227 15:00:51.027853 29267 net.cpp:408] conv2 <- conv2/dw
I0227 15:00:51.027863 29267 net.cpp:382] conv2 -> conv2
I0227 15:00:51.030896 29267 net.cpp:124] Setting up conv2
I0227 15:00:51.030915 29267 net.cpp:131] Top shape: 1 128 80 80 (819200)
I0227 15:00:51.030923 29267 net.cpp:139] Memory required for data: 33996800
I0227 15:00:51.030941 29267 layer_factory.hpp:77] Creating layer conv2/relu
I0227 15:00:51.030951 29267 net.cpp:86] Creating Layer conv2/relu
I0227 15:00:51.030954 29267 net.cpp:408] conv2/relu <- conv2
I0227 15:00:51.030961 29267 net.cpp:369] conv2/relu -> conv2 (in-place)
I0227 15:00:51.031602 29267 net.cpp:124] Setting up conv2/relu
I0227 15:00:51.031615 29267 net.cpp:131] Top shape: 1 128 80 80 (819200)
I0227 15:00:51.031620 29267 net.cpp:139] Memory required for data: 37273600
I0227 15:00:51.031625 29267 layer_factory.hpp:77] Creating layer conv3/dw
I0227 15:00:51.031638 29267 net.cpp:86] Creating Layer conv3/dw
I0227 15:00:51.031643 29267 net.cpp:408] conv3/dw <- conv2
I0227 15:00:51.031651 29267 net.cpp:382] conv3/dw -> conv3/dw
I0227 15:00:51.032127 29267 net.cpp:124] Setting up conv3/dw
I0227 15:00:51.032138 29267 net.cpp:131] Top shape: 1 128 80 80 (819200)
I0227 15:00:51.032145 29267 net.cpp:139] Memory required for data: 40550400
I0227 15:00:51.032152 29267 layer_factory.hpp:77] Creating layer conv3/dw/relu
I0227 15:00:51.032162 29267 net.cpp:86] Creating Layer conv3/dw/relu
I0227 15:00:51.032166 29267 net.cpp:408] conv3/dw/relu <- conv3/dw
I0227 15:00:51.032172 29267 net.cpp:369] conv3/dw/relu -> conv3/dw (in-place)
I0227 15:00:51.032933 29267 net.cpp:124] Setting up conv3/dw/relu
I0227 15:00:51.032948 29267 net.cpp:131] Top shape: 1 128 80 80 (819200)
I0227 15:00:51.032953 29267 net.cpp:139] Memory required for data: 43827200
I0227 15:00:51.032958 29267 layer_factory.hpp:77] Creating layer conv3
I0227 15:00:51.032969 29267 net.cpp:86] Creating Layer conv3
I0227 15:00:51.032999 29267 net.cpp:408] conv3 <- conv3/dw
I0227 15:00:51.033008 29267 net.cpp:382] conv3 -> conv3
I0227 15:00:51.035712 29267 net.cpp:124] Setting up conv3
I0227 15:00:51.035729 29267 net.cpp:131] Top shape: 1 128 80 80 (819200)
I0227 15:00:51.035737 29267 net.cpp:139] Memory required for data: 47104000
I0227 15:00:51.035745 29267 layer_factory.hpp:77] Creating layer conv3/relu
I0227 15:00:51.035753 29267 net.cpp:86] Creating Layer conv3/relu
I0227 15:00:51.035758 29267 net.cpp:408] conv3/relu <- conv3
I0227 15:00:51.035764 29267 net.cpp:369] conv3/relu -> conv3 (in-place)
I0227 15:00:51.036315 29267 net.cpp:124] Setting up conv3/relu
I0227 15:00:51.036326 29267 net.cpp:131] Top shape: 1 128 80 80 (819200)
I0227 15:00:51.036331 29267 net.cpp:139] Memory required for data: 50380800
I0227 15:00:51.036340 29267 layer_factory.hpp:77] Creating layer conv4/dw
I0227 15:00:51.036350 29267 net.cpp:86] Creating Layer conv4/dw
I0227 15:00:51.036355 29267 net.cpp:408] conv4/dw <- conv3
I0227 15:00:51.036362 29267 net.cpp:382] conv4/dw -> conv4/dw
I0227 15:00:51.036768 29267 net.cpp:124] Setting up conv4/dw
I0227 15:00:51.036777 29267 net.cpp:131] Top shape: 1 128 40 40 (204800)
I0227 15:00:51.036782 29267 net.cpp:139] Memory required for data: 51200000
I0227 15:00:51.036789 29267 layer_factory.hpp:77] Creating layer conv4/dw/relu
I0227 15:00:51.036800 29267 net.cpp:86] Creating Layer conv4/dw/relu
I0227 15:00:51.036805 29267 net.cpp:408] conv4/dw/relu <- conv4/dw
I0227 15:00:51.036810 29267 net.cpp:369] conv4/dw/relu -> conv4/dw (in-place)
I0227 15:00:51.039669 29267 net.cpp:124] Setting up conv4/dw/relu
I0227 15:00:51.039685 29267 net.cpp:131] Top shape: 1 128 40 40 (204800)
I0227 15:00:51.039707 29267 net.cpp:139] Memory required for data: 52019200
I0227 15:00:51.039714 29267 layer_factory.hpp:77] Creating layer conv4
I0227 15:00:51.039728 29267 net.cpp:86] Creating Layer conv4
I0227 15:00:51.039733 29267 net.cpp:408] conv4 <- conv4/dw
I0227 15:00:51.039741 29267 net.cpp:382] conv4 -> conv4
I0227 15:00:51.042906 29267 net.cpp:124] Setting up conv4
I0227 15:00:51.042919 29267 net.cpp:131] Top shape: 1 256 40 40 (409600)
I0227 15:00:51.042942 29267 net.cpp:139] Memory required for data: 53657600
I0227 15:00:51.042956 29267 layer_factory.hpp:77] Creating layer conv4/relu
I0227 15:00:51.042965 29267 net.cpp:86] Creating Layer conv4/relu
I0227 15:00:51.042969 29267 net.cpp:408] conv4/relu <- conv4
I0227 15:00:51.042974 29267 net.cpp:369] conv4/relu -> conv4 (in-place)
I0227 15:00:51.043642 29267 net.cpp:124] Setting up conv4/relu
I0227 15:00:51.043653 29267 net.cpp:131] Top shape: 1 256 40 40 (409600)
I0227 15:00:51.043658 29267 net.cpp:139] Memory required for data: 55296000
I0227 15:00:51.043676 29267 layer_factory.hpp:77] Creating layer conv5/dw
I0227 15:00:51.043687 29267 net.cpp:86] Creating Layer conv5/dw
I0227 15:00:51.043691 29267 net.cpp:408] conv5/dw <- conv4
I0227 15:00:51.043699 29267 net.cpp:382] conv5/dw -> conv5/dw
I0227 15:00:51.044137 29267 net.cpp:124] Setting up conv5/dw
I0227 15:00:51.044144 29267 net.cpp:131] Top shape: 1 256 40 40 (409600)
I0227 15:00:51.044164 29267 net.cpp:139] Memory required for data: 56934400
I0227 15:00:51.044170 29267 layer_factory.hpp:77] Creating layer conv5/dw/relu
I0227 15:00:51.044178 29267 net.cpp:86] Creating Layer conv5/dw/relu
I0227 15:00:51.044183 29267 net.cpp:408] conv5/dw/relu <- conv5/dw
I0227 15:00:51.044188 29267 net.cpp:369] conv5/dw/relu -> conv5/dw (in-place)
I0227 15:00:51.045071 29267 net.cpp:124] Setting up conv5/dw/relu
I0227 15:00:51.045083 29267 net.cpp:131] Top shape: 1 256 40 40 (409600)
I0227 15:00:51.045104 29267 net.cpp:139] Memory required for data: 58572800
I0227 15:00:51.045106 29267 layer_factory.hpp:77] Creating layer conv5
I0227 15:00:51.045120 29267 net.cpp:86] Creating Layer conv5
I0227 15:00:51.045125 29267 net.cpp:408] conv5 <- conv5/dw
I0227 15:00:51.045131 29267 net.cpp:382] conv5 -> conv5
I0227 15:00:51.048779 29267 net.cpp:124] Setting up conv5
I0227 15:00:51.048795 29267 net.cpp:131] Top shape: 1 256 40 40 (409600)
I0227 15:00:51.048827 29267 net.cpp:139] Memory required for data: 60211200
I0227 15:00:51.048837 29267 layer_factory.hpp:77] Creating layer conv5/relu
I0227 15:00:51.048847 29267 net.cpp:86] Creating Layer conv5/relu
I0227 15:00:51.048851 29267 net.cpp:408] conv5/relu <- conv5
I0227 15:00:51.048857 29267 net.cpp:369] conv5/relu -> conv5 (in-place)
I0227 15:00:51.049579 29267 net.cpp:124] Setting up conv5/relu
I0227 15:00:51.049590 29267 net.cpp:131] Top shape: 1 256 40 40 (409600)
I0227 15:00:51.049597 29267 net.cpp:139] Memory required for data: 61849600
I0227 15:00:51.049600 29267 layer_factory.hpp:77] Creating layer conv6/dw
I0227 15:00:51.049634 29267 net.cpp:86] Creating Layer conv6/dw
I0227 15:00:51.049643 29267 net.cpp:408] conv6/dw <- conv5
I0227 15:00:51.049649 29267 net.cpp:382] conv6/dw -> conv6/dw
I0227 15:00:51.050145 29267 net.cpp:124] Setting up conv6/dw
I0227 15:00:51.050153 29267 net.cpp:131] Top shape: 1 256 20 20 (102400)
I0227 15:00:51.050174 29267 net.cpp:139] Memory required for data: 62259200
I0227 15:00:51.050181 29267 layer_factory.hpp:77] Creating layer conv6/dw/relu
I0227 15:00:51.050194 29267 net.cpp:86] Creating Layer conv6/dw/relu
I0227 15:00:51.050197 29267 net.cpp:408] conv6/dw/relu <- conv6/dw
I0227 15:00:51.050202 29267 net.cpp:369] conv6/dw/relu -> conv6/dw (in-place)
I0227 15:00:51.062225 29267 net.cpp:124] Setting up conv6/dw/relu
I0227 15:00:51.062258 29267 net.cpp:131] Top shape: 1 256 20 20 (102400)
I0227 15:00:51.062271 29267 net.cpp:139] Memory required for data: 62668800
I0227 15:00:51.062279 29267 layer_factory.hpp:77] Creating layer conv6
I0227 15:00:51.062306 29267 net.cpp:86] Creating Layer conv6
I0227 15:00:51.062316 29267 net.cpp:408] conv6 <- conv6/dw
I0227 15:00:51.062333 29267 net.cpp:382] conv6 -> conv6
I0227 15:00:51.072290 29267 net.cpp:124] Setting up conv6
I0227 15:00:51.072324 29267 net.cpp:131] Top shape: 1 512 20 20 (204800)
I0227 15:00:51.072336 29267 net.cpp:139] Memory required for data: 63488000
I0227 15:00:51.072352 29267 layer_factory.hpp:77] Creating layer conv6/relu
I0227 15:00:51.072369 29267 net.cpp:86] Creating Layer conv6/relu
I0227 15:00:51.072379 29267 net.cpp:408] conv6/relu <- conv6
I0227 15:00:51.072389 29267 net.cpp:369] conv6/relu -> conv6 (in-place)
I0227 15:00:51.073377 29267 net.cpp:124] Setting up conv6/relu
I0227 15:00:51.073393 29267 net.cpp:131] Top shape: 1 512 20 20 (204800)
I0227 15:00:51.073403 29267 net.cpp:139] Memory required for data: 64307200
I0227 15:00:51.073410 29267 layer_factory.hpp:77] Creating layer conv7/dw
I0227 15:00:51.073431 29267 net.cpp:86] Creating Layer conv7/dw
I0227 15:00:51.073439 29267 net.cpp:408] conv7/dw <- conv6
I0227 15:00:51.073451 29267 net.cpp:382] conv7/dw -> conv7/dw
I0227 15:00:51.074112 29267 net.cpp:124] Setting up conv7/dw
I0227 15:00:51.074126 29267 net.cpp:131] Top shape: 1 512 20 20 (204800)
I0227 15:00:51.074136 29267 net.cpp:139] Memory required for data: 65126400
I0227 15:00:51.074149 29267 layer_factory.hpp:77] Creating layer conv7/dw/relu
I0227 15:00:51.074160 29267 net.cpp:86] Creating Layer conv7/dw/relu
I0227 15:00:51.074167 29267 net.cpp:408] conv7/dw/relu <- conv7/dw
I0227 15:00:51.074177 29267 net.cpp:369] conv7/dw/relu -> conv7/dw (in-place)
I0227 15:00:51.075434 29267 net.cpp:124] Setting up conv7/dw/relu
I0227 15:00:51.075451 29267 net.cpp:131] Top shape: 1 512 20 20 (204800)
I0227 15:00:51.075460 29267 net.cpp:139] Memory required for data: 65945600
I0227 15:00:51.075466 29267 layer_factory.hpp:77] Creating layer conv7
I0227 15:00:51.075489 29267 net.cpp:86] Creating Layer conv7
I0227 15:00:51.075496 29267 net.cpp:408] conv7 <- conv7/dw
I0227 15:00:51.075508 29267 net.cpp:382] conv7 -> conv7
I0227 15:00:51.085041 29267 net.cpp:124] Setting up conv7
I0227 15:00:51.085059 29267 net.cpp:131] Top shape: 1 512 20 20 (204800)
I0227 15:00:51.085084 29267 net.cpp:139] Memory required for data: 66764800
I0227 15:00:51.085098 29267 layer_factory.hpp:77] Creating layer conv7/relu
I0227 15:00:51.085125 29267 net.cpp:86] Creating Layer conv7/relu
I0227 15:00:51.085134 29267 net.cpp:408] conv7/relu <- conv7
I0227 15:00:51.085171 29267 net.cpp:369] conv7/relu -> conv7 (in-place)
I0227 15:00:51.086459 29267 net.cpp:124] Setting up conv7/relu
I0227 15:00:51.086475 29267 net.cpp:131] Top shape: 1 512 20 20 (204800)
I0227 15:00:51.086500 29267 net.cpp:139] Memory required for data: 67584000
I0227 15:00:51.086508 29267 layer_factory.hpp:77] Creating layer conv8/dw
I0227 15:00:51.086525 29267 net.cpp:86] Creating Layer conv8/dw
I0227 15:00:51.086547 29267 net.cpp:408] conv8/dw <- conv7
I0227 15:00:51.086558 29267 net.cpp:382] conv8/dw -> conv8/dw
I0227 15:00:51.087205 29267 net.cpp:124] Setting up conv8/dw
I0227 15:00:51.087218 29267 net.cpp:131] Top shape: 1 512 20 20 (204800)
I0227 15:00:51.087245 29267 net.cpp:139] Memory required for data: 68403200
I0227 15:00:51.087256 29267 layer_factory.hpp:77] Creating layer conv8/dw/relu
I0227 15:00:51.087286 29267 net.cpp:86] Creating Layer conv8/dw/relu
I0227 15:00:51.087296 29267 net.cpp:408] conv8/dw/relu <- conv8/dw
I0227 15:00:51.087306 29267 net.cpp:369] conv8/dw/relu -> conv8/dw (in-place)
I0227 15:00:51.088742 29267 net.cpp:124] Setting up conv8/dw/relu
I0227 15:00:51.088758 29267 net.cpp:131] Top shape: 1 512 20 20 (204800)
I0227 15:00:51.088768 29267 net.cpp:139] Memory required for data: 69222400
I0227 15:00:51.088774 29267 layer_factory.hpp:77] Creating layer conv8
I0227 15:00:51.088791 29267 net.cpp:86] Creating Layer conv8
I0227 15:00:51.088798 29267 net.cpp:408] conv8 <- conv8/dw
I0227 15:00:51.088809 29267 net.cpp:382] conv8 -> conv8
I0227 15:00:51.102969 29267 net.cpp:124] Setting up conv8
I0227 15:00:51.103013 29267 net.cpp:131] Top shape: 1 512 20 20 (204800)
I0227 15:00:51.103027 29267 net.cpp:139] Memory required for data: 70041600
I0227 15:00:51.103057 29267 layer_factory.hpp:77] Creating layer conv8/relu
I0227 15:00:51.103077 29267 net.cpp:86] Creating Layer conv8/relu
I0227 15:00:51.103085 29267 net.cpp:408] conv8/relu <- conv8
I0227 15:00:51.103096 29267 net.cpp:369] conv8/relu -> conv8 (in-place)
I0227 15:00:51.104151 29267 net.cpp:124] Setting up conv8/relu
I0227 15:00:51.104167 29267 net.cpp:131] Top shape: 1 512 20 20 (204800)
I0227 15:00:51.104177 29267 net.cpp:139] Memory required for data: 70860800
I0227 15:00:51.104183 29267 layer_factory.hpp:77] Creating layer conv9/dw
I0227 15:00:51.104204 29267 net.cpp:86] Creating Layer conv9/dw
I0227 15:00:51.104212 29267 net.cpp:408] conv9/dw <- conv8
I0227 15:00:51.104224 29267 net.cpp:382] conv9/dw -> conv9/dw
I0227 15:00:51.104916 29267 net.cpp:124] Setting up conv9/dw
I0227 15:00:51.104931 29267 net.cpp:131] Top shape: 1 512 20 20 (204800)
I0227 15:00:51.104940 29267 net.cpp:139] Memory required for data: 71680000
I0227 15:00:51.104951 29267 layer_factory.hpp:77] Creating layer conv9/dw/relu
I0227 15:00:51.104964 29267 net.cpp:86] Creating Layer conv9/dw/relu
I0227 15:00:51.104972 29267 net.cpp:408] conv9/dw/relu <- conv9/dw
I0227 15:00:51.104980 29267 net.cpp:369] conv9/dw/relu -> conv9/dw (in-place)
I0227 15:00:51.106279 29267 net.cpp:124] Setting up conv9/dw/relu
I0227 15:00:51.106295 29267 net.cpp:131] Top shape: 1 512 20 20 (204800)
I0227 15:00:51.106317 29267 net.cpp:139] Memory required for data: 72499200
I0227 15:00:51.106324 29267 layer_factory.hpp:77] Creating layer conv9
I0227 15:00:51.106350 29267 net.cpp:86] Creating Layer conv9
I0227 15:00:51.106364 29267 net.cpp:408] conv9 <- conv9/dw
I0227 15:00:51.106375 29267 net.cpp:382] conv9 -> conv9
I0227 15:00:51.116027 29267 net.cpp:124] Setting up conv9
I0227 15:00:51.116062 29267 net.cpp:131] Top shape: 1 512 20 20 (204800)
I0227 15:00:51.116078 29267 net.cpp:139] Memory required for data: 73318400
I0227 15:00:51.116096 29267 layer_factory.hpp:77] Creating layer conv9/relu
I0227 15:00:51.116112 29267 net.cpp:86] Creating Layer conv9/relu
I0227 15:00:51.116120 29267 net.cpp:408] conv9/relu <- conv9
I0227 15:00:51.116132 29267 net.cpp:369] conv9/relu -> conv9 (in-place)
I0227 15:00:51.117147 29267 net.cpp:124] Setting up conv9/relu
I0227 15:00:51.117162 29267 net.cpp:131] Top shape: 1 512 20 20 (204800)
I0227 15:00:51.117172 29267 net.cpp:139] Memory required for data: 74137600
I0227 15:00:51.117218 29267 layer_factory.hpp:77] Creating layer conv10/dw
I0227 15:00:51.117238 29267 net.cpp:86] Creating Layer conv10/dw
I0227 15:00:51.117246 29267 net.cpp:408] conv10/dw <- conv9
I0227 15:00:51.117259 29267 net.cpp:382] conv10/dw -> conv10/dw
I0227 15:00:51.117978 29267 net.cpp:124] Setting up conv10/dw
I0227 15:00:51.117992 29267 net.cpp:131] Top shape: 1 512 20 20 (204800)
I0227 15:00:51.118016 29267 net.cpp:139] Memory required for data: 74956800
I0227 15:00:51.118028 29267 layer_factory.hpp:77] Creating layer conv10/dw/relu
I0227 15:00:51.118041 29267 net.cpp:86] Creating Layer conv10/dw/relu
I0227 15:00:51.118048 29267 net.cpp:408] conv10/dw/relu <- conv10/dw
I0227 15:00:51.118057 29267 net.cpp:369] conv10/dw/relu -> conv10/dw (in-place)
I0227 15:00:51.118948 29267 net.cpp:124] Setting up conv10/dw/relu
I0227 15:00:51.118960 29267 net.cpp:131] Top shape: 1 512 20 20 (204800)
I0227 15:00:51.118981 29267 net.cpp:139] Memory required for data: 75776000
I0227 15:00:51.118988 29267 layer_factory.hpp:77] Creating layer conv10
I0227 15:00:51.119016 29267 net.cpp:86] Creating Layer conv10
I0227 15:00:51.119024 29267 net.cpp:408] conv10 <- conv10/dw
I0227 15:00:51.119032 29267 net.cpp:382] conv10 -> conv10
I0227 15:00:51.128818 29267 net.cpp:124] Setting up conv10
I0227 15:00:51.128849 29267 net.cpp:131] Top shape: 1 512 20 20 (204800)
I0227 15:00:51.128861 29267 net.cpp:139] Memory required for data: 76595200
I0227 15:00:51.128880 29267 layer_factory.hpp:77] Creating layer conv10/relu
I0227 15:00:51.128895 29267 net.cpp:86] Creating Layer conv10/relu
I0227 15:00:51.128912 29267 net.cpp:408] conv10/relu <- conv10
I0227 15:00:51.128922 29267 net.cpp:369] conv10/relu -> conv10 (in-place)
I0227 15:00:51.129983 29267 net.cpp:124] Setting up conv10/relu
I0227 15:00:51.130000 29267 net.cpp:131] Top shape: 1 512 20 20 (204800)
I0227 15:00:51.130012 29267 net.cpp:139] Memory required for data: 77414400
I0227 15:00:51.130017 29267 layer_factory.hpp:77] Creating layer conv11/dw
I0227 15:00:51.130039 29267 net.cpp:86] Creating Layer conv11/dw
I0227 15:00:51.130049 29267 net.cpp:408] conv11/dw <- conv10
I0227 15:00:51.130065 29267 net.cpp:382] conv11/dw -> conv11/dw
I0227 15:00:51.130748 29267 net.cpp:124] Setting up conv11/dw
I0227 15:00:51.130764 29267 net.cpp:131] Top shape: 1 512 20 20 (204800)
I0227 15:00:51.130774 29267 net.cpp:139] Memory required for data: 78233600
I0227 15:00:51.130787 29267 layer_factory.hpp:77] Creating layer conv11/dw/relu
I0227 15:00:51.130800 29267 net.cpp:86] Creating Layer conv11/dw/relu
I0227 15:00:51.130805 29267 net.cpp:408] conv11/dw/relu <- conv11/dw
I0227 15:00:51.130813 29267 net.cpp:369] conv11/dw/relu -> conv11/dw (in-place)
I0227 15:00:51.131774 29267 net.cpp:124] Setting up conv11/dw/relu
I0227 15:00:51.131788 29267 net.cpp:131] Top shape: 1 512 20 20 (204800)
I0227 15:00:51.131796 29267 net.cpp:139] Memory required for data: 79052800
I0227 15:00:51.131803 29267 layer_factory.hpp:77] Creating layer conv11
I0227 15:00:51.131824 29267 net.cpp:86] Creating Layer conv11
I0227 15:00:51.131832 29267 net.cpp:408] conv11 <- conv11/dw
I0227 15:00:51.131842 29267 net.cpp:382] conv11 -> conv11
I0227 15:00:51.140122 29267 net.cpp:124] Setting up conv11
I0227 15:00:51.140138 29267 net.cpp:131] Top shape: 1 512 20 20 (204800)
I0227 15:00:51.140144 29267 net.cpp:139] Memory required for data: 79872000
I0227 15:00:51.140153 29267 layer_factory.hpp:77] Creating layer conv11/relu
I0227 15:00:51.140170 29267 net.cpp:86] Creating Layer conv11/relu
I0227 15:00:51.140175 29267 net.cpp:408] conv11/relu <- conv11
I0227 15:00:51.140183 29267 net.cpp:369] conv11/relu -> conv11 (in-place)
I0227 15:00:51.140851 29267 net.cpp:124] Setting up conv11/relu
I0227 15:00:51.140861 29267 net.cpp:131] Top shape: 1 512 20 20 (204800)
I0227 15:00:51.140867 29267 net.cpp:139] Memory required for data: 80691200
I0227 15:00:51.140871 29267 layer_factory.hpp:77] Creating layer conv11_conv11/relu_0_split
I0227 15:00:51.140882 29267 net.cpp:86] Creating Layer conv11_conv11/relu_0_split
I0227 15:00:51.140910 29267 net.cpp:408] conv11_conv11/relu_0_split <- conv11
I0227 15:00:51.140920 29267 net.cpp:382] conv11_conv11/relu_0_split -> conv11_conv11/relu_0_split_0
I0227 15:00:51.140941 29267 net.cpp:382] conv11_conv11/relu_0_split -> conv11_conv11/relu_0_split_1
I0227 15:00:51.141005 29267 net.cpp:124] Setting up conv11_conv11/relu_0_split
I0227 15:00:51.141012 29267 net.cpp:131] Top shape: 1 512 20 20 (204800)
I0227 15:00:51.141017 29267 net.cpp:131] Top shape: 1 512 20 20 (204800)
I0227 15:00:51.141021 29267 net.cpp:139] Memory required for data: 82329600
I0227 15:00:51.141026 29267 layer_factory.hpp:77] Creating layer conv12/dw
I0227 15:00:51.141036 29267 net.cpp:86] Creating Layer conv12/dw
I0227 15:00:51.141041 29267 net.cpp:408] conv12/dw <- conv11_conv11/relu_0_split_0
I0227 15:00:51.141054 29267 net.cpp:382] conv12/dw -> conv12/dw
I0227 15:00:51.141542 29267 net.cpp:124] Setting up conv12/dw
I0227 15:00:51.141561 29267 net.cpp:131] Top shape: 1 512 10 10 (51200)
I0227 15:00:51.141566 29267 net.cpp:139] Memory required for data: 82534400
I0227 15:00:51.141573 29267 layer_factory.hpp:77] Creating layer conv12/dw/relu
I0227 15:00:51.141597 29267 net.cpp:86] Creating Layer conv12/dw/relu
I0227 15:00:51.141602 29267 net.cpp:408] conv12/dw/relu <- conv12/dw
I0227 15:00:51.141607 29267 net.cpp:369] conv12/dw/relu -> conv12/dw (in-place)
I0227 15:00:51.142294 29267 net.cpp:124] Setting up conv12/dw/relu
I0227 15:00:51.142304 29267 net.cpp:131] Top shape: 1 512 10 10 (51200)
I0227 15:00:51.142309 29267 net.cpp:139] Memory required for data: 82739200
I0227 15:00:51.142313 29267 layer_factory.hpp:77] Creating layer conv12
I0227 15:00:51.142340 29267 net.cpp:86] Creating Layer conv12
I0227 15:00:51.142344 29267 net.cpp:408] conv12 <- conv12/dw
I0227 15:00:51.142351 29267 net.cpp:382] conv12 -> conv12
I0227 15:00:51.154778 29267 net.cpp:124] Setting up conv12
I0227 15:00:51.154806 29267 net.cpp:131] Top shape: 1 1024 10 10 (102400)
I0227 15:00:51.154814 29267 net.cpp:139] Memory required for data: 83148800
I0227 15:00:51.154829 29267 layer_factory.hpp:77] Creating layer conv12/relu
I0227 15:00:51.154844 29267 net.cpp:86] Creating Layer conv12/relu
I0227 15:00:51.154850 29267 net.cpp:408] conv12/relu <- conv12
I0227 15:00:51.154857 29267 net.cpp:369] conv12/relu -> conv12 (in-place)
I0227 15:00:51.155710 29267 net.cpp:124] Setting up conv12/relu
I0227 15:00:51.155725 29267 net.cpp:131] Top shape: 1 1024 10 10 (102400)
I0227 15:00:51.155747 29267 net.cpp:139] Memory required for data: 83558400
I0227 15:00:51.155767 29267 layer_factory.hpp:77] Creating layer conv13/dw
I0227 15:00:51.155808 29267 net.cpp:86] Creating Layer conv13/dw
I0227 15:00:51.155817 29267 net.cpp:408] conv13/dw <- conv12
I0227 15:00:51.155831 29267 net.cpp:382] conv13/dw -> conv13/dw
I0227 15:00:51.156461 29267 net.cpp:124] Setting up conv13/dw
I0227 15:00:51.156471 29267 net.cpp:131] Top shape: 1 1024 10 10 (102400)
I0227 15:00:51.156476 29267 net.cpp:139] Memory required for data: 83968000
I0227 15:00:51.156484 29267 layer_factory.hpp:77] Creating layer conv13/dw/relu
I0227 15:00:51.156493 29267 net.cpp:86] Creating Layer conv13/dw/relu
I0227 15:00:51.156499 29267 net.cpp:408] conv13/dw/relu <- conv13/dw
I0227 15:00:51.156505 29267 net.cpp:369] conv13/dw/relu -> conv13/dw (in-place)
I0227 15:00:51.157241 29267 net.cpp:124] Setting up conv13/dw/relu
I0227 15:00:51.157253 29267 net.cpp:131] Top shape: 1 1024 10 10 (102400)
I0227 15:00:51.157259 29267 net.cpp:139] Memory required for data: 84377600
I0227 15:00:51.157265 29267 layer_factory.hpp:77] Creating layer conv13
I0227 15:00:51.157282 29267 net.cpp:86] Creating Layer conv13
I0227 15:00:51.157289 29267 net.cpp:408] conv13 <- conv13/dw
I0227 15:00:51.157299 29267 net.cpp:382] conv13 -> conv13
I0227 15:00:51.174015 29267 net.cpp:124] Setting up conv13
I0227 15:00:51.174029 29267 net.cpp:131] Top shape: 1 1024 10 10 (102400)
I0227 15:00:51.174051 29267 net.cpp:139] Memory required for data: 84787200
I0227 15:00:51.174059 29267 layer_factory.hpp:77] Creating layer conv13/relu
I0227 15:00:51.174067 29267 net.cpp:86] Creating Layer conv13/relu
I0227 15:00:51.174125 29267 net.cpp:408] conv13/relu <- conv13
I0227 15:00:51.174132 29267 net.cpp:369] conv13/relu -> conv13 (in-place)
I0227 15:00:51.174867 29267 net.cpp:124] Setting up conv13/relu
I0227 15:00:51.174878 29267 net.cpp:131] Top shape: 1 1024 10 10 (102400)
I0227 15:00:51.174898 29267 net.cpp:139] Memory required for data: 85196800
I0227 15:00:51.174902 29267 layer_factory.hpp:77] Creating layer conv15/dw
I0227 15:00:51.174914 29267 net.cpp:86] Creating Layer conv15/dw
I0227 15:00:51.174918 29267 net.cpp:408] conv15/dw <- conv13
I0227 15:00:51.174926 29267 net.cpp:382] conv15/dw -> conv15/dw
I0227 15:00:51.175422 29267 net.cpp:124] Setting up conv15/dw
I0227 15:00:51.175429 29267 net.cpp:131] Top shape: 1 1024 10 10 (102400)
I0227 15:00:51.175449 29267 net.cpp:139] Memory required for data: 85606400
I0227 15:00:51.175457 29267 layer_factory.hpp:77] Creating layer conv15/dw/relu
I0227 15:00:51.175464 29267 net.cpp:86] Creating Layer conv15/dw/relu
I0227 15:00:51.175468 29267 net.cpp:408] conv15/dw/relu <- conv15/dw
I0227 15:00:51.175472 29267 net.cpp:369] conv15/dw/relu -> conv15/dw (in-place)
I0227 15:00:51.176187 29267 net.cpp:124] Setting up conv15/dw/relu
I0227 15:00:51.176198 29267 net.cpp:131] Top shape: 1 1024 10 10 (102400)
I0227 15:00:51.176203 29267 net.cpp:139] Memory required for data: 86016000
I0227 15:00:51.176208 29267 layer_factory.hpp:77] Creating layer conv15
I0227 15:00:51.176221 29267 net.cpp:86] Creating Layer conv15
I0227 15:00:51.176225 29267 net.cpp:408] conv15 <- conv15/dw
I0227 15:00:51.176232 29267 net.cpp:382] conv15 -> conv15
I0227 15:00:51.195489 29267 net.cpp:124] Setting up conv15
I0227 15:00:51.195514 29267 net.cpp:131] Top shape: 1 1024 10 10 (102400)
I0227 15:00:51.195524 29267 net.cpp:139] Memory required for data: 86425600
I0227 15:00:51.195536 29267 layer_factory.hpp:77] Creating layer conv15/relu
I0227 15:00:51.195550 29267 net.cpp:86] Creating Layer conv15/relu
I0227 15:00:51.195556 29267 net.cpp:408] conv15/relu <- conv15
I0227 15:00:51.195564 29267 net.cpp:369] conv15/relu -> conv15 (in-place)
I0227 15:00:51.196246 29267 net.cpp:124] Setting up conv15/relu
I0227 15:00:51.196257 29267 net.cpp:131] Top shape: 1 1024 10 10 (102400)
I0227 15:00:51.196265 29267 net.cpp:139] Memory required for data: 86835200
I0227 15:00:51.196269 29267 layer_factory.hpp:77] Creating layer conv15_conv15/relu_0_split
I0227 15:00:51.196281 29267 net.cpp:86] Creating Layer conv15_conv15/relu_0_split
I0227 15:00:51.196290 29267 net.cpp:408] conv15_conv15/relu_0_split <- conv15
I0227 15:00:51.196298 29267 net.cpp:382] conv15_conv15/relu_0_split -> conv15_conv15/relu_0_split_0
I0227 15:00:51.196316 29267 net.cpp:382] conv15_conv15/relu_0_split -> conv15_conv15/relu_0_split_1
I0227 15:00:51.196382 29267 net.cpp:124] Setting up conv15_conv15/relu_0_split
I0227 15:00:51.196389 29267 net.cpp:131] Top shape: 1 1024 10 10 (102400)
I0227 15:00:51.196394 29267 net.cpp:131] Top shape: 1 1024 10 10 (102400)
I0227 15:00:51.196399 29267 net.cpp:139] Memory required for data: 87654400
I0227 15:00:51.196405 29267 layer_factory.hpp:77] Creating layer upsample
I0227 15:00:51.196420 29267 net.cpp:86] Creating Layer upsample
I0227 15:00:51.196426 29267 net.cpp:408] upsample <- conv15_conv15/relu_0_split_0
I0227 15:00:51.196434 29267 net.cpp:382] upsample -> upsample
I0227 15:00:52.931707 29267 net.cpp:124] Setting up upsample
I0227 15:00:52.931733 29267 net.cpp:131] Top shape: 1 512 19 19 (184832)
I0227 15:00:52.931758 29267 net.cpp:139] Memory required for data: 88393728
I0227 15:00:52.931774 29267 layer_factory.hpp:77] Creating layer maxpool
I0227 15:00:52.931788 29267 net.cpp:86] Creating Layer maxpool
I0227 15:00:52.931798 29267 net.cpp:408] maxpool <- upsample
I0227 15:00:52.931807 29267 net.cpp:382] maxpool -> maxpool
I0227 15:00:52.932070 29267 net.cpp:124] Setting up maxpool
I0227 15:00:52.932080 29267 net.cpp:131] Top shape: 1 512 20 20 (204800)
I0227 15:00:52.932085 29267 net.cpp:139] Memory required for data: 89212928
I0227 15:00:52.932088 29267 layer_factory.hpp:77] Creating layer conv17/dw
I0227 15:00:52.932788 29267 net.cpp:86] Creating Layer conv17/dw
I0227 15:00:52.932811 29267 net.cpp:408] conv17/dw <- conv11_conv11/relu_0_split_1
I0227 15:00:52.932832 29267 net.cpp:382] conv17/dw -> conv17/dw
I0227 15:00:52.934835 29267 net.cpp:124] Setting up conv17/dw
I0227 15:00:52.934847 29267 net.cpp:131] Top shape: 1 512 20 20 (204800)
I0227 15:00:52.934854 29267 net.cpp:139] Memory required for data: 90032128
I0227 15:00:52.934864 29267 layer_factory.hpp:77] Creating layer conv17/dw/relu
I0227 15:00:52.934892 29267 net.cpp:86] Creating Layer conv17/dw/relu
I0227 15:00:52.934898 29267 net.cpp:408] conv17/dw/relu <- conv17/dw
I0227 15:00:52.934906 29267 net.cpp:369] conv17/dw/relu -> conv17/dw (in-place)
I0227 15:00:52.935720 29267 net.cpp:124] Setting up conv17/dw/relu
I0227 15:00:52.935732 29267 net.cpp:131] Top shape: 1 512 20 20 (204800)
I0227 15:00:52.935739 29267 net.cpp:139] Memory required for data: 90851328
I0227 15:00:52.935742 29267 layer_factory.hpp:77] Creating layer conv17
I0227 15:00:52.935760 29267 net.cpp:86] Creating Layer conv17
I0227 15:00:52.935765 29267 net.cpp:408] conv17 <- conv17/dw
I0227 15:00:52.935775 29267 net.cpp:382] conv17 -> conv17
I0227 15:00:52.945386 29267 net.cpp:124] Setting up conv17
I0227 15:00:52.945402 29267 net.cpp:131] Top shape: 1 512 20 20 (204800)
I0227 15:00:52.945410 29267 net.cpp:139] Memory required for data: 91670528
I0227 15:00:52.945418 29267 layer_factory.hpp:77] Creating layer conv17/relu
I0227 15:00:52.945428 29267 net.cpp:86] Creating Layer conv17/relu
I0227 15:00:52.945433 29267 net.cpp:408] conv17/relu <- conv17
I0227 15:00:52.945439 29267 net.cpp:369] conv17/relu -> conv17 (in-place)
I0227 15:00:52.946265 29267 net.cpp:124] Setting up conv17/relu
I0227 15:00:52.946277 29267 net.cpp:131] Top shape: 1 512 20 20 (204800)
I0227 15:00:52.946283 29267 net.cpp:139] Memory required for data: 92489728
I0227 15:00:52.946287 29267 layer_factory.hpp:77] Creating layer conv17/sum
I0227 15:00:52.946305 29267 net.cpp:86] Creating Layer conv17/sum
I0227 15:00:52.946310 29267 net.cpp:408] conv17/sum <- maxpool
I0227 15:00:52.946316 29267 net.cpp:408] conv17/sum <- conv17
I0227 15:00:52.946322 29267 net.cpp:382] conv17/sum -> conv17/sum
I0227 15:00:52.946447 29267 net.cpp:124] Setting up conv17/sum
I0227 15:00:52.946456 29267 net.cpp:131] Top shape: 1 512 20 20 (204800)
I0227 15:00:52.946462 29267 net.cpp:139] Memory required for data: 93308928
I0227 15:00:52.946466 29267 layer_factory.hpp:77] Creating layer conv18/dw
I0227 15:00:52.946475 29267 net.cpp:86] Creating Layer conv18/dw
I0227 15:00:52.946480 29267 net.cpp:408] conv18/dw <- conv17/sum
I0227 15:00:52.946486 29267 net.cpp:382] conv18/dw -> conv18/dw
I0227 15:00:52.948267 29267 net.cpp:124] Setting up conv18/dw
I0227 15:00:52.948276 29267 net.cpp:131] Top shape: 1 512 20 20 (204800)
I0227 15:00:52.948282 29267 net.cpp:139] Memory required for data: 94128128
I0227 15:00:52.948304 29267 layer_factory.hpp:77] Creating layer conv18/dw/relu
I0227 15:00:52.948313 29267 net.cpp:86] Creating Layer conv18/dw/relu
I0227 15:00:52.948318 29267 net.cpp:408] conv18/dw/relu <- conv18/dw
I0227 15:00:52.948324 29267 net.cpp:369] conv18/dw/relu -> conv18/dw (in-place)
I0227 15:00:52.949141 29267 net.cpp:124] Setting up conv18/dw/relu
I0227 15:00:52.949152 29267 net.cpp:131] Top shape: 1 512 20 20 (204800)
I0227 15:00:52.949158 29267 net.cpp:139] Memory required for data: 94947328
I0227 15:00:52.949162 29267 layer_factory.hpp:77] Creating layer conv18_new
I0227 15:00:52.949175 29267 net.cpp:86] Creating Layer conv18_new
I0227 15:00:52.949188 29267 net.cpp:408] conv18_new <- conv18/dw
I0227 15:00:52.949199 29267 net.cpp:382] conv18_new -> conv18_new
I0227 15:00:52.966289 29267 net.cpp:124] Setting up conv18_new
I0227 15:00:52.966313 29267 net.cpp:131] Top shape: 1 1024 20 20 (409600)
I0227 15:00:52.966321 29267 net.cpp:139] Memory required for data: 96585728
I0227 15:00:52.966333 29267 layer_factory.hpp:77] Creating layer conv18_new/relu
I0227 15:00:52.966347 29267 net.cpp:86] Creating Layer conv18_new/relu
I0227 15:00:52.966383 29267 net.cpp:408] conv18_new/relu <- conv18_new
I0227 15:00:52.966393 29267 net.cpp:369] conv18_new/relu -> conv18_new (in-place)
I0227 15:00:52.967236 29267 net.cpp:124] Setting up conv18_new/relu
I0227 15:00:52.967247 29267 net.cpp:131] Top shape: 1 1024 20 20 (409600)
I0227 15:00:52.967254 29267 net.cpp:139] Memory required for data: 98224128
I0227 15:00:52.967258 29267 layer_factory.hpp:77] Creating layer conv19
I0227 15:00:52.967275 29267 net.cpp:86] Creating Layer conv19
I0227 15:00:52.967280 29267 net.cpp:408] conv19 <- conv15_conv15/relu_0_split_1
I0227 15:00:52.967291 29267 net.cpp:382] conv19 -> conv19
I0227 15:00:52.972749 29267 net.cpp:124] Setting up conv19
I0227 15:00:52.972765 29267 net.cpp:131] Top shape: 1 75 10 10 (7500)
I0227 15:00:52.972772 29267 net.cpp:139] Memory required for data: 98254128
I0227 15:00:52.972781 29267 layer_factory.hpp:77] Creating layer conv20
I0227 15:00:52.972795 29267 net.cpp:86] Creating Layer conv20
I0227 15:00:52.972800 29267 net.cpp:408] conv20 <- conv18_new
I0227 15:00:52.972810 29267 net.cpp:382] conv20 -> conv20
I0227 15:00:52.978281 29267 net.cpp:124] Setting up conv20
I0227 15:00:52.978296 29267 net.cpp:131] Top shape: 1 75 20 20 (30000)
I0227 15:00:52.978303 29267 net.cpp:139] Memory required for data: 98374128
I0227 15:00:52.978313 29267 net.cpp:202] conv20 does not need backward computation.
I0227 15:00:52.978320 29267 net.cpp:202] conv19 does not need backward computation.
I0227 15:00:52.978325 29267 net.cpp:202] conv18_new/relu does not need backward computation.
I0227 15:00:52.978329 29267 net.cpp:202] conv18_new does not need backward computation.
…
